sandbox/saved_models/AMS.JO-AEG.JO.pt (torch, 12893 bytes, 6 tensors)

model.0.weight f4 [64, 3]
00000000: d32a 27bd 2f93 5ebf d161 093f d72d d9be
00000010: fbfb 6abf 9b32 0e3f b42a acbe 8087 1cbf
00000020: 5662 103f 0667 80bf cb01 98bd 4e75 0c40
00000030: 007a 413d 4448 cbbd 00d4 833b a445 58be
00000040: d92e df3e 36a5 993e c34e 483e b9c1 b43e
00000050: c339 173f 4406 813c 97f5 e4bf cbc8 733f
00000060: 8039 323e 1bae 9ebf 5ea7 323e 52b7 ccbb
00000070: 3b9e 31bf 2af3 893f 2cdc 8f3d a35f 6ebe
00000080: 88b1 013f 5981 26bf f9b2 043f 9721 243f
00000090: 1942 ecbd e79f 993d 09e8 733f e72a 803e
000000a0: 8ae0 11bf 90b0 4bbe 3355 55bf c031 b73e
000000b0: 4833 df3e e740 c43e 2f16 38bf eda0 2dbf
000000c0: 92a3 85bf e186 563e 9e51 4c3f 4c64 02bf
000000d0: 8264 a6be a905 1e3e 0080 6d3a c2af 10be
000000e0: f0e2 d63d 2aaa 06be 976a ff3e f5a1 023d
000000f0: 2735 2cbf 10b6 3ebe 3a3c db3e 9eab dc3e
00000100: 91a0 98bf 8434 053f 4ad2 423e b24e c2bf
00000110: 5a5f acbe 6438 67bf fb98 143f 4331 573f
00000120: 1258 c8bd 25b0 a8be beb3 f93f 7ac9 1cbf
00000130: 5c8b d2be f939 a03f 84e8 bcbf 6414 a3bc
00000140: 09e7 0540 1b60 3b3f fd12 0a3b e06a 4abd
00000150: 9a8e babe 5ca0 d7be e4c3 e63e 33fa 2cbf
00000160: f587 a1bd a706 aa3f c741 413d 4fb6 853e
00000170: ce2e eb3d 79ad 55bf 3e74 3bbd bddc 6b3f
00000180: 6e47 10bf 4303 4fbf c685 3c3f bd22 ddbd
00000190: b598 9cbe 9074 6a3e f53e 66be 32fe ce3e
000001a0: e665 3d3f b690 a1be 0b90 0abf e838 893f
000001b0: 0422 063e a6cc 7fbe 566c 4cbe c78f 68bf
000001c0: a93f b53d bcf0 2c40 a9d2 7fbe fdfb 8cbf
000001d0: d7d2 aa3f 64c7 4cbd ad71 8cbd 2677 cb3e
000001e0: 4e7e 4c3c 4d58 233e 802f 803e 1a64 03bf
000001f0: 50b0 ca3e 1d37 b53e f1dc d93c f234 fb3e
00000200: 4af3 213f 0440 40be 23f9 1c3f 7ccc a83e
00000210: 5756 a93d 15a2 8abf 77eb 423f e0a4 f43c
00000220: 40c7 45bd 4c3b 1c3e 917f 72bf 9643 9b3e
00000230: 916a 8f3f 5b59 68bf 0478 f63e b5f8 af3f
00000240: e065 f73c 68e1 083e 4ff4 02bf 6539 6dbf
00000250: a751 5bbf e690 ab3f 17c7 cdbe 17fc 08be
00000260: 247a de3e 1d44 1b3e b126 94bf 4e33 3a3f
00000270: 7306 3d3f 0031 74be 1293 00bf 2f78 3f3e
00000280: b674 1f3f 18b3 8c3e 1dab 843e 9109 83bf
00000290: 9b82 80bf 13da 84be d7a6 18bf 1040 903f
000002a0: 09bb bbbe ef49 5bbf dd0f e03e cc29 f3be
000002b0: 171f 303f b314 343f e45c 04bf dba8 64bf
000002c0: 0ee7 563e 56da dbbe 20e4 9ebf 8704 1c3f
000002d0: 3e26 ffbd ca12 e2bd 1342 263e 174e a6be
000002e0: 6e97 463e cbf8 653f cac6 4c3d d8ca 84bf
000002f0: edbd 623f 7f03 963d 8145 483e 0f9c 7e3e
-0.040812325 -0.86943334 0.5366488 -0.42417786 -0.9179074 0.5554597 -0.3362633 -0.61144257
0.5640005 -1.003144 -0.07422217 2.1946597 0.04723549 -0.09925893 0.004023075 -0.21120316
0.4359043 0.30008858 0.19561295 0.3530405 0.5907251 0.015750058 -1.7887448 0.9522826
0.17404747 -1.2396883 0.17446658 -0.0062474394 -0.69382066 1.0777333 0.07024416 -0.2327867
0.50661516 -0.6504112 0.5183559 0.64113754 -0.115360446 0.07501202 0.9527593 0.25032732
-0.56983244 -0.19891572 -0.8333313 0.35780144 0.43593812 0.38330767 -0.7190885 -0.6782368
-1.0440543 0.2094989 0.7981204 -0.5093429 -0.32498556 0.15431847 0.0009059906 -0.14129546
0.10492504 -0.1315085 0.4988601 0.031892736 -0.67268604 -0.18624139 0.42819387 0.43099684
-1.1924001 0.5203326 0.19025531 -1.5180266 -0.33666497 -0.9032042 0.5804593 0.8405954
-0.09782423 -0.32946888 1.9507978 -0.6124493 -0.41121948 1.2517692 -1.4758458 -0.019907184
2.0922263 0.7319352 0.0021068447 -0.04941833 -0.3643692 -0.42114532 0.45071328 -0.67569274
-0.0788726 1.328328 0.04718187 0.26115653 0.11483537 -0.83467823 -0.045765154 0.92133695
-0.56358993 -0.8086435 0.7364162 -0.107976414 -0.30585256 0.22896028 -0.22484954 0.4042831
0.7398361 -0.31555718 -0.5412604 1.0720491 0.13098913 -0.24980411 -0.19963202 -0.90844387
0.08850033 2.7021933 -0.24982704 -1.1014401 1.3345593 -0.04999484 -0.068576194 0.3973934
0.012481285 0.15951653 0.2503624 -0.5132462 0.3958764 0.3539361 0.02659461 0.49063832
0.63261855 -0.1877442 0.6131765 0.3296851 0.08268421 -1.0830714 0.7614054 0.029863775
-0.048285723 0.15256995 -0.947259 0.30325 1.1204396 -0.90761346 0.4813844 1.3747774
0.030199945 0.13367236 -0.51154035 -0.926657 -0.85671467 1.3403594 -0.40190956 -0.13377415
0.4345256 0.15162702 -1.1574308 0.72734535 0.73837966 -0.23846817 -0.5022441 0.1869819
0.6228746 0.27480388 0.259118 -1.0237294 -1.0039858 -0.25947627 -0.5962958 1.126955
-0.36666134 -0.8565969 0.43762103 -0.47492826 0.6879744 0.70344085 -0.5170424 -0.89320153
0.20986578 -0.42940015 -1.2413368 0.6094441 -0.12458466 -0.1103874 0.16236143 -0.32481453
0.19393703 0.8983275 0.049994268 -1.0374403 0.88571054 0.073248856 0.19557764 0.24864219

model.0.bias f4 [64]
00000000: fd77 07bf 8d8c 623f 6ea6 b93f 940a a33f
00000010: 045a aabe 2baa b33f 1d3a 303f 6dc0 4c3f
00000020: 5c17 193f d637 923e da2e b13f 27da 5c3f
00000030: df5a a23f 9502 4ebf 7745 313f c9f3 eebe
00000040: b4e4 833f acf4 293f 3688 24be dcbb 4d3f
00000050: dbba 4f3f ba80 163f 034f 0d3f b161 863f
00000060: ed54 813f f258 d33f fb73 7d3f 823d f4be
00000070: 72ec 84be a04c b33f 1f16 ffbe 075b d63f
00000080: 1040 a93f 449a be3f 4f06 7b3f 1a42 b83f
00000090: da95 cebe bc65 af3f fefe 863f 41df eabe
000000a0: a46a 9b3f 1826 a33f cdeb d03f 3af9 223f
000000b0: 9fd3 4a3f 7899 7bbe 82cb c03f e281 d13f
000000c0: 52f2 74be 7d14 d23f 9530 c13f f679 513f
000000d0: 7825 05bf dd89 2c3f a7f1 1f3e fc77 1f3e
000000e0: d78a fa3e de43 903f 9611 bd3f 2571 573f
000000f0: c6e1 00bf e046 7f3f ac02 6a3f 4c36 cf3e
-0.5291746 0.88495713 1.4503915 1.2737603 -0.332718 1.4036306 0.68838674 0.7998112
0.5980127 0.28558224 1.3842423 0.86270374 1.2683982 -0.8047269 0.6924662 -0.46670368
1.030417 0.66388965 -0.16067585 0.80364776 0.81144494 0.5879017 0.5519869 1.0498563
1.0104042 1.6511519 0.990051 -0.47703177 -0.25961643 1.4007759 -0.49821565 1.6746529
1.3222675 1.4890828 0.980565 1.4395173 -0.40348703 1.3702922 1.0546567 -0.45873454
1.2141919 1.2746 1.6321961 0.6366154 0.7922916 -0.24570262 1.5062106 1.6367762
-0.23920563 1.6412503 1.5092951 0.8182672 -0.520103 0.6739786 0.15619527 0.15573114
0.4893405 1.1270711 1.4770992 0.8415702 -0.503445 0.9971752 0.91410327 0.40471113

model.2.weight f4 [32, 64]
00000000: 0559 b4be df3e 863e bf8b 233f d947 c8bf
00000010: 5223 bcbd f827 873f e80a 833f e569 863f
00000020: 729b 4d3f 1657 c0be d5a2 6b3f b738 633f
00000030: f22f 6c3f d8b7 ea3c 8bc7 e83e b710 d3bd
00000040: 1188 2b3f 0031 8a3e c0b0 c33c 5518 903f
00000050: 5ad4 ec3e 8527 003d 9f16 0a3f 8355 443f
00000060: b4af dcbf 3c4d 223f 3b85 c1bf 416e 2c3f
00000070: 6cef debc 9aab 173f ecb1 57bc 9d49 1d3f
00000080: f8a1 f63e 5fb8 493f dd33 8b3f f571 2f3f
00000090: 9f67 b4bd 866e d8bf 3764 173e abfd a1bd
000000a0: b970 823f 8b5e 6a3f f5c3 813f c925 883f
000000b0: fd81 4dbd 0425 dc3d f06b 2a3f 1dbb 543f
000000c0: e42a b9bd f33c ec3e 0f91 633f 6164 0cbe
000000d0: 7a63 543f 3309 923f 7cdb 28be 7406 2ebf
000000e0: 70ea 683e c080 873f ff23 cb3e 0593 c23e
000000f0: 1271 d8bc 5c34 753f e050 a8bd d5a8 173f
00000100: f452 d4bd e0a1 d93b 007a a0b9 f094 c1bc
00000110: bcfc 333d 06f5 bdbd e058 f33c b42a 313d
00000120: 08c9 fb3d 8865 69bd 5019 5c3d 9033 823c
00000130: d0a3 a4bc 1e5e d5bd 5066 63bc 5008 373c
00000140: 3099 90bd e465 b4bd ce7a e1bd 406e 92bc
00000150: 4a0c b8bd bc04 e9bd d689 b5bd b808 c93c
00000160: b2c6 e73d fc45 7f3d 16da b5bd 8873 f3bc
00000170: 9046 c9bc d813 49bd 885b cfbd e060 fd3b
00000180: b0c7 5c3d e670 ed3d ec8f 9f3d 10b8 c73d
00000190: 9626 e4bd 9030 9bbd 2e99 a5bd c0bc f83b
000001a0: 1654 c5bd 68ef 24bd 9a02 a5bd b41f 1fbd
000001b0: 78ff 13bd ee4f bd3d 2c00 8dbd b01b b73d
000001c0: c09c 03bc 120e 843d e8a1 b8bd e05c 0f3c
000001d0: d2c3 99bd 589a e9bc 0e37 b03d 3220 af3d
000001e0: 104a 52bd 90c7 1abd 4013 aabc 98b5 843d
000001f0: 0ca4 573d 80b9 f5bb a04b 213d ae7b a83d
00000200: 0efd 8abd 46ea 16be 4574 14be 9031 793c
00000210: 183d 713d cbe2 14be 51f2 dbbd 4cfa 4f3c
00000220: a361 48bc 0d34 ddbc 49cd d9bd aa81 313d
00000230: f875 28bc 5c4a 72bd 2d2f 5a3d 7e26 e43d
00000240: a89b 08bd 76f5 6b3d d4a4 233d bba7 4a3a
00000250: 3b18 ecbd d85c 27bc 8cda 423d 157d c9bc
00000260: 65e2 6a3d e6f5 1dbe 3a45 863d 0cbe f4bd
00000270: 2c1c 5e3d ca03 60bd 7c08 3f3d 6198 0ebd
00000280: 2352 82bd 098a 73bd ef93 91bd de22 26be
00000290: 5c39 183d 334a aa3d b22f c0bd 5818 f4bc
000002a0: 16f9 0bbe a0be b93b 106c e6bc 0dd8 06be
000002b0: 5ce5 363d 58ba 183d 4f0e 7abd 85e9 3d3d
000002c0: b03e 95bc 26d2 c53b d608 9e3c 5485 0dbd
000002d0: 309d bf3d a069 3bbd 3f99 223d 55e0 113d
000002e0: c06d 833a c985 a2bd aeab 633d 3c6d 23be
000002f0: 8a00 b5bd f824 8b3d a234 433d 8931 efbd
00000300: d091 0b3d 8885 f2bc 9513 03be 4a22 ac3d
00000310: 68cc f8bc 960b f4bc 2afd d8bd 10a9 573c
00000320: 48a1 f93d b898 e33d 6294 923d abde f1bd
00000330: c8c8 f4bc 96e7 ea3d 7a4c 99bd 3a1e fbbd
00000340: c8dc abbc 91e4 6bbd 50f7 dd3c 30ed 4ebd
00000350: b89b bc3d 3a49 ecbd bc1f e13d d314 61bd
00000360: 3603 cabd 2c42 75bd e059 f83d 3e6a e1bd
00000370: 9102 e0ba 27aa 9dbd acb9 b8bd b1d0 943c
00000380: 8495 923d 2aa6 a83d c45c cf3d 22ba 04be
00000390: d68b f2bd d298 c5bd 8cfd 05bd e800 a93c
000003a0: 4f16 04be d5d7 9cbd 1445 823d fb55 edbd
000003b0: a286 f83d b0dc 463d 469c 9b3d 7267 813d
000003c0: 60d0 773d 27c4 82bd 0602 9fbd c83e edbd
000003d0: 9488 513d b09b c5bc 849d 8cbd 3017 413d
000003e0: 3213 c0bd 9eba 80bd 882d 293d 96f6 c5bd
000003f0: 6e61 a8bd f78c ab3d 80dc e6ba f04f 5fbd
-0.35224167 0.26219842 0.6388511 -1.5646926 -0.09186424 1.0559072 1.0237703 1.0501066
0.80315316 -0.3756644 0.92045337 0.88758415 0.9226066 0.028652117 0.4546474 -0.103059225
0.67004496 0.2699051 0.023887992 1.1257426 0.4625576 0.03128769 0.5394077 0.7669298
-1.724112 0.633991 -1.5118784 0.67355734 -0.027213775 0.5924622 -0.0131649785 0.6144045
0.48170447 0.7879695 1.0875202 0.6853326 -0.08808827 -1.6908729 0.14784323 -0.079097115
1.019065 0.9155051 1.0137926 1.0636531 -0.050172795 0.10749248 0.6657095 0.8309801
-0.09041384 0.4614025 0.88893217 -0.13710167 0.8296429 1.1409057 -0.16489977 -0.67978597
0.22745681 1.0586166 0.396759 0.38002792 -0.026421104 0.9578302 -0.08218551 0.5924199
-0.103673846 0.0066416115 -0.00030608475 -0.02363059 0.0439422 -0.0927525 0.029705465 0.043253615
0.12294203 -0.056981593 0.053735077 0.015893728 -0.020097643 -0.10418342 -0.013879374 0.011171415
-0.07060468 -0.088084966 -0.11009751 -0.017874837 -0.08986719 -0.11377856 -0.08864181 0.02454029
0.11317195 0.0623226 -0.08879487 -0.029718176 -0.02456978 -0.04909119 -0.1012488 0.0077324957
0.053901374 0.11593799 0.07791123 0.09751904 -0.11140172 -0.07577622 -0.08085857 0.00759086
-0.09635179 -0.040267378 -0.08057137 -0.038848594 -0.036132306 0.09243761 -0.068847984 0.08940828
-0.008032978 0.06447996 -0.09015256 0.0087501705 -0.07508053 -0.02851598 0.08604251 0.08551063
-0.051340163 -0.037787974 -0.020761132 0.06479949 0.05264668 -0.00749892 0.039378762 0.08226715
-0.067865476 -0.14737806 -0.14497478 0.0152095705 0.058896154 -0.1453964 -0.107395776 0.012693953
-0.01223031 -0.027002359 -0.10634858 0.043336548 -0.010282032 -0.059152946 0.053267647 0.11140154
-0.03335157 0.057607137 0.039952114 0.0007730682 -0.11528059 -0.010215007 0.047571704 -0.024595777
0.057344813 -0.15425834 0.06556173 -0.11950311 0.054226086 -0.054691114 0.04663895 -0.03481329
-0.063633226 -0.059457812 -0.07108294 -0.16224238 0.037164077 0.08314934 -0.09384097 -0.029796764
-0.13669237 0.005668476 -0.0281277 -0.13168354 0.044652328 0.037287086 -0.061048802 0.04636528
-0.018218368 0.0060370145 0.019291323 -0.03455098 0.09356153 -0.04575503 0.039696928 0.03561433
0.0010027215 -0.07935674 0.05558365 -0.15959638 -0.088379934 0.067941606 0.047657616 -0.1167937
0.034074605 -0.029604688 -0.12800439 0.084049776 -0.030370906 -0.02979068 -0.10595162 0.013162866
0.12188965 0.11113113 0.07157208 -0.11810049 -0.029880896 0.11469953 -0.0748529 -0.12261625
-0.0209793 -0.057591025 0.027095467 -0.05051917 0.092093885 -0.11537404 0.10992381 -0.0549515
-0.09863894 -0.05987756 0.12126517 -0.11006592 -0.0017090609 -0.076984696 -0.09019789 0.018165918
0.07157424 0.08234818 0.101251155 -0.12961629 -0.11843078 -0.09648289 -0.032712504 0.020630315
-0.12899135 -0.07658354 0.06360832 -0.11588665 0.12135054 0.048550308 0.07598166 0.06318559
0.060501456 -0.06385069 -0.07764058 -0.1158424 0.05115564 -0.02412209 -0.06865981 0.047141254
-0.09378661 -0.062855944 0.041303188 -0.09666173 -0.08221708 0.08376496 -0.0017613322 -0.054519594

model.2.bias f4 [32]
00000000: bebb 543f 3e0b c4bd 3803 acbd 4e97 de3d
00000010: 3551 d1bd 7093 cfbd c782 143d 0062 7e3d
00000020: c12e 81be 517f 61be dab2 e9bd c5e5 063e
00000030: 4316 c33d 4b10 583d e1e5 013f b056 d6bc
00000040: 3f56 273f deb6 193f 7a3f e9bc 8d4f f63c
00000050: a67a 0bbd 357e 55be 35fb 5e3f c20a 1c3f
00000060: 9a07 a33d edfb 323f d097 e9bd c462 bcbd
00000070: e3b0 f13d ac3d 453c b9f9 823d 1b2b cabb
0.8309897 -0.09572457 -0.083990514 0.10868703 -0.10220567 -0.10135543 0.03625753 0.06210518
-0.25230983 -0.22021224 -0.11411066 0.13173588 0.095257305 0.052749913 0.5074139 -0.026164383
0.65365976 0.6004466 -0.02847265 0.03006723 -0.034052514 -0.20848925 0.8710206 0.60953915
0.07960434 0.6991566 -0.11405909 -0.091985255 0.118013166 0.0120386295 0.06395287 -0.0061696894

model.4.weight f4 [3, 32]
00000000: a15d 8a3f 1413 0abd bb67 eebd 2610 81bd
00000010: 2938 08be 1b34 2fbe 95bd 583e e5a9 aabd
00000020: 5e21 2e3b dbce 0d3f b533 2f3e 68c1 83bd
00000030: 17bd 8fbd 3593 99bd 69c8 ee3d 04a4 1e3d
00000040: 2aed 503f c679 0f3f 1562 e03e 6c10 313c
00000050: 40b3 46be ddbb dd3d 2bf8 633f 3173 1fbf
00000060: 2c3e c0bd f972 063f 2014 9fbc 1053 b43c
00000070: 3f9a ac3c 3dee 0e3e 9bf1 86bd 8412 383d
00000080: 2c15 6f3f 6223 e83d 3c54 4d3d b551 b13c
00000090: 334c a73d 13e4 3b3d 24f6 3fbd 041b 193e
000000a0: 0cc0 dabc 1714 783e 12ec ca3d 598e fb3c
000000b0: 9f6d 21be 2349 6ebc 5a87 8f3e cc2c 9fbd
000000c0: 583e 393f dc74 d43e 16ba 073e 91ec c8bd
000000d0: 5b77 a0be 4231 8ebc 21fd 553f a109 35bf
000000e0: b9e8 85bd b14f 7a3f 6430 81bd 0fdf 143e
000000f0: 42a1 2ebe 520b 52be a200 393e 9467 2bbd
00000100: 558b 013f d6c1 b1bd b7eb 4e3d f1a3 ba3d
00000110: 2700 933d 4c1e ec3d 2b0d 4cbe c37b ec3c
00000120: c107 30be 9a84 ca3e 55d7 34bd 863b 553f
00000130: fbb8 b13e e2a3 adbd 1c03 2a3c 7032 3d3c
00000140: 34d0 c13e 1b74 6d3e fd09 bb3e e5b3 1bbe
00000150: 387c cc3d c472 be3e bba0 cc3e 9f65 3ebf
00000160: fa30 09be 9fc2 823f 39e2 d4bd e042 efbc
00000170: bba0 97bd 17e7 85be ed7b d33d 2561 f9bd
1.0809823 -0.0337096 -0.11640879 -0.06301908 -0.13302673 -0.1710972 0.2116607 -0.08333186
0.0026570181 0.5539376 0.17109568 -0.06433374 -0.07018488 -0.07498781 0.11659319 0.038730636
0.81611884 0.56045187 0.4382483 0.010807138 -0.19404316 0.10826848 0.8905055 -0.62285143
-0.09386858 0.52519184 -0.019418776 0.022012264 0.021069644 0.13958068 -0.06589051 0.044939533
0.9339168 0.11334874 0.05012916 0.021645406 0.08168831 0.045871805 -0.046865597 0.14951712
-0.026702903 0.24226414 0.09908308 0.030707525 -0.15764473 -0.014543804 0.28032953 -0.07772216
0.72360754 0.41495407 0.1325458 -0.098107465 -0.3134106 -0.017357472 0.8358937 -0.7071782
-0.06538529 0.9777785 -0.06308058 0.14538215 -0.17053702 -0.20512131 0.18066648 -0.041846827
0.5060323 -0.086795494 0.050517764 0.091133006 0.071777634 0.11529216 -0.19926898 0.028867608
-0.17190458 0.39554292 -0.04415067 0.8329395 0.3471144 -0.08478524 0.010376718 0.01154767
0.3785416 0.23188822 0.36531058 -0.15205343 0.0998463 0.37196934 0.39966378 -0.7437381
-0.1339759 1.0215644 -0.10394711 -0.029206693 -0.07403704 -0.2615287 0.10326371 -0.12176732

model.4.bias f4 [3]
00000000: 813e e03e 6c61 e93e 53e9 3a3e
0.43797687 0.4558214 0.18253069
