sandbox/saved_models/AMS.JO-MUR.JO.pt (torch, 12893 bytes, 6 tensors)

model.0.weight f4 [64, 3]
0.03580794 -0.014671311 0.18441819 0.8050799 -0.47105795 0.28571227 0.7444876 0.3854191
0.63359666 0.1002979 -1.3457546 0.71420705 -0.7096818 -0.18757288 -0.03706428 -0.113877565
-0.4533968 -0.45897385 0.24214895 -0.36894134 0.9499772 1.3843564 -0.1653861 2.6582093
-0.23256615 0.27060136 1.1354913 -0.054891594 0.15427357 0.92545664 -0.8615101 -0.50893307
2.4161184 -0.41519988 -1.248555 0.41271034 -0.24860232 -1.2944609 0.9022513 -0.054930206
-1.4461752 0.692084 -0.44313526 -1.4192333 0.43573985 -0.4849179 0.11895824 0.35736188
-0.03543997 -0.32545152 0.6178635 -0.20302448 0.49000958 1.3249675 0.10270221 0.492136
0.8160378 0.15755312 0.59147984 0.24898745 0.037445426 -0.17628989 -0.26201406 -0.18826084
-0.07031275 0.5080947 -0.039913706 -0.8652846 0.5073584 0.9572687 -0.029438863 0.43077016
0.20099059 0.4858555 0.17212395 -1.3057462 -0.90591896 1.9132487 0.87042946 -0.07940561
0.7793609 -0.017153237 0.39127213 0.5625739 -0.65671134 -0.7595634 0.17083442 0.1408118
-0.85488933 0.3587165 0.003612882 -1.2279907 0.5130907 1.4162143 0.014827922 0.012975034
0.26216018 -1.8000098 0.9409194 0.094060354 -1.2852187 0.7380531 -0.48692527 0.2386032
0.23571411 -0.6987462 0.094794214 0.25273386 -0.03210187 -1.0068923 0.9810994 -0.58065814
-0.03702247 3.3283758 -0.4795867 0.331589 0.3354324 -0.19109477 -0.07853385 1.0384752
-0.29216954 -0.33645728 0.7712754 0.11542804 -0.7960553 1.0689583 0.04922105 -0.12235343
0.62427515 1.2498142 -0.31763762 0.79709 0.32667962 -0.6696861 0.7072273 0.25345325
0.3086525 0.7962067 -0.23979041 -0.3570816 0.6575713 0.8832931 -0.39994687 0.58679914
-0.2701548 -1.9390907 0.13087225 -0.04844802 -1.2997928 1.3354521 -0.2685266 0.38288602
0.8196684 -0.94576156 0.03465599 0.37542325 0.5703788 0.0825463 2.5313885 -0.037662525
-1.4773062 1.146755 -0.3140938 -1.3001554 0.94047135 0.83523834 0.070636466 3.0580797
0.015875833 -2.0678172 0.63607454 -0.04915661 -1.4502349 1.1414274 -1.070354 -0.6546355
2.0295022 -0.14602137 -1.2366183 0.35745302 0.47034127 0.25289878 1.0440377 0.10547696
0.59032637 0.33245373 0.1874001 0.3024905 0.95397043 0.020196438 -0.24820608 0.15556341
00000000: 59ab 123d f05f 70bc 1fd8 3c3e b719 4e3f
00000010: 822e f1be e148 923e bd96 3e3f a755 c53e
00000020: 6433 223f fc68 cd3d b041 acbf 46d6 363f
00000030: b5ad 35bf 1b13 40be b7d0 17bd a438 e9bd
00000040: a023 e8be 9ffe eabe e5f5 773e e1e5 bcbe
00000050: b531 733f 9732 b13f f95a 29be 1a20 2a40
00000060: d225 6ebe 438c 8a3e c757 913f 02d6 60bd
00000070: e4f9 1d3e baea 6c3f ed8b 5cbf 7049 02bf
00000080: afa1 1a40 1495 d4be a6d0 9fbf c54e d33e
00000090: 9b91 7ebe e5b0 a5bf f1f9 663f 7ffe 60bd
000000a0: 451c b9bf 6b2c 313f a0e2 e2be 70a9 b5bf
000000b0: 4b19 df3e 2947 f8be 61a0 f33d 23f8 b63e
000000c0: 8129 11bd 95a1 a6be 4d2c 1e3f a6e5 4fbe
000000d0: 89e2 fa3e 8998 a93f 8955 d23d 40f9 fb3e
000000e0: dae7 503f 9b55 213e 396b 173f 91f6 7e3e
000000f0: 6060 193d 5685 34be b526 86be 73c7 40be
00000100: 2200 90bd 7f12 023f 8e7c 23bd 4b83 5dbf
00000110: 3de2 013f 900f 753f c529 f1bc e88d dc3e
00000120: 7ad0 4d3e 0dc2 f83e 4341 303e b122 a7bf
00000130: 4eea 67bf 55e5 f43f 77d4 5e3f 699f a2bd
00000140: 3284 473f f284 8cbc d254 c83e d804 103f
00000150: 3c1e 28bf bf72 42bf 38ef 2e3e f830 103e
00000160: 07da 5abf b0a9 b73e 1ac6 6c3b cd2e 9dbf
00000170: ea59 033f 8346 b53f d0f0 723c 3d95 543c
00000180: dc39 863e b966 e6bf 18e0 703f b7a2 c03d
00000190: 0c82 a4bf 0cf1 3c3f 454e f9be 6654 743e
000001a0: 0a5f 713e 08e1 32bf 7823 c23d 5566 813e
000001b0: 407d 03bd d9e1 80bf 5529 7b3f 03a6 14bf
000001c0: e0a4 17bd 1c04 5540 638c f5be 09c6 a93e
000001d0: ccbd ab3e 59ae 43be 5bd6 a0bd c1ec 843f
000001e0: 3f97 95be 2144 acbe 4e72 453f 8965 ec3d
000001f0: 48ca 4bbf a0d3 883f 039c 493d 6f94 fabd
00000200: 7fd0 1f3f e9f9 9f3f 66a1 a2be 170e 4c3f
00000210: 8d42 a73e 8c70 2bbf d90c 353f a0c4 813e
00000220: b307 9e3e 34d4 4b3f 9e8b 75be 66d3 b6be
00000230: 9856 283f 7f1f 623f d6c5 ccbe 7838 163f
00000240: bb51 8abe 2034 f8bf 6003 063e 6e71 46bd
00000250: 9c5f a6bf 18f0 aa3f 527c 89be a309 c43e
00000260: cad5 513f 6e1d 72bf 70f3 0d3d 7a37 c03e
00000270: 5804 123f 090e a93d 4502 2240 0544 1abd
00000280: 5f18 bdbf dec8 923f e7d0 a0be 7e6b a6bf
00000290: bbc2 703f 2ed2 553f daa9 903d 94b7 4340
000002a0: 090e 823c 1e57 04c0 c8d5 223f 7158 49bd
000002b0: 4ca1 b9bf 4b1a 923f 5c01 89bf 3196 27bf
000002c0: 5de3 0140 a086 15be 8249 9ebf 1504 b73e
000002d0: 92d0 f03e f37b 813e 07a3 853f 4e04 d83d
000002e0: a11f 173f 6037 aa3e d0e5 3f3e 09e0 9a3e
000002f0: 6837 743f 0073 a53c bc29 7ebe 044c 1f3e

model.0.bias f4 [64]
1.2154715 0.8063783 0.9437831 0.88258225 0.17732066 -0.3879151 0.525452 0.62968457
1.7558903 1.9130836 -0.057126533 0.4429902 1.3348016 1.0555698 0.1757896 1.1787858
0.77317154 1.9035857 1.674696 1.7984633 -0.05019325 1.6171837 -0.56604254 0.9594215
1.139889 -0.40949214 0.76124793 1.6722456 0.86433774 0.6404902 0.94863605 0.42707714
0.4712028 0.80211943 1.4799731 1.0518409 0.29587182 1.4666849 1.4102813 1.7097473
1.4432299 0.70671266 1.396581 -0.23154116 1.34336 1.1521153 1.592111 1.4602672
1.2788475 0.37795183 1.7545019 -0.44995153 0.892435 0.6767165 1.4333194 0.6699749
1.4189175 0.6754608 -0.14251819 0.7953089 1.753927 1.2144033 1.4997838 -0.20114732
00000000: 9294 9b3f cf6e 4e3f c59b 713f e9f0 613f
00000010: 8c93 353e cf9c c6be 0684 063f 0233 213f
00000020: 03c1 e03f ecdf f43f 83fd 69bd 9dcf e23e
00000030: c7da aa3f e91c 873f 3002 343e 74e2 963f
00000040: 92ee 453f b2a8 f33f 705c d63f 0c34 e63f
00000050: 7097 4dbd e0ff ce3f 2ae8 10bf a69c 753f
00000060: e2e7 913f f4a8 d1be 25e1 423f 250c d63f
00000070: 3d45 5d3f 2af7 233f d0d9 723f dba9 da3e
00000080: 7e41 f13e b357 4d3f c26f bd3f b9a2 863f
00000090: 837c 973e 55bc bb3f 1984 b43f 00d9 da3f
000000a0: c2bb b83f 1feb 343f 2bc3 b23f 2019 6dbe
000000b0: 38f3 ab3f 8478 933f 4bca cb3f 09ea ba3f
000000c0: 46b1 a33f e782 c13e 8593 e03f 0c60 e6be
000000d0: 9f76 643f 4b3d 2d3f 0377 b73f 7a83 2b3f
000000e0: 179f b53f 00eb 2c3f 4af0 11be 5d99 4b3f
000000f0: ae80 e03f 9171 9b3f eaf8 bf3f 90f9 4dbe

model.2.weight f4 [32, 64]
0.053673837 -0.23532398 -0.04774605 0.08471709 0.039855853 0.11176877 -0.21845023 -0.19739182
-0.01741249 0.053210333 0.05435971 -0.039699 0.034628544 0.010385028 0.06966331 -0.056863766
-0.10695742 0.0861988 -0.089062646 -0.013418256 -0.102458954 0.011272654 0.00151649 -0.1560431
0.04132437 -0.04290293 -0.090813324 0.089886844 -0.044704992 -0.033214085 -0.09123135 -0.072648905
-0.3036123 -0.033469554 0.06644132 0.023205096 -0.1282268 0.0028066784 -0.086800314 -0.0068356115
-0.06887311 -0.3787481 -0.10309133 -0.18217038 0.065956384 -0.15698898 -0.015650477 -0.05454191
-0.06877744 0.10432076 0.069160245 0.0061761346 0.061999783 0.10625675 -0.09518708 -0.16676928
-0.019360157 0.024196707 0.047505774 -0.10979389 -0.015439701 -0.1190433 -0.11657181 0.08663508
0.30222425 0.47628823 0.41244006 -0.06996629 -0.6111016 -0.076036155 0.14132723 -1.3456156
0.053629972 0.046778534 -0.63014144 -0.111844 -0.13833453 0.26294002 -0.09139866 -0.08572384
-0.1121731 -0.019352721 0.106628574 0.40424356 0.022620276 0.14078006 -0.080439515 0.48436838
0.45871255 -0.79336786 0.40330204 0.14637995 -0.10455764 -0.24176475 0.29194954 -0.21260351
-0.306641 0.24020588 -0.062764265 -0.114347436 0.041388217 -2.79183 0.0060878256 0.13689812
-0.11895395 0.14688042 0.35778743 -0.13396159 0.2950195 0.18302506 0.17857082 0.4778401
0.44099414 -0.17710805 0.11650881 -0.9680424 -1.7510165 -0.13349679 0.1763911 -1.3213087
0.49610478 -0.0009802794 -0.8109547 0.07634932 0.16409118 0.17987216 0.22714595 0.0039653033
0.003193498 -0.17925225 -0.1491357 0.1595599 0.13600866 -0.057178527 -0.17566411 -0.2570075
-0.073603615 0.084013745 -0.0014389084 -0.04728569 0.034310423 -0.08162897 -0.07462221 0.05655184
-0.00094982533 0.043321177 -0.09749445 0.042298134 0.09244004 -0.027011046 -0.030608024 -0.034639943
-0.04150927 0.05301347 -0.21995753 -0.05382562 -0.08385657 0.042967808 -0.08275222 -0.01314095
-0.3482603 -0.099390164 -0.0019047955 -0.15490226 0.047951784 -0.09366274 -0.07428884 0.0979924
0.08440239 -0.40324366 0.016164614 -0.13938144 -0.104865424 -0.11557923 0.09245501 -0.079666525
-0.17762227 -0.122236215 0.05578943 -0.06490105 0.026080519 -0.022587558 0.1091484 -0.12674996
0.014397148 0.100364536 -0.07062808 -0.20499536 -0.10091317 -0.13222182 0.05907532 -0.09591673
0.8501847 0.26755747 0.6649869 -0.24957338 0.19152161 -0.047869187 0.16253637 -0.89946836
0.6078397 0.645531 -0.5240616 0.22250243 -0.16611008 -0.38575652 0.14385077 0.5983894
0.20974025 0.66344583 0.8012019 0.8522059 0.004945576 0.56414866 0.029945452 0.5421509
1.0542414 -0.56849325 0.39952663 0.91092724 0.19820948 0.06867859 -0.17930754 0.14411153
0.6385137 -0.25779358 0.7248594 0.52201825 -0.326376 -2.0543988 0.6280004 0.49224374
0.2954753 0.05192633 0.6406462 0.34233493 0.35039562 0.8737902 0.4422641 0.51547945
0.8602296 -0.31904936 0.5155788 0.064714186 -1.2196839 -0.33831355 -0.02123962 -0.83176273
1.1040468 -0.43631956 -0.52429414 -0.16210315 0.7071627 1.0179417 0.7414647 0.07992515
00000000: 19d9 5b3d c5f8 70be 5d91 43bd 2780 ad3d
00000010: e43f 233d 06e7 e43d 6bb1 5fbe 1521 4abe
00000020: a3a4 8ebc 14f3 593d 4aa8 5e3d 6b9b 22bd
00000030: a9d6 0d3d f725 2a3c a3ab 8e3d fbe9 68bd
00000040: 7e0c dbbd ff88 b03d 7a66 b6bd 3fd8 5bbc
00000050: 00d6 d1bd f0b0 383c f6c4 c63a c3c9 1fbe
00000060: be43 293d fcba 2fbd 56fc b9bd 9816 b83d
00000070: 951c 37bd 7e0b 08bd 81d7 babd f3c8 94bd
00000080: 1273 9bbe 5f17 09bd 6312 883d 9d18 be3c
00000090: e34d 03be 40f0 373b 5dc4 b1bd 44fd dfbb
000000a0: 580d 8dbd 45eb c1be 8c21 d3bd df8a 3abe
000000b0: 2414 873d b8c1 20be 6e35 80bc 5667 5fbd
000000c0: 30db 8cbd 1fa6 d53d e3a3 8d3d 2c61 ca3b
000000d0: 7cf3 7d3d 249d d93d 72f1 c2bd 91c5 2abe
000000e0: 3199 9ebc 2c38 c63c 6a95 423d 9edb e0bd
000000f0: cdf6 7cbc f9cc f3bd 33bd eebd bc6d b13d
00000100: 23bd 9a3e 0ddc f33e 582b d33e 7c4a 8fbd
00000110: 2871 1cbf d8b8 9bbd 16b8 103e 223d acbf
00000120: 1aab 5b3d d99a 3f3d f350 21bf 780e e5bd
00000130: 91a7 0dbe 13a0 863e 382f bbbd fb8f afbd
00000140: 03bb e5bd 9989 9ebc 1560 da3d 03f9 ce3e
00000150: 284e b93c a628 103e 79bd a4bd 22ff f73e
00000160: 5fdc ea3e 281a 4bbf 9b7d ce3e a0e4 153e
00000170: 5122 d6bd 2e91 77be 697a 953e bcb4 59be
00000180: 0d00 9dbe 88f8 753e 8d8a 80bd fd2e eabd
00000190: b186 293d 58ad 32c0 627c c73b 052f 0c3e
000001a0: 219e f3bd d267 163e ea2f b73e 3a2d 09be
000001b0: cc0c 973e ec6a 3b3e 45db 363e 75a7 f43e
000001c0: fcc9 e13e d05b 35be 2c9c ee3d a0d1 77bf
000001d0: 4f21 e0bf 62b3 08be de9f 343e a520 a9bf
000001e0: 7201 fe3e b87c 80ba ba9a 4fbf 085d 9c3d
000001f0: 8507 283e 6830 383e f398 683e 60ef 813b
00000200: 014a 513b e78d 37be 07b7 18be ac63 233e
00000210: db45 0b3e 0834 6abd 4be1 33be 7d96 83be
00000220: 7ebd 96bd 660f ac3d c199 bcba a4ae 41bd
00000230: 1689 0c3d 172d a7bd 87d3 98bd e7a2 673d
00000240: b3fd 78ba 8c71 313d 2cab c7bd cf40 2d3d
00000250: 3451 bd3d 4546 ddbc aebd fabc 9de2 0dbd
00000260: a005 2abd a724 593d 8c3c 61be 4178 5cbd
00000270: febc abbd 03ff 2f3d ff79 a9bd 244d 57bc
00000280: 2d4f b2be 128d cbbd 55aa f9ba b39e 1ebe
00000290: 1769 443d 40d2 bfbd bf24 98bd 3db0 c83d
000002a0: 29db ac3d f475 cebe a76b 843c 02ba 0ebe
000002b0: afc3 d6bd ceb4 ecbd 0d59 bd3d 3428 a3bd
000002c0: 9de2 35be fb56 fabd 7583 643d d7ea 84bd
000002d0: d0a6 d53c 8b09 b9bc 3289 df3d beca 01be
000002e0: 04e2 6b3c ec8b cd3d 74a5 90bd 4eea 51be
000002f0: 90ab cebd 2865 07be f6f8 713d fe6f c4bd
00000300: b4a5 593f 4bfd 883e 953c 2a3f 2a90 7fbe
00000310: 3e1e 443e 7b12 44bd ef6f 263e 8f43 66bf
00000320: 629b 1b3f 8541 253f e728 06bf add7 633e
00000330: c318 2abe e181 c5be 9e4d 133e 0c30 193f
00000340: 26c6 563e 96d7 293f 911b 4d3f 2a2a 5a3f
00000350: 800e a23b 0c6c 103f 2a50 f53c 67ca 0a3f
00000360: 62f1 863f c688 11bf c18e cc3e 8732 693f
00000370: 6df7 4a3e 5ca7 8c3d 659c 37be f991 133e
00000380: a275 233f 85fd 83be 6390 393f fda2 053f
00000390: c11a a7be 457b 03c0 a2c4 203f 5f07 fc3e
000003a0: 8a48 973e b4b0 543d 6401 243f 8646 af3e
000003b0: 0e67 b33e b7b0 5f3f 7170 e23e 76f6 033f
000003c0: 0238 5c3f 705a a3be f9fc 033f df88 843d
000003d0: 9a1e 9cbf 6f37 adbe b6fe adbc 67ee 54bf
000003e0: 6851 8d3f 4765 dfbe 2438 06bf 5efe 25be
000003f0: 9d08 353f ea4b 823f a1d0 3d3f ccaf a33d

model.2.bias f4 [32]
0.06718677 -0.44702354 -0.05713895 0.49294588 -0.7930005 -0.117176235 -0.023522377 0.0728435
0.018135805 -0.30645117 -0.09469581 -0.41718408 0.03652798 -0.17427927 -0.7153871 -0.063923076
-0.1237628 -0.32864404 -0.5519544 0.003121504 0.8424986 -0.02718398 -0.44036433 -0.01524668
-0.6957661 -0.0025593126 0.08587313 -0.005799891 0.051498592 -0.5749306 -0.075450644 -0.61475253
00000000: 3899 893d 45e0 e4be 880a 6abd 6763 fc3e
00000010: 1502 4bbf 18fa efbd 00b2 c0bc f92e 953d
00000020: 8a91 943c 2be7 9cbe e0ef c1bd 2799 d5be
00000030: 5d9e 153d 4476 32be 9c23 37bf 1aea 82bd
00000040: 5a77 fdbd 0844 a8be e24c 0dbf 2692 4c3b
00000050: fdad 573f f0b0 debc 6f77 e1be 36cd 79bc
00000060: ba1d 32bf 24ba 27bb 40de af3d 030d bebb
00000070: 30f0 523d a72e 13bf de85 9abd 6c60 1dbf

model.4.weight f4 [3, 32]
0.18337864 0.37281853 0.23507309 0.8480036 0.77835387 -0.090998925 0.15681793 0.07189123
-0.013868635 -0.35267574 -0.008190736 -0.02017858 0.11277301 -0.13426207 0.31305745 0.23216009
-0.021925729 0.7889802 0.9324838 -0.13465232 1.2471114 -0.12563968 -0.28382725 -0.06297019
0.42139664 -0.15781613 0.15841761 0.12562032 0.12018307 0.23485589 -0.13060668 0.8265124
-0.094565175 0.35864744 -0.222798 0.91635656 0.39070344 0.16071363 0.03978926 0.25299987
-0.07333406 -0.38949427 -0.027007326 -0.043766256 0.023171555 0.048504952 0.18262853 0.052692637
0.13388936 0.70405626 0.17313494 -0.06827823 1.1635838 -0.082239754 -0.17907912 0.100001425
0.34030628 -0.24865371 0.1047908 0.047337964 0.02466622 0.19774452 0.0031594697 0.10178331
-0.07715475 0.5111592 -0.121010944 0.5789443 0.6818341 0.06634269 -0.11713846 0.1842457
-0.008005902 -0.07709441 -0.08523846 0.05450114 0.065477364 -0.24981469 1.005935 0.14318077
0.03816499 0.6998089 0.5978727 0.48475748 0.5058223 -0.013247177 0.028955089 -0.011956923
0.42802185 0.05413684 0.008076845 -0.100844145 0.084575355 0.211715 -0.076611295 0.56236154
00000000: 9cc7 3b3e 12e2 be3e 00b7 703e c416 593f
00000010: 3342 473f a55d babd e194 203e b63b 933d
00000020: 4539 63bc ea91 b4be 7032 06bc 8d4d a5bc
00000030: 89f5 e63d ff7b 09be 1149 a03e 60bb 6d3e
00000040: 969d b3bc 9bfa 493f 42b7 6e3f 4ce2 09be
00000050: 59a1 9f3f b0a7 00be ce51 91be 84f6 80bd
00000060: 4dc1 d73e 8d9a 21be 3a38 223e 9da2 003e
00000070: 8b22 f63d 107e 703e c2bd 05be 5196 533f
00000080: 63ab c1bd a3a0 b73e 2925 64be 5896 6a3f
00000090: 480a c83e 1d92 243e 10fa 223d 3389 813e
000000a0: 2b30 96bd cb6b c7be 783e ddbc 3f44 33bd
000000b0: 46d2 bd3c 21ad 463d f902 3b3e 3cd4 573d
000000c0: 4b1a 093e 083d 343f 494a 313e 75d5 8bbd
000000d0: 50f0 943f 516d a8bd 8460 37be 8ccd cc3d
000000e0: a03c ae3e 149f 7ebe 8f9c d63d 74e5 413d
000000f0: d010 ca3c 8a7d 4a3e 1b0f 4f3b c573 d03d
00000100: 4f03 9ebd 54db 023f 96d4 f7bd b235 143f
00000110: ae8c 2e3f adde 873d 4ae6 efbd e8aa 3c3e
00000120: 302b 03bc ade3 9dbd 8091 aebd 963c 5f3d
00000130: ff18 863d 6ccf 7fbe 7ac2 803f fb9d 123e
00000140: e452 1c3d ad26 333f 2f0e 193f 2232 f83e
00000150: 927d 013f b00a 59bc 3933 ed3c f8e6 43bc
00000160: ae25 db3e 97be 5d3d be54 043c 6087 cebd
00000170: d835 ad3d d1cb 583e 62e6 9cbd edf6 0f3f

model.4.bias f4 [3]
0.56264657 0.32056925 -1.5512826
00000000: 9b09 103f a721 a43e 6e90 c6bf
