sandbox/saved_models/FSR.JO-DSY.JO.pt (torch, 12893 bytes, 6 tensors)

model.0.weight f4 [64, 3]
0	0xbeb8c91d	-0.36090937
1	0xc026b0a6	-2.6045318
2	0x3f3fedb1	0.74972063
3	0xbf076570	-0.52889156
4	0xbfb3260b	-1.3995985
5	0x3f9d1178	1.2270956
6	0xbe26b595	-0.16280206
7	0x3ea6fc20	0.3261423
8	0x3ecae83d	0.3963031
9	0x3f1ca0a0	0.61182594
10	0xbf0c186e	-0.54724777
11	0x3fef0c2c	1.867559
12	0xbe719483	-0.23591809
13	0xbfaa2351	-1.3292028
14	0x3f5cb42a	0.8621241
15	0x3e559008	0.20855725
16	0xbecf4954	-0.40485632
17	0xbee73122	-0.45154673
18	0xbebf30b5	-0.37341848
19	0xbfa96bc7	-1.3236016
20	0x3fac60a7	1.3466996
21	0xbded30e8	-0.11581594
22	0xbef4df28	-0.47826505
23	0xbe06fdae	-0.13182709
24	0x3da3c45f	0.07996439
25	0x3da9fdc0	0.08300352
26	0x3f9e88ab	1.2385458
27	0x3d569410	0.052387297
28	0xbd97de20	-0.07415414
29	0x3e3c181c	0.18368572
30	0xbee75435	-0.45181432
31	0xbfb4a054	-1.4111428
32	0x3f32da50	0.6986437
33	0x3f21c042	0.6318399
34	0xbfb924fa	-1.4464409
35	0x3f8e9ac4	1.1140981
36	0x3fa28d12	1.2699301
37	0x3e8c6f43	0.27428636
38	0x40328f3e	2.7899928
39	0x3d69678a	0.05698351
40	0xbfafd43b	-1.3736643
41	0x3eec8264	0.4619323
42	0xbeba837e	-0.36428446
43	0xbec655fa	-0.3873747
44	0x3f1e3fee	0.618163
45	0xbe9a65e8	-0.30155873
46	0x3c8a17ca	0.016857047
47	0x3fae7fe0	1.3632774
48	0xbd83e40f	-0.06439983
49	0xbf28ed2d	-0.659869
50	0x3fc71bf3	1.5555404
51	0x3e8bd556	0.273112
52	0xbfef3b70	-1.8690014
53	0x3ef434b0	0.47696447
54	0xbfbde446	-1.4835289
55	0xbda85864	-0.08219984
56	0x408f7425	4.482928
57	0xbe0041ec	-0.12525147
58	0xbe1f0338	-0.15528572
59	0x3fa0f4eb	1.2574743
60	0x3ed03035	0.4066178
61	0xbf83602d	-1.0263726
62	0x3f51460d	0.81747514
63	0xbec0985d	-0.37616244
64	0xbc2e361e	-0.01063302
65	0x3f04778d	0.5174492
66	0x3da0f468	0.07859117
67	0xbf084efd	-0.53245527
68	0x3cbf6fc0	0.023368716
69	0x3e949544	0.2902013
70	0xbe4eb882	-0.20187572
71	0xbe729d5f	-0.23692845
72	0xbde4fb18	-0.11180705
73	0xbf4aa7ac	-0.79162097
74	0x3f2267f9	0.634399
75	0xbed5e3d3	-0.4177538
76	0xbf9e5b29	-1.237157
77	0x3f9e01d5	1.2344309
78	0x3e12e610	0.14345574
79	0x3d7c4d27	0.061597016
80	0x3f36457d	0.7119978
81	0x3f19cf88	0.6008229
82	0xbebe67a5	-0.3718845
83	0x3f2a95da	0.66634905
84	0x3f35eefb	0.7106778
85	0xbddc8606	-0.107677504
86	0x3ff52eb3	1.9154876
87	0xbd52ddfb	-0.05148123
88	0x3e6a5602	0.22884372
89	0x3f980fbb	1.18798
90	0xbe62b4aa	-0.2213923
91	0xbf353bac	-0.7079418
92	0x3f945cc6	1.1590812
93	0xbf8c2f00	-1.0951843
94	0x3db322a1	0.08746839
95	0x4043263d	3.0492089
96	0xbec7e439	-0.39041308
97	0xbfc48cfc	-1.5355525
98	0x3fded587	1.7408913
99	0xbed6f756	-0.41985577
100	0xbf07e67c	-0.53086066
101	0x4053a664	3.3070307
102	0x3e7337bb	0.23751728
103	0xbfd2187e	-1.6413724
104	0x3f1b054b	0.6055495
105	0xbd0a3599	-0.03374252
106	0xbfa6de28	-1.3036547
107	0x3f536b04	0.8258517
108	0x3e687376	0.22700295
109	0xbcc2a1d1	-0.0237588
110	0xbe7bfca6	-0.24608096
111	0x3dfc4ed6	0.12319724
112	0xbd1a399c	-0.037652597
113	0x3eb38bc5	0.35067573
114	0xbedf6010	-0.43627977
115	0xbdc7e8a0	-0.097611666
116	0x3f9189f3	1.1370224
117	0x3f0acd8b	0.54219884
118	0xbe8c6baa	-0.2742589
119	0x3f04bc3b	0.51849717
120	0xbf12283a	-0.5709263
121	0xbf5f2094	-0.87159085
122	0x3fe69467	1.8014039
123	0xbf6e5639	-0.93100315
124	0xbeb5c3aa	-0.35500842
125	0x4037da4e	2.8726993
126	0x3db0fb5d	0.08641694
127	0x3e3c3ad4	0.18381816
128	0x3fb8ec69	1.4447147
129	0x3eeb8eaa	0.46007282
130	0xbe51ddd0	-0.20494771
131	0x3ef0f7d9	0.47064093
132	0x3f06c280	0.52640533
133	0xbf96ae53	-1.177195
134	0x3f224fc9	0.6340299
135	0x3ef1e1d6	0.47242612
136	0xbeb66e7d	-0.3563117
137	0x3ff6dd31	1.9286252
138	0x3ecbf2e5	0.3983375
139	0x3ec2d3be	0.3805217
140	0x3f74c37a	0.95610774
141	0xbec48f25	-0.3839046
142	0xc00706f4	-2.1097994
143	0x3f78cc12	0.97186387
144	0xbf1ae19f	-0.6050052
145	0x3d079158	0.033097595
146	0x3f80e44c	1.0069671
147	0x3e2d83d5	0.16944821
148	0xbdebe338	-0.11517948
149	0x3fbd3561	1.4781915
150	0xbf0481dd	-0.51760656
151	0xbe448d57	-0.19194542
152	0x3f95c55c	1.1700854
153	0x3c942d68	0.018088058
154	0x3ea18224	0.31544602
155	0x3e5ea52e	0.21742699
156	0xbdda6ab2	-0.10664882
157	0x3ecae04c	0.3962425
158	0x3fa15720	1.2604713
159	0xbead00e5	-0.33789745
160	0xbf5f01a4	-0.8711188
161	0x4001fd43	2.0310829
162	0x3d26dc5f	0.040737506
163	0x3f37f7b9	0.7186237
164	0xbf8069e5	-1.0032316
165	0xbe55275c	-0.20815796
166	0xbfe5e375	-1.7960039
167	0x3fac61c6	1.3467338
168	0x3da5d895	0.0809795
169	0x3f1f4bb4	0.6222489
170	0xbf19bb27	-0.60051197
171	0x3e545620	0.20735979
172	0xbd25bd1d	-0.040463556
173	0xbe5b7e97	-0.21435009
174	0xbe5469d9	-0.20743503
175	0x3db25ec9	0.08709485
176	0x3f9a51c8	1.2056208
177	0x3dbeb5d4	0.09312025
178	0x3e472284	0.1944676
179	0x3f3db35c	0.74101806
180	0x3fa42b79	1.2825767
181	0xbde28a86	-0.110615775
182	0x40212364	2.517785
183	0xbdc89e29	-0.09795792
184	0xbf23c47a	-0.63971674
185	0x3f69e940	0.91371536
186	0xbe3864f0	-0.18007255
187	0xbffce6e3	-1.9757961
188	0x3f9a22e6	1.20419
189	0x3e6ed132	0.23321989
190	0xbc900ab4	-0.017583229
191	0x3fa47b90	1.2850208

model.0.bias f4 [64]
0	0x3fa45871	1.283949
1	0x3f12715d	0.5720423
2	0x3f917ca4	1.1366162
3	0x3e85c7a0	0.26128864
4	0x3f345747	0.70445675
5	0xbe6797c6	-0.2261649
6	0x3f2ae343	0.66753024
7	0xbf06de47	-0.5268292
8	0x3ff77313	1.9331993
9	0xbec5315a	-0.38514215
10	0x3fcba863	1.5910763
11	0xbf239fd0	-0.6391573
12	0x3f29b8d5	0.66297656
13	0x3f8e8d58	1.1136885
14	0x400d1f1f	2.2050245
15	0x3f8a2312	1.0791953
16	0x400c477b	2.1918628
17	0x3f830db0	1.0238552
18	0x4080e85c	4.028364
19	0x3fe68aef	1.8011149
20	0x3fb7c00b	1.4355482
21	0x4009d2e1	2.153496
22	0xbf0dfd69	-0.554648
23	0xbf2c1d6d	-0.672324
24	0x400f1007	2.2353532
25	0x3f86b325	1.052342
26	0x40061f46	2.0956588
27	0x3fddee79	1.7338401
28	0x3f166658	0.58749914
29	0x3fa2d155	1.2720133
30	0x4003e9f7	2.061155
31	0x3ff90c4f	1.9456881
32	0x3f689128	0.9084649
33	0x4025c675	2.5902379
34	0x3fb096a2	1.379597
35	0x3fc07e91	1.5038625
36	0xbf004914	-0.5011151
37	0x3fea13ba	1.828727
38	0x3f9ea7a2	1.2394907
39	0x3fb7e23a	1.4365914
40	0xbe15d33c	-0.14631361
41	0x40219f51	2.525349
42	0x3fb1aebc	1.388145
43	0x3fd2641b	1.64368
44	0xbeac6591	-0.3367124
45	0xbe5f5d0e	-0.21812841
46	0x3fc32828	1.524663
47	0x3fadbdf4	1.3573594
48	0x3f8a5b4f	1.0809115
49	0x3fc5dac3	1.5457386
50	0x3feca87b	1.8488916
51	0x3fb9f3d2	1.4527533
52	0x3f8dcc3f	1.1077956
53	0x3e66d8d6	0.22543654
54	0x3fa96da6	1.3236587
55	0x3f91140c	1.1334243
56	0x3f8d604a	1.104501
57	0x3fc055a4	1.5026135
58	0x3f9501db	1.1641191
59	0x3fcfc462	1.6231806
60	0x3edf12ce	0.43569034
61	0x3fc59d50	1.5438633
62	0x3faf7272	1.3706801
63	0x400bd877	2.185087

model.2.weight f4 [32, 64]
0	0xbd5d5c9c	-0.054043397
1	0x3da6c90a	0.08143814
2	0xbc9e1208	-0.019295707
3	0xbd6713d0	-0.05641538
4	0x3be6c320	0.0070423037
5	0x3b9c3140	0.0047666132
6	0xbc0c7ca0	-0.008574635
7	0x3ddb382a	0.10704072
8	0xbbc90180	-0.006134212
9	0xbb3b5080	-0.0028581917
10	0x3d7d708c	0.06187491
11	0x3d5eb230	0.05436915
12	0x3de9c1ba	0.114139035
13	0x3d49aa84	0.049234882
14	0x3d9e7ac2	0.07738258
15	0xbd4e3934	-0.050347522
16	0xbdef20c6	-0.11676173
17	0xbdf1aa2c	-0.11800036
18	0xbd8e9594	-0.069621235
19	0xbdc4893c	-0.09596488
20	0xbcd81638	-0.026377782
21	0xbca220b0	-0.019790977
22	0xbd8f0b4a	-0.06984575
23	0x3deb97a6	0.11503534
24	0x3c1e4070	0.009658918
25	0xbdae7a62	-0.085194364
26	0x3cf4e498	0.029894158
27	0x3c871d38	0.016493425
28	0x3af95e80	0.0019025356
29	0x3c3aabb0	0.011393473
30	0x3dce06ca	0.10059889
31	0x3d2a7300	0.04161358
32	0xbd339620	-0.043844342
33	0xbce83408	-0.028345123
34	0xbda8f6ac	-0.08250174
35	0xbddef0d0	-0.10885775
36	0xbc56e200	-0.013115406
37	0xbdef2898	-0.116776645
38	0x3d0f59fc	0.034997925
39	0xbdd058bc	-0.10173175
40	0xbdbd3200	-0.09238052
41	0xbd8984a8	-0.06714755
42	0xbd6e6174	-0.058198407
43	0x3b553580	0.003253311
44	0xba3a6200	-0.000710994
45	0x3de1b8ce	0.11021577
46	0x3c5c85a0	0.013459593
47	0x3d54b200	0.051927567
48	0xbc1ef6c0	-0.0097023845
49	0xbdf7b9c8	-0.12095982
50	0xbdfac46a	-0.12244494
51	0x3da7adfe	0.08187483
52	0x3c4e6dc0	0.012599409
53	0xbbaf5ec0	-0.0053518713
54	0xbdbf83ec	-0.09351334
55	0x3dd252d8	0.102697074
56	0x3db9c32e	0.09070431
57	0xbdc003ce	-0.09375726
58	0x3d1c6078	0.038177937
59	0xbc66a000	-0.014076233
60	0x3df37018	0.118866146
61	0xbd93262a	-0.071850136
62	0xbda0b058	-0.07846135
63	0xbda457c6	-0.08024554
64	0xbb48bdb8	-0.003063066
65	0xbda5d83b	-0.08097883
66	0xbe0a6740	-0.13515949
67	0x3dbd0b4c	0.0923067
68	0xbd11f8de	-0.03563773
69	0xbb7893c0	-0.0037929863
70	0x3d82b22a	0.06381638
71	0x3b5d5cc0	0.0033777207
72	0xbceab800	-0.028652191
73	0x3d873dc6	0.06603579
74	0xbd5557ce	-0.05208569
75	0x3dbd9577	0.09257024
76	0x3db283d4	0.087165505
77	0x3d3b56a6	0.04573693
78	0xbd86e83c	-0.06587264
79	0x3d49068c	0.04907851
80	0xbdacad30	-0.084314704
81	0xbe092cc8	-0.13395989
82	0xbd8ebbef	-0.06969439
83	0x3cbb59c1	0.022869946
84	0x3d95c390	0.07312691
85	0x3dbcedab	0.09225019
86	0x3df45b24	0.11931446
87	0x3d583708	0.052786857
88	0xbe12d68a	-0.14339653
89	0xbdc4cb71	-0.09609116
90	0xbd64d38d	-0.055865813
91	0x3d2f1e25	0.042753357
92	0xbdd08493	-0.101815365
93	0xbd030dad	-0.031995464
94	0xbd6243a2	-0.05524028
95	0x3d88904b	0.06668147
96	0xbd892870	-0.06697166
97	0xbdbe57a3	-0.09294059
98	0xbe039372	-0.12849215
99	0x3cdb0b9a	0.02673893
100	0xbb8a8b80	-0.0042280555
101	0xbddead64	-0.108729154
102	0xbd2a9c1d	-0.041652787
103	0xbe0e43f3	-0.13893108
104	0x3df257b6	0.11833136
105	0x3dbe630b	0.09296235
106	0xbe001022	-0.12506154
107	0x3d3cca65	0.046091456
108	0x3dac0a5e	0.08400415
109	0x3cbb5880	0.022869349
110	0xbcd44f2c	-0.025916658
111	0xbdc7faf7	-0.097646646
112	0xbe1a40a2	-0.15063718
113	0xbd0f587b	-0.03499649
114	0xbdf4ee86	-0.11959557
115	0xbd0ef706	-0.03490355
116	0xbd8d1425	-0.06888608
117	0xbd9c2669	-0.07624514
118	0xbcdcf2e2	-0.026971284
119	0x3c049905	0.008093123
120	0xbe224051	-0.15844847
121	0xbda58738	-0.080824316
122	0xbe17fa83	-0.14841656
123	0xbdd834c6	-0.10556941
124	0x3c32f5cf	0.010922863
125	0x3cc33a62	0.02383155
126	0xbe12ac89	-0.1432363
127	0xbc306554	-0.010766346
128	0x3b79ee00	0.0038136244
129	0xbd63539f	-0.05549967
130	0xbddd7207	-0.108127646
131	0xbdb3619c	-0.08758852
132	0x3d82677d	0.06367395
133	0xbd2d2a18	-0.04227647
134	0xbdadbc8a	-0.084832266
135	0x3d8bf4e0	0.068338156
136	0x3d192565	0.037389178
137	0xbd43854c	-0.047734544
138	0xbdb6e3e0	-0.089301825
139	0xbcd36af8	-0.025807843
140	0x3cb51230	0.022103399
141	0x3c02b334	0.007977296
142	0xbd4ebd36	-0.050473414
143	0x3d40fd18	0.04711637
144	0x3d2b3f42	0.041808374
145	0xbca19f90	-0.019729406
146	0xbd889a24	-0.06670025
147	0x3d661021	0.056167725
148	0xbdcce090	-0.100037694
149	0xbe16c856	-0.1472486
150	0x3dcef92a	0.10106118
151	0x3d443398	0.047900766
152	0xbd5dfd0f	-0.054196414
153	0xbe0e311c	-0.13885921
154	0x3cfd24fa	0.03090142
155	0x3d0006dc	0.03125654
156	0x3b364a80	0.0027815402
157	0xbda380d4	-0.079835564
158	0xbd662916	-0.056191526
159	0x3d9bfce0	0.076165915
160	0x3d61b68f	0.055105742
161	0x3d5443d8	0.051822513
162	0xbda1a467	-0.078926854
163	0xbdd29742	-0.102827564
164	0x3d820c02	0.063499466
165	0x3c579c4d	0.013159824
166	0xbd7d9812	-0.061912604
167	0x3c459fe0	0.012062043
168	0x3d1198ea	0.03554622
169	0x3d5a699f	0.053323384
170	0xbe17ad0c	-0.14812106
171	0xbdfcb4dc	-0.12339184
172	0xbd72d724	-0.059287205
173	0x3d71dd88	0.05904916
174	0xbdc8e797	-0.09809797
175	0xbdeeebb8	-0.116660535
176	0xbe02e63f	-0.12783144
177	0xbdb3eadd	-0.08785031
178	0xbcf5aa02	-0.029988293
179	0x3db1251a	0.08649655
180	0x3c3b8f37	0.011447719
181	0x3c282acd	0.010264111
182	0x3dbf359a	0.093363956
183	0x3c93468f	0.01797798
184	0xbc322830	-0.010873839
185	0x3cbfd498	0.023416802
186	0xbdb317be	-0.08744763
187	0xbe0939c4	-0.13400942
188	0xbdf0c636	-0.11756556
189	0xbe0ff357	-0.1405767
190	0xbda6b88e	-0.0814067
191	0x3c6a12d9	0.01428672
192	0x3f3ef3cb	0.7459075
193	0x3fce6f21	1.6127664
194	0x3f31c6bb	0.69443864
195	0xbf0ccf92	-0.5500423
196	0x3fbc0a07	1.469056
197	0xbd1c6924	-0.038186207
198	0x3fa230ad	1.2671105
199	0xbd6f21d4	-0.05838187
200	0x3f4811f9	0.78152424
201	0x3db70b60	0.089377165
202	0x3fe88228	1.816472
203	0xbeabce60	-0.3355589
204	0xbf2a2360	-0.6646023
205	0x3faff4a3	1.3746532
206	0x3f8f2ab7	1.118491
207	0x3f566acd	0.83756715
208	0x3f7a1e77	0.97702736
209	0x3fb0f2b3	1.3824066
210	0xc0858bd5	-4.1733193
211	0x3f64b05c	0.89331603
212	0xbdbb0f52	-0.091337815
213	0x3f8a228f	1.0791796
214	0xbd7aed74	-0.06126161
215	0x3f474565	0.7784026
216	0x3f9d8c00	1.230835
217	0x3fcd90d5	1.6059824
218	0x3f429f05	0.76023895
219	0xbf1d9562	-0.61556065
220	0xbf460893	-0.77356833
221	0x3f242439	0.6411777
222	0x3f87e0cd	1.0615479
223	0xbfe8a0f4	-1.8174119
224	0x3fc0a9f2	1.5051863
225	0xc0481c2f	-3.1267202
226	0x3f8cce38	1.1000433
227	0x3f950740	1.1642838
228	0xbd8e6c2f	-0.06954228
229	0x3f6126c1	0.8794976
230	0x3f732c14	0.9498913
231	0xbf18e11f	-0.5971851
232	0x3f84d533	1.0377563
233	0xc00b2e9e	-2.1747203
234	0x3f0d5516	0.55207956
235	0x3f52bf14	0.8232281
236	0xbf341c46	-0.7035564
237	0xbf4a00fc	-0.7890775
238	0x3f2647c8	0.6495328
239	0x3fd39871	1.6530896
240	0x3f8b1c1c	1.0867953
241	0x3f3d4800	0.7393799
242	0x3f8f630b	1.12021
243	0x3f39dd17	0.7260298
244	0x3f10f53e	0.5662421
245	0x3f7dd173	0.9914772
246	0x3f45d634	0.77279973
247	0x3fab5e74	1.33882
248	0x3f0b9285	0.54520446
249	0x3df2a984	0.11848739
250	0x3f4a971f	0.7913684
251	0x3f5bb587	0.85823864
252	0xbf3dd15f	-0.741476
253	0x3f828443	1.0196613
254	0x3fcd6b0e	1.6048295
255	0x3f56478f	0.8370294

model.2.bias f4 [32]
0	0x3d8ccb70	0.0687474
1	0xbe079929	-0.1324202
2	0xbda6764b	-0.08128031
3	0x3f041f60	0.51610374
4	0xbe863493	-0.26211986
5	0xbeaa826f	-0.33302638
6	0xbddb9bc2	-0.10723068
7	0x3d9e3717	0.07725351
8	0x3c343a7b	0.011000271
9	0xbe1dd95e	-0.1541495
10	0xbd6a1d51	-0.057156865
11	0x3cb59d3b	0.0221697
12	0xbdb1c8cf	-0.08680879
13	0x3e018e15	0.12651856
14	0xbdf8f36b	-0.12155803
15	0xbbd3f5ad	-0.006468496
16	0xbd32e903	-0.04367925
17	0xbdfb0386	-0.122565314
18	0xbdc5e03c	-0.0966191
19	0xbd65b9b7	-0.056085315
20	0xbd635669	-0.05550233
21	0x3cfee0b0	0.031112999
22	0x3d5b583c	0.053550944
23	0xb9f2b4e1	-0.00046292602
24	0x3f7b0100	0.980484
25	0xbdba7c88	-0.09105784
26	0x3d1de1b8	0.03854534
27	0xbd408f72	-0.0470118
28	0xbe2c8965	-0.16849287
29	0x3fa55b8e	1.2918565
30	0xbdee7834	-0.11644021
31	0x3cb1e31e	0.021714743

model.4.weight f4 [3, 32]
0	0xbe05f41e	-0.13081405
1	0xbe014b4f	-0.12626384
2	0xbadcdb19	-0.0016849964
3	0xbebc1225	-0.36732593
4	0x3f9233e3	1.1422085
5	0x3f918441	1.1368486
6	0x3f9957cd	1.197992
7	0x3e09d02c	0.13458318
8	0x3df15392	0.11783518
9	0xbd352170	-0.04422134
10	0x3e2efd58	0.1708883
11	0x3e335d74	0.17516118
12	0x3f854b5e	1.0413625
13	0x3e198ef3	0.14995937
14	0x3d02ad54	0.03190358
15	0x3e24a2f9	0.16077794
16	0x3dddaee9	0.10824377
17	0xbe20a584	-0.15688139
18	0xbda7fe36	-0.08202784
19	0xbd7deacf	-0.06199151
20	0x3f8c61a9	1.0967304
21	0x3e15b0ff	0.146183
22	0x3e59f1ab	0.21283595
23	0x3e1a0770	0.150419
24	0x3f29c65a	0.66318285
25	0x3f24e2b6	0.64408433
26	0x3f26bcc6	0.65131795
27	0x3f5cfdd8	0.86324835
28	0x3e0c38a1	0.13693477
29	0x3f95bc23	1.169804
30	0x3f9dfed0	1.2343388
31	0xbd8f794d	-0.07005558
32	0xbe33539c	-0.17512363
33	0x3ca2984e	0.019848015
34	0x3d7a4a1c	0.061105832
35	0xbe998b98	-0.29989314
36	0x3fa8eb41	1.3196794
37	0x3f916d48	1.1361475
38	0x3f9a995a	1.2078049
39	0xbc70e8ca	-0.014703939
40	0x3e1a8922	0.15091375
41	0xbd822b64	-0.06355932
42	0x3ddfd56f	0.10929381
43	0x3dc56e7b	0.09640213
44	0x3f71f09c	0.94507766
45	0xbe3d92c6	-0.18513021
46	0x3dafd5fa	0.08585735
47	0xbc98f0ec	-0.018669568
48	0x3c932888	0.017963663
49	0xbdf86a9c	-0.12129709
50	0xbdd7d583	-0.10538771
51	0xbb98dfe1	-0.0046653603
52	0x3f58b38a	0.84648955
53	0x3d0c9658	0.034323066
54	0xbe12bdae	-0.1433017
55	0xbde589c0	-0.11207914
56	0x3f3c2558	0.7349448
57	0x3f24b1d2	0.6433383
58	0x3f1362a1	0.5757237
59	0x3f66e331	0.90190417
60	0x3caf8270	0.021424502
61	0x3f96b5e9	1.1774265
62	0x3f92b9f5	1.1463
63	0x3d4ffd30	0.050778568
64	0x3df01256	0.11722247
65	0x3c5b85c0	0.013398588
66	0x3d9f3886	0.07774453
67	0x3e9da442	0.3078938
68	0x3f3a03f7	0.726623
69	0x3f280259	0.6562858
70	0x3f7b2b64	0.98113084
71	0xbd467e7f	-0.04846048
72	0xbd8be7ac	-0.06831297
73	0xbd32946f	-0.04359859
74	0x3e1465e5	0.14491995
75	0x3d992fb2	0.074798
76	0x3f4bf6e4	0.796736
77	0xbe165f18	-0.14684713
78	0x3c886e4b	0.016654154
79	0x3e0ad11f	0.13556336
80	0x3d89b950	0.06724799
81	0xbe2c7954	-0.16843158
82	0xbdac39d2	-0.08409466
83	0x3dbcf3b6	0.09226172
84	0x3f4d0c94	0.8009732
85	0x3e032083	0.12805371
86	0xbe359174	-0.17731267
87	0xbe170be5	-0.14750631
88	0x3f128bdb	0.5724465
89	0x3f9e754d	1.2379547
90	0x3fa83559	1.314128
91	0x3f92b939	1.1462775
92	0x3d8d6c74	0.069054514
93	0x3f444e39	0.7668186
94	0x3f65b35b	0.897268
95	0x3c64f19a	0.013973618

model.4.bias f4 [3]
0	0x3f3f63d9	0.7476173
1	0xbe471e19	-0.19445075
2	0xbf75ba0c	-0.9598701
