sandbox/saved_models/IMP.JO-AEG.JO.pt (torch, 12893 bytes, 6 tensors)

model.0.weight f4 [64, 3]
0.03667689 -1.1841059 0.40339068 0.88103426 0.2710967 1.9129825 -0.08678329 -1.2014537
0.11557248 0.47328323 0.08500249 0.5730959 0.26577723 -0.84747946 0.017257322 -0.1500064
0.347579 -0.22559941 -0.09259478 -1.5222021 -0.091573775 -0.24782695 -0.18947607 0.19154905
0.015117022 0.30528432 0.57414204 -0.5948536 -0.5467089 1.592423 -0.22126858 0.14946288
-0.040262066 0.693821 -0.41632992 0.3964445 0.36902976 0.408823 0.8376066 0.16250022
-0.08657868 0.5792727 0.5125366 0.008114497 -0.16192174 -0.22075686 0.18705438 0.44088346
0.48729083 0.3062446 -0.05622189 0.13584024 -0.4358588 -0.562419 -0.052669704 -0.49042225
0.21271783 -0.18404023 -0.08155846 0.44936082 -0.24660113 0.3153588 -0.3010536 -0.120899625
-0.61856383 0.04034881 0.38134822 0.5220254 0.29815075 0.02789852 -1.2197065 1.1223826
0.40923116 -1.2480237 0.29874298 0.05284077 -0.4949823 0.24977916 0.0003914833 0.2216872
-0.15027899 0.90298843 -1.0901281 -0.20496802 0.054818608 -1.3448118 0.5836865 -0.47619823
-0.08711888 -0.04296814 0.5390488 -0.07601179 0.8103343 -0.2365449 -2.0012033 0.9882575
0.073327936 0.6190341 0.43166748 -0.07960891 -1.0380815 -0.0188301 -0.34034514 -0.5663593
-0.77547336 -0.45964715 -0.13358884 -0.5658035 -0.043257874 -1.0209539 0.6073912 -0.10695667
-0.5545541 -0.390427 -0.35297647 -0.55410063 1.5158615 -0.11347012 0.56397545 -0.29914093
0.3334264 -0.19163671 -0.16759646 -0.035576403 -1.3320044 0.76446104 -0.15699013 -0.8364568
0.026416179 -0.17367391 -1.4760418 0.07829912 0.8496259 0.43161485 0.24808404 -0.09158766
-0.9380635 -0.2810494 -0.1647911 0.7688264 -0.84845406 -0.2026384 0.3463864 0.5218593
-0.017302036 -0.027114034 -0.23130715 0.7810103 0.24642737 0.7017265 0.6664301 0.106823154
2.3352675 0.11306843 -0.8252676 -0.041268922 0.02142903 -1.0089691 0.2606478 0.3144396
0.32724932 0.34627295 0.042567432 -0.23840189 0.020570755 0.512376 0.16599308 0.49231407
0.09830202 0.4238569 -0.046246376 0.40051457 -0.7278493 0.66715825 -0.06866435 -1.8166277
0.2318198 -0.19507158 -0.1762804 0.43529326 0.7962003 0.05933926 2.5461957 -0.35877544
0.51057655 -0.32202485 -0.18226625 -1.379311 -0.06624709 -0.12467457 -0.99730146 -0.033776704
00000000: 823a 163d c890 97bf 3989 ce3e 768b 613f
00000010: 30cd 8a3e 9cdc f43f 70bb b1bd 3cc9 99bf
00000020: 44b1 ec3d 2e52 f23e c915 ae3d 6ab6 123f
00000030: f413 883e 6af4 58bf 3a5f 8d3c 479b 19be
00000040: e0f5 b13e 8803 67be 55a2 bdbd 85d7 c2bf
00000050: 088b bbbd 59c6 7dbe 0406 42be 6f25 443e
00000060: 63ad 773c 3a4e 9c3e f9fa 123f 5348 18bf
00000070: 1df5 0bbf 84d4 cb3f 3b94 62be cc0c 193e
00000080: d6e9 24bd 419e 313f 3229 d5be c6fa ca3e
00000090: 78f1 bc3e 4051 d13e 636d 563f 7566 263e
000000a0: 2a50 b1bd 374b 143f 9935 033f abf2 043c
000000b0: d0ce 25be 160e 62be 2f8b 3f3e 7abb e13e
000000c0: 2f7e f93e 18cc 9c3e ed48 66bd b419 0b3e
000000d0: e228 dfbe b1fa 0fbf 30bc 57bd a018 fbbe
000000e0: b4d2 593e 0b75 3cbe 1f08 a7bd 9f12 e63e
000000f0: 0285 7cbe b576 a13e b323 9abe 399a f7bd
00000100: 335a 1ebf cb44 253d 1340 c33e 75a3 053f
00000110: 37a7 983e 708b e43c 581f 9cbf 3caa 8f3f
00000120: bf86 d13e 3ebf 9fbf d7f4 983e 906f 583d
00000130: 526e fdbe 1cc6 7f3e 0040 cd39 f801 633e
00000140: bce2 19be 402a 673f 5189 8bbf 23e3 51be
00000150: 7a89 603d cb22 acbf 7a6c 153f 41d0 f3be
00000160: 626b b2bd 5cff 2fbd 1aff 093f 12ac 9bbd
00000170: 1272 4f3f d438 72be b713 00c0 72fe 7c3f
00000180: f52c 963d 0579 1e3f 8503 dd3e ff09 a3bd
00000190: dbdf 84bf 9541 9abc b841 aebe ecfc 10bf
000001a0: 6c85 46bf df56 ebbe 83cb 08be 80d8 10bf
000001b0: 2b2f 31bd 9eae 82bf fd7d 1b3f 190c dbbd
000001c0: 42f7 0dbf 0ce6 c7be 55b9 b4be 8ad9 0dbf
000001d0: c007 c23f 0663 e8bd b260 103f 0029 99be
000001e0: ddb6 aa3e 6a3c 44be 689e 2bbe 90b8 11bd
000001f0: 1f7f aabf b8b3 433f 05c2 20be 0822 56bf
00000200: be66 d83c 93d7 31be f0ee bcbf 4a5b a03d
00000210: 1581 593f 9ffc dc3e be09 7e3e 5092 bbbd
00000220: ee24 70bf b5e5 8fbe 00bf 28be cfd1 443f
00000230: 4934 59bf 7180 4fbe 8f59 b13e 9298 053f
00000240: 00bd 8dbc 401e debc c8db 6cbe 4bf0 473f
00000250: 7557 7c3e 59a4 333f 2a9b 2a3f 19c6 da3d
00000260: 0675 1540 6c90 e73d bd44 53bf 9a09 29bd
00000270: ef8b af3c e625 81bf a173 853e 3afe a03e
00000280: 398d a73e b04a b13e 305b 2e3d a01f 74be
00000290: 0084 a83c 132b 033f 17fa 293e 9710 fc3e
000002a0: 9252 c93d c603 d93e d76c 3dbd 3f10 cd3e
000002b0: 5554 3abf e2ca 2a3f e59f 8cbd 4287 e8bf
000002c0: 2b62 6d3e d8c0 47be d982 34be c2de de3e
000002d0: c8d3 4b3f b90d 733d dff4 2240 6ab1 b7be
000002e0: 25b5 023f 71e0 a4be 01a4 3abe 438d b0bf
000002f0: 8eac 87bd 6255 ffbd 264f 7fbf 7159 0abd

model.0.bias f4 [64]
0.6222158 1.0165042 0.58219695 1.6994537 0.70965797 1.0367517 1.1174291 1.3554076
1.3535122 0.06685702 1.151351 0.54929215 1.5974836 -0.08236535 1.4779613 0.9123012
1.2714903 -0.43245327 -0.41897684 0.85205454 1.3947281 1.0893506 1.68907 0.7141652
0.98261243 -0.49964282 -0.43148065 -0.066652864 0.53733844 -0.6732226 1.511708 0.63146096
0.96780306 -0.053084567 0.067277566 0.8405527 0.4316317 1.3235841 0.41867733 0.84136695
1.106063 0.6652319 0.82604533 0.44471818 0.8177547 0.5207002 0.2994847 0.8583772
-0.32422853 1.08301 1.3840405 1.2255148 0.60815376 1.5068096 -0.57298845 1.668676
0.965573 0.7749825 1.11198 1.0152812 1.1875671 0.19270465 0.88624245 0.245725
00000000: 8949 1f3f cf1c 823f dc0a 153f b387 d93f
00000010: 25ac 353f 48b4 843f eb07 8f3f ff7d ad3f
00000020: e33f ad3f 55ec 883d 785f 933f 699e 0c3f
00000030: 587a cc3f 2aaf a8bd d62d bd3f 928c 693f
00000040: 32c0 a23f 846a ddbe 2284 d6be 3f20 5a3f
00000050: 7386 b23f d76f 8b3f 7233 d83f 88d3 363f
00000060: 7d8c 7b3f 2fd1 ffbe 08eb dcbe 4c81 88bd
00000070: 038f 093f 5158 2cbf a67f c13f 6da7 213f
00000080: f1c1 773f 346f 59bd d2c8 893d 762e 573f
00000090: d5fe dc3e 346b a93f e05c d63e d363 573f
000000a0: 7993 8d3f a34c 2a3f b577 533f 1ab2 e33e
000000b0: 5f58 513f 9c4c 053f 0f56 993e 9cbe 5b3f
000000c0: 4801 a6be 12a0 8a3f 3d28 b13f abdd 9c3f
000000d0: f7af 1b3f 23df c03f 5faf 12bf 2d97 d53f
000000e0: cb2f 773f 4165 463f 5c55 8e3f bcf4 813f
000000f0: 3302 983f 5e54 453e c9e0 623f 569f 7b3e

model.2.weight f4 [32, 64]
-0.01906782 0.032504052 0.084189944 -0.03843258 0.02239506 -0.13778394 -0.06726966 -0.05382263
-0.1285343 0.06519863 0.1010992 -0.026682377 0.0072839432 0.097366765 -0.021509737 -0.085248314
-0.123623654 -0.07820079 0.09549409 -0.039118364 0.056433994 -0.023576232 0.039224047 0.10871187
-0.11683891 -0.030575454 -0.046287745 0.042339996 0.05616902 -0.06446609 -0.021936849 0.050614964
-0.104530334 -0.050548404 -0.012830586 -0.023106929 0.05367508 0.026223017 -0.0865614 0.025392756
-0.073517844 -0.07467022 -0.032788962 0.08013998 0.10631828 0.051804375 0.035311233 -0.013217658
-0.022662595 0.10149649 -0.11847304 0.011903177 -0.057840772 -0.1148382 -0.04611866 -0.12490553
-0.1109985 -0.005426079 -0.11302443 -0.104080826 0.024364367 -0.06460698 0.10217766 -0.08228762
-0.2561638 0.015585199 -0.11120957 -0.14815022 -0.45828784 0.07949366 -0.021818195 0.04622249
0.050397653 -0.10282606 0.042097062 -0.1445554 -0.046426896 -0.002207756 -0.1471224 -0.08422144
-0.1723716 -0.03442584 -0.010723576 0.029227292 -0.11989672 0.09169131 0.06807405 -0.3254743
0.03743225 -0.07232836 0.06929088 -0.22556058 -0.2990936 -0.12307988 -0.023900038 -0.081477314
-0.015129483 -0.063692085 -0.07762372 0.021379666 0.10447397 0.106631175 -0.06724494 -0.01832148
-0.33089894 0.04514066 -0.29289225 -0.23396358 -0.120589204 -0.00021859616 -0.017136823 -0.17153102
-0.042616367 -0.21746428 -0.012229138 0.014991723 0.08016812 -0.0495278 0.046154022 -0.06383345
0.06865221 -0.3749006 -0.013811925 -0.008147141 0.013167828 0.008647859 -0.057242915 -0.12860475
-0.13731425 -0.0045731217 -0.05394827 -0.055751164 -0.097113445 -0.053691648 -0.059744053 0.033231836
-0.08539577 -0.031483486 0.02787558 0.04829289 0.010348311 -0.0042057782 0.018049149 0.0007113761
-0.09841204 -0.0060865283 -0.04218754 -0.015993325 -0.06970787 0.030586913 0.019726746 -0.066132516
0.07079851 -0.11255565 -0.048747048 -0.061728492 0.10878959 -0.031616688 0.041569486 -0.12643526
0.07756429 0.044549618 -0.021722518 -0.10369924 0.06550998 -0.10245815 -0.007578999 -0.13224222
0.03204614 0.045956835 -0.07939998 0.0034995228 0.050030127 0.04805462 -0.09892524 -0.049470566
-0.06010568 0.03819032 -0.10393499 0.06307925 0.032500695 -0.13943136 -0.051832795 0.060503695
-0.10782592 -0.03820847 -0.022593174 0.0036961732 0.071278885 -0.098235175 0.027774127 0.08144933
-0.024807163 -0.04591486 -0.03065277 -0.059987903 -0.12733291 -0.09234867 -0.003950592 0.0642053
-0.061131515 0.0004505217 -0.049787074 -0.11552322 -0.070916444 0.037504047 -0.10145638 -0.09661827
-0.028364005 0.0030213445 0.05975601 -0.08568482 -0.097321264 0.05377943 0.106810056 0.051653877
0.039594293 0.060030058 -0.04253745 0.084044695 -0.07230033 -0.07025361 -0.009607389 -0.121717274
0.024217432 0.08289007 0.09169948 -0.07132823 -0.08641961 0.028503617 0.097902 -0.028689455
0.027467743 -0.02302868 0.093476765 -0.05314612 -0.024459869 0.082779445 0.071313694 0.073152676
-0.008173868 -0.12303001 -0.107492745 0.005708231 -0.05992714 0.09458042 0.014240921 0.08661344
-0.0030630776 0.082687885 -0.06114871 0.067772806 0.095372826 -0.013753012 -0.016528623 0.019483538
00000000: 1e34 9cbc f822 053d c76b ac3d 7b6b 1dbd
00000010: d875 b73c 3c17 0dbe adc4 89bd 1e75 5cbd
00000020: 7f9e 03be dc86 853d 190d cf3d 0095 dabc
00000030: 25ae ee3b 3a68 c73d 3035 b0bc ab96 aebd
00000040: 662e fdbd bc27 a0bd 6892 c33d 943a 20bd
00000050: 5527 673d f122 c1bc 65a9 203d 54a4 de3d
00000060: 3d49 efbd 6079 fabc 3898 3dbd b46c 2d3d
00000070: 7c11 663d cc06 84bd e8b4 b3bc a351 4f3d
00000080: 0014 d6bd d80b 4fbd 6137 52bc be4a bdbc
00000090: 67da 5b3d a7d1 d63c 1a47 b1bd 7804 d03c
000000a0: 8690 96bd b3ec 98bd b84d 06bd 6e20 a43d
000000b0: 66bd d93d d330 543d 83a2 103d e08e 58bc
000000c0: e8a6 b9bc 64dd cf3d fea1 f2bd 8b05 433c
000000d0: 72ea 6cbd 4a30 ebbd ece6 3cbd 78ce ffbd
000000e0: 2e53 e3bd 40cd b1bb 5a79 e7bd 5428 d5bd
000000f0: c897 c73c aa50 84bd 8542 d13d 6986 a8bd
00000100: e727 83be 1059 7f3c d8c1 e3bd b1b4 17be
00000110: b4a4 eabe 92cd a23d 12bc b2bc cb53 3d3d
00000120: c56d 4e3d 7896 d2bd f86d 2c3d 5506 14be
00000130: 212a 3ebd 00b0 10bb 41a7 16be 4a7c acbd
00000140: 2e82 30be 1c02 0dbd f0b1 2fbc 136e ef3c
00000150: 698c f5bd a7c8 bb3d 686a 8b3d 91a4 a6be
00000160: 8f52 193d e420 94bd 60e8 8d3d 5af9 66be
00000170: cc22 99be 4e11 fcbd 03ca c3bc 94dd a6bd
00000180: a7e1 77bc ff70 82bd 2ff9 9ebd 6924 af3c
00000190: 73f6 d53d 7261 da3d b7b7 89bd ee16 96bc
000001a0: 966b a9be 6ae5 383d f9f5 95be 2694 6fbe
000001b0: 79f7 f6bd f636 65b9 8662 8cbc d4a5 2fbe
000001c0: 808e 2ebd f5ae 5ebe b95c 48bc d89f 753c
000001d0: 2f2f a43d aadd 4abd 000c 3d3d 1dbb 82bd
000001e0: 8899 8c3d f9f2 bfbe 6a4b 62bc 967b 05bc
000001f0: e0bd 573c c0af 0d3c 8c77 6abd f7b0 03be
00000200: 1b9c 0cbe 20da 95bb dcf8 5cbd 555b 64bd
00000210: 6ae3 c6bd c6eb 5bbd 2eb6 74bd 1b1e 083d
00000220: fae3 aebd d4f4 00bd 545b e43c c4ce 453d
00000230: f68b 293c a0d0 89bb cfdb 933c a47b 3a3a
00000240: 408c c9bd 8071 c7bb d8cc 2cbd 6f04 83bc
00000250: 00c3 8ebd 6891 fa3c fc99 a13c 7c70 87bd
00000260: cffe 903d 9483 e6bd fcaa 47bd 04d7 7cbd
00000270: 14cd de3d 8080 01bd c444 2a3d 3f78 01be
00000280: 07da 9e3d a979 363d 6cf3 b1bc 4460 d4bd
00000290: 192a 863d 94d5 d1bd 4059 f8bb 816a 07be
000002a0: d042 033d 3c3d 3c3d 759c a2bd 4058 653b
000002b0: 64ec 4c3d ecd4 443d 5199 cabd a6a1 4abd
000002c0: 6031 76bd 746d 1c3d dedb d4bd b22f 813d
000002d0: 731f 053d 18c7 0ebe a04e 54bd b9d2 773d
000002e0: d6d3 dcbd 7c80 1cbd 5215 b9bc 7f3b 723b
000002f0: aafa 913d 862f c9bd 9186 e33c e8ce a63d
00000300: 6438 cbbc 3811 3cbd 851b fbbc e0b5 75bd
00000310: 8f63 02be 4d21 bdbd f873 81bb 117e 833d
00000320: 0a65 7abd 0034 ec39 88ed 4bbd 7097 ecbd
00000330: a43c 91bd d89d 193d 5dc8 cfbd cddf c5bd
00000340: a15b e8bc c001 463b b8c2 743d 867b afbd
00000350: 5f50 c7bd d247 5c3d 3bbf da3d 0493 533d
00000360: a02d 223d 14e2 753d c03b 2ebd a01f ac3d
00000370: 3212 94bd 20e1 8fbd 4f68 1dbc e846 f9bd
00000380: a363 c63c 45c2 a93d f0cc bb3d 8914 92bd
00000390: c4fc b0bd 6b80 e93c d880 c83d 2606 ebbc
000003a0: 0804 e13c a4a6 bcbc bf70 bf3d bfaf 59bd
000003b0: 1060 c8bc 4588 a93d ea0c 923d 12d1 953d
000003c0: b0eb 05bc 28f7 fbbd 2825 dcbd 1d0c bb3b
000003d0: 2976 75bd 61b3 c13d c052 693c 6362 b13d
000003e0: eabd 48bb 4458 a93d 1277 7abd 78cc 8a3d
000003f0: d452 c33d 5054 61bc 0967 87bc f19b 9f3c

model.2.bias f4 [32]
0.06806852 0.024232196 0.038497217 -0.06918253 -0.10032782 0.3010119 0.89482176 0.1546356
-0.1073308 -0.115324914 0.049270574 -0.10509667 -0.12599729 0.7177984 -0.10831418 -0.01042067
0.29950562 -0.14137252 -0.2709685 0.33287117 0.058200017 0.116097085 -0.11043216 0.6917519
0.0045982255 0.26963133 -0.004881403 -0.04720274 -0.1445955 0.071750976 0.066134 -0.0038762446
00000000: 8267 8b3d 9982 c63c 42af 1d3d 92af 8dbd
00000010: ac78 cdbd 3b1e 9a3e 0a13 653f cb58 1e3e
00000020: 40d0 dbbd 782f ecbd f1cf 493d ec3c d7bd
00000030: 6f05 01be a3c1 373f d3d3 ddbd 75bb 2abc
00000040: cd58 993e f5c3 10be 62bc 8abe 176e aa3e
00000050: 2463 6e3d 4fc4 ed3d 422a e2bd a716 313f
00000060: b6ac 963b 1e0d 8a3e 2df4 9fbb a957 41bd
00000070: d810 14be 2df2 923d 4371 873d 9808 7ebb

model.4.weight f4 [3, 32]
0.016058605 0.13269074 0.04346824 -0.042009138 0.013826806 -0.13681461 1.204713 -0.4970294
0.7695159 0.26148337 -0.25883898 0.23579107 0.19995974 1.0416561 0.19442165 0.14709224
-0.22221597 -0.037916582 0.440363 0.28131306 -0.038996965 -0.025834823 0.30031767 0.61918616
0.1570246 0.17600381 0.073620684 0.3841044 0.15061505 0.13981459 0.058201384 0.016391627
0.14762111 -0.0006471663 0.09150125 0.070665106 0.038441446 -0.050746977 1.1703147 -0.29603243
0.43045744 -0.1030628 -0.27415907 -0.013827359 -0.10083593 0.94660336 0.09646577 0.012248872
-0.06944857 -0.05853344 0.37699237 0.06284723 0.14186059 -0.2596296 0.20115784 0.77365804
-0.17472026 0.09963755 0.07283916 -0.07470696 -0.0063614543 0.15458237 -0.16973954 0.094628766
0.0026779473 -0.118854456 0.028554527 0.10014431 -5.638219e-05 0.4830616 0.48548147 -0.06998042
0.45556763 0.054445326 -0.09586585 -0.03203297 -0.15494941 0.47702402 0.6882079 0.14961703
0.24212576 -0.010913872 0.68815637 0.33852664 0.11386646 -0.020056587 0.7746642 0.46915796
0.044694763 0.12873629 -0.08149067 -0.16580597 0.07134954 -0.1564711 -0.024728313 0.16953267
00000000: 568d 833c 15e0 073e c10b 323d c611 2cbd
00000010: d489 623c 2119 0cbe 0934 9a3f a37a febe
00000020: fefe 443f 26e1 853e 8b86 84be 3773 713e
00000030: 3fc2 4c3e fd54 853f 7816 473e 599f 163e
00000040: 958c 63be 6b4e 1bbd 4277 e13e 4408 903e
00000050: 48bb 1fbd 8da3 d3bc 3dc3 993e fc82 1e3f
00000060: 0fcb 203e 583a 343e 71c6 963d 55a9 c43e
00000070: d53a 1a3e 8e2b 0f3e 9364 6e3d bc47 863c
00000080: fd29 173e 98a6 29ba 0265 bb3d deb8 903d
00000090: c774 1d3d 10dc 4fbd dfcc 953f 9091 97be
000000a0: eb64 dc3e 9712 d3bd 945e 8cbe 268c 62bc
000000b0: 1183 cebd 9954 723f d88f c53d 7eaf 483c
000000c0: 0d3b 8ebd c3c0 6fbd 2505 c13e 0cb6 803d
000000d0: e743 113e 2cee 84be 52fc 4d3e 740e 463f
000000e0: dee9 32be c60e cc3d b32c 953d f6ff 98bd
000000f0: bf73 d0bb d74a 1e3e 34d0 2dbe bacc c13d
00000100: 8080 2f3b f769 f3bd 2feb e93c 7618 cd3d
00000110: ea7b 6cb8 da53 f73e 0791 f83e e551 8fbd
00000120: 2940 e93e 1002 5f3d 5155 c4bd 0135 03bd
00000130: 0fab 1ebe 7e3c f43e 652e 303f 3535 193e
00000140: d1ef 773e 19d0 32bc 042b 303f 5d53 ad3e
00000150: d232 e93d b64d a4bc 6550 463f 7935 f03e
00000160: db11 373d 72d3 033e 95e4 a6bd 0ac9 29be
00000170: b51f 923d f639 20be 0893 cabc f999 2d3e

model.4.bias f4 [3]
0.854536 0.56367654 -0.7640057
00000000: dfc2 5a3f 1b4d 103f e195 43bf
