sandbox/saved_models/IMP.JO-MUR.JO.pt (torch, 12893 bytes, 6 tensors)

model.0.weight f4 [64, 3]
-0.005846798 -1.3830881 -0.07348498 -0.34481832 -0.51699615 0.51171154 0.017414212 0.00054067373
-0.51845187 0.00481939 -1.0663296 0.90466154 0.051591996 -0.59015244 0.12294556 0.16036661
-0.12310527 0.88458043 -0.6372898 -0.41913274 0.5902071 0.9023705 -0.21329863 0.8655599
-0.21918252 -0.6390218 0.5350309 -0.2319907 0.17487615 0.74941736 -0.42714483 -0.2072897
1.2821853 -0.7121215 -0.017513894 1.126849 0.18508886 -0.64121246 0.62560475 -0.011561474
-0.035111643 2.7444296 0.5165489 0.25408474 0.9500974 -0.2692878 -0.040949736 1.0753803
0.07385771 -1.7547493 0.90073526 -0.11483993 -0.58786744 -0.61010426 -0.61508656 -0.42909476
0.47772384 0.05585186 0.31360114 0.74562943 -0.26108572 0.2816696 0.59664834 -0.05526245
-1.3422401 0.44082543 -0.69907594 0.38485068 0.54072857 -0.4583081 -1.2276677 0.46251047
0.6987796 -0.9744499 -0.45778233 -0.010620462 0.1991601 0.6496762 -0.39933866 -1.411575
0.62108433 -0.2583744 0.4593737 0.30181143 -0.3931495 -0.086731896 0.74450016 -0.5170885
0.40667143 1.2237835 0.69543123 -0.14846627 0.8835201 -0.6046953 0.56966794 0.70735013
-0.49526775 0.114564836 0.26455054 -0.6338265 -0.19409397 1.2205272 -0.0022541778 -0.09940228
0.16394702 -0.5609013 -0.15127893 1.4770483 -0.55255944 0.026332205 1.0957696 0.73934436
0.1164295 0.5612395 -0.16230698 0.26993915 0.9236942 -0.6481436 -0.2847586 0.40813795
-0.7147984 -1.3671402 -0.55162656 -0.56230754 -0.06884726 1.5919315 -0.049376287 -0.9424306
-0.32046512 -0.17912266 -0.5027695 -0.23508677 -0.76231647 -0.18950143 2.9221995 -0.601875
0.029406197 1.1006247 0.622558 0.31454247 1.0697218 -0.08970968 -0.09268988 0.109282605
0.0559535 0.3519463 0.7177299 -0.07175565 0.037031185 0.55753154 0.37462154 -1.4167497
-0.40845832 0.07599817 -0.8547611 0.44314626 -0.05037828 0.07571359 0.5088045 -0.4337129
-0.71710914 0.33022124 -0.53085786 0.1282555 0.90592927 -0.47128546 0.4105506 1.2409246
-0.56200224 -0.2748792 1.624114 0.27521226 -1.3285474 -0.37182215 -0.46058682 -0.4693301
-0.49733815 -0.74896204 -0.075130105 0.55069685 -0.05977215 -0.8446557 0.019341378 0.4141644
-0.17822917 0.5717986 0.044102848 -0.30622542 -0.36922705 -0.6169467 -0.14606765 1.5458862
00000000: 7f96 bfbb 0809 b1bf 4b7f 96bd 078c b0be
00000010: dc59 04bf 87ff 023f 40a8 8e3c 00bc 0d3a
00000020: 43b9 04bf f9eb 9d3b 7d7d 88bf e697 673f
00000030: 2152 533d 3b14 17bf e2ca fb3d 2537 243e
00000040: 9e1e fcbd dd73 623f 6d25 23bf 9198 d6be
00000050: d017 173f c101 673f f56a 5abe 5595 5d3f
00000060: 6271 60be ef96 23bf c9f7 083f f88e 6dbe
00000070: bc12 333e d1d9 3f3f bab2 dabe c043 54be
00000080: a61e a43f 984d 36bf 4c79 8fbc 973c 903f
00000090: ef87 3d3e 8026 24bf a227 203f 566c 3dbc
000000a0: 3ad1 0fbd bca4 2f40 8c3c 043f 6517 823e
000000b0: 9539 733f 17e0 89be e9ba 27bd 10a6 893f
000000c0: b642 973d a09b e0bf 9696 663f 3231 ebbd
000000d0: 7b7e 16bf cb2f 1cbf 5076 1dbf 4fb2 dbbe
000000e0: 3898 f43e ecc4 643d 5490 a03e 92e1 3e3f
000000f0: 07ad 85be ff36 903e f2bd 183f e15a 62bd
00000100: 86ce abbf dfb3 e13e a4f6 32bf 260b c53e
00000110: 306d 0a3f 5ca7 eabe 3724 9dbf 2cce ec3e
00000120: 38e3 323f 8c75 79bf 7262 eabe 7201 2ebc
00000130: a0f0 4b3e 2e51 263f 1e76 ccbe 7dae b4bf
00000140: 62ff 1e3f a649 84be 0833 eb3e 0787 9a3e
00000150: e44a c9be 7ea0 b1bd 9097 3e3f e95f 04bf
00000160: 3d37 d03e f0a4 9c3f c807 323f 8b07 18be
00000170: 602e 623f 50cd 1abf c2d5 113f e614 353f
00000180: bc93 fdbe f8a0 ea3d 2b73 873e 7442 22bf
00000190: 92c0 46be 3c3a 9c3f d4ba 13bb 6c93 cbbd
000001a0: bae1 273e 3a97 0fbf dde8 1abe eb0f bd3f
000001b0: 8974 0dbf a3b6 d73c 2e42 8c3f ac45 3d3f
000001c0: 9772 ee3d 64ad 0f3f cd33 26be 7735 8a3e
000001d0: 3977 6c3f bdec 25bf e1cb 91be 75f7 d03e
000001e0: 07fd 36bf 73fe aebf 6637 0dbf 63f3 0fbf
000001f0: cbff 8cbd 69c4 cb3f ca3e 4abd 2243 71bf
00000200: 0114 a4be ee6b 37be 80b5 00bf 96ba 70be
00000210: 2c27 43bf aa0c 42be 5105 3b40 7b14 1abf
00000220: 44e5 f03c 45e1 8c3f f65f 1f3f b60b a13e
00000230: a5ec 883f b5b9 b7bd 31d4 bdbd 8fcf df3d
00000240: 7f2f 653d 4e32 b43e 26bd 373f a0f4 92bd
00000250: 03ae 173d 63ba 0e3f 65ce bf3e 0e58 b5bf
00000260: 7321 d1be eea4 9b3d a0d1 5abf 11e4 e23e
00000270: 7559 4ebd ba0f 9b3d 0341 023f 9e0f debe
00000280: 7794 37bf c212 a93e 4de6 07bf 6955 033e
00000290: fbea 673f 544c f1be b033 d23e 9ed6 9e3f
000002a0: 61df 0fbf f7bc 8cbe f8e2 cf3f 9fe8 8c3e
000002b0: d70d aabf 795f bebe 09d2 ebbe 094c f0be
000002c0: 1ba3 febe fabb 3fbf d0dd 99bd 78fa 0c3f
000002d0: a4d3 74bd 5b3b 58bf cf71 9e3c 5b0d d43e
000002e0: b581 36be 6561 123f 30a5 343d 94c9 9cbe
000002f0: 540b bdbe 38f0 1dbf c292 15be 99df c53f

model.0.bias f4 [64]
1.0851811 1.2294663 -0.22556028 1.4038043 1.5000625 1.4112864 1.8841474 0.3839891
1.488947 1.2680753 1.5525851 1.8150632 0.10460733 1.4528712 0.8718207 1.0076134
0.29745096 -0.27589592 0.7168708 1.2300073 1.2169203 0.9038798 1.7977308 0.3407535
0.86390704 0.9070426 0.49764356 1.1920623 1.618866 1.1182183 0.76315904 1.2370676
1.8788918 1.5048078 -0.17177078 0.711238 1.8077319 0.2631834 1.490493 1.6241356
0.2736933 0.68571484 0.6033274 -0.6633533 1.2412151 1.6622674 0.7363013 -0.5424424
1.2871981 1.0831119 0.36409965 1.3913349 1.5780479 1.2033687 1.201438 1.1943947
0.66237915 0.44144955 -0.47074935 1.4032664 1.0886084 0.31408465 -0.16948518 0.5918795
00000000: 37e7 8a3f 275f 9d3f 46f9 66be dcaf b33f
00000010: 0c02 c03f 08a5 b43f be2b f13f 389a c43e
00000020: d195 be3f 4b50 a23f 1cbb c63f fe53 e83f
00000030: 5e3c d63d aff7 b93f a42f 5f3f 7af9 803f
00000040: 7e4b 983e 3b42 8dbe d884 373f e170 9d3f
00000050: 0bc4 9b3f ab64 673f 0b1c e63f 3e77 ae3e
00000060: 0329 5d3f f233 683f 23cb fe3e 7f95 983f
00000070: 0037 cf3f c721 8f3f 645e 433f 3b58 9e3f
00000080: 877f f03f 8b9d c03f aee4 2fbe b213 363f
00000090: c263 e73f f9bf 863e 7ac8 be3f ade3 cf3f
000000a0: 8721 8c3e 028b 2f3f aa73 1a3f 86d1 29bf
000000b0: 23e0 9e3f 2ec5 d43f 3e7e 3c3f 81dd 0abf
000000c0: e8c2 a43f 69a3 8a3f 456b ba3e 4317 b23f
000000d0: 79fd c93f fc07 9a3f b8c8 993f ede1 983f
000000e0: ae91 293f ad05 e23e 0f06 f1be 3c9e b33f
000000f0: 8557 8b3f b4cf a03e 868d 2dbe 6a85 173f

model.2.weight f4 [32, 64]
-0.08344253 -0.054668833 -0.07574348 -0.086428836 -0.03946032 0.02705094 -0.0913065 0.08003919
-0.05690672 -0.030375756 -0.072332196 -0.008299586 -0.090372466 -0.03689924 -0.092231415 -0.0053179045
-0.101088464 0.07907072 0.039218247 0.046433497 -0.039015718 0.09469588 0.043764878 -0.068032295
-0.077007174 -0.06460815 0.036989182 0.0099540055 -0.14558777 -0.02558695 -0.12893684 -0.07397508
-0.10970252 -0.012815525 -0.06636354 0.009008755 0.008893694 0.05722111 0.011243494 0.008403752
-0.08257653 -0.15095879 0.109642595 -0.05898702 -0.04247558 -0.12184717 0.0142791215 0.042957842
-0.021949042 0.08206915 -0.015190566 -0.104661554 -0.05814387 -0.059919648 -0.0061527146 0.07304435
-0.152359 0.0322949 -0.023332775 -0.044788856 -0.0026874393 -0.09332227 -0.09584707 -0.017261064
0.60367066 0.744292 -0.012118563 0.50135124 0.610003 0.44422406 0.7612977 0.37852606
0.70877725 0.40941292 0.57393044 0.6211648 0.2525992 -1.9403003 0.45233157 0.26576242
0.5785054 0.119298354 0.4279392 0.16997473 0.4718358 0.3692319 0.62776893 0.15636839
0.2819207 0.28503948 0.25249726 0.3184687 0.49741355 0.389349 0.6475907 0.3937167
0.5640788 0.68517494 -0.07543788 -0.48164544 0.48544323 0.23240936 0.31111825 0.6522667
0.49214217 -0.5836907 0.5379416 -0.042592 -1.7778422 0.60599697 -0.10059822 -0.02720214
0.19782826 0.4339358 0.28486124 0.5805054 0.4226304 0.5787494 0.47651622 0.37965423
-0.37514845 0.47689143 0.011990937 0.6246124 0.58417743 0.21626824 0.0019520521 -0.31189123
-0.032370754 0.080150805 0.12175192 -0.031411987 -0.12310329 -0.009587859 -0.016340464 -0.07276784
0.06397077 0.07348243 -0.0454027 -0.09885878 0.04234843 -0.02294496 -0.0033082217 -0.093983166
0.119439915 0.04850205 0.023659451 0.062039696 -0.06628885 -0.0957832 0.006994176 -0.22161889
-0.038551588 -0.3087323 -0.0063044336 -0.0912839 0.062241245 0.010566074 -0.12757482 0.060112122
0.08937343 0.0022020512 -0.021199882 0.11127831 0.0916606 0.06981778 0.05739762 0.010428114
-0.0048041726 -0.02601415 0.048471242 0.026235208 -0.060102254 0.08992684 0.0543842 -0.058978304
-0.12078028 -0.21988432 -0.13119957 0.10822852 0.07275919 -0.0059135575 -0.0037883702 -0.10070666
-0.04006102 -0.275282 0.032675803 -0.10036475 -0.13528292 0.013386577 0.016820759 -0.01772371
0.35451308 0.46293342 -0.09349546 0.32541376 0.53265935 0.8312589 0.6109536 0.49736643
0.42161557 0.69641286 0.66650146 0.57422936 0.50756085 -1.7571602 0.98976475 0.71771276
0.5690775 0.018498383 0.21118487 0.79646593 0.6788394 0.25052327 0.78812224 -0.09054648
-0.37593588 0.47587097 -0.112091005 0.95158625 0.5531978 0.74401265 0.59250903 0.6324599
0.79818153 0.48382527 0.06788581 -0.63091844 0.5391176 0.47476566 0.74344766 0.5932601
0.039146077 -0.9495718 0.1534682 -0.023768762 -1.7515934 0.61722845 0.5757555 0.04156051
0.78441626 0.45592654 -0.118338555 0.5854551 0.8361 0.2783574 0.5735089 0.75764817
-0.4183814 0.21481077 -0.19837038 0.6643961 0.36799854 0.3486651 0.0443656 -0.3960542
00000000: ebe3 aabd 6dec 5fbd 661f 9bbd 9a01 b1bd
00000010: 25a1 21bd ef99 dd3c e7fe babd 96eb a33d
00000020: 0517 69bd 94d6 f8bc e722 94bd fdfa 07bc
00000030: 3315 b9bd a823 17bd d3e3 bcbd d141 aebb
00000040: 7807 cfbd d4ef a13d 50a3 203d 0d31 3e3d
00000050: f2ce 1fbd eaef c13d cd42 333d 8454 8bbd
00000060: f0b5 9dbd 4751 84bd f881 173d 2016 233c
00000070: f614 15be b99b d1bc 0508 04be 3f80 97bd
00000080: b7ab e0bd 35f8 51bc 9ce9 87bd 7599 133c
00000090: dbb6 113c af60 6a3d a236 383c e4af 093c
000000a0: e21d a9bd f194 1abe 4c8c e03d 609c 71bd
000000b0: e0fa 2dbd 028b f9bd faf2 693c 90f4 2f3d
000000c0: 7ace b3bc df13 a83d dae1 78bc cc58 d6bd
000000d0: 4428 6ebd 4e6e 75bd b69c c9bb 4798 953d
000000e0: ff03 1cbe a847 043d 6024 bfbc 8574 37bd
000000f0: c01f 30bb bf1f bfbd 784b c4bd 1367 8dbc
00000100: 298a 1a3f ec89 3e3f f08c 46bc 8e58 003f
00000110: 2829 1c3f 5671 e33e 68e4 423f 2bce c13e
00000120: 6d72 353f 929e d13e 1bed 123f a804 1f3f
00000130: af54 813e c35b f8bf 0198 e73e 0312 883e
00000140: ee18 143f b252 f43d d91a db3e db0d 2e3e
00000150: 7694 f13e f70b bd3e 77b5 203f 091f 203e
00000160: e957 903e b2f0 913e 5247 813e 540e a33e
00000170: fdac fe3e c158 c73e 81c8 253f 3c95 c93e
00000180: 7867 103f a067 2f3f 2d7f 9abd 3b9a f6be
00000190: 048c f83e b8fc 6d3e e44a 9f3e f3fa 263f
000001a0: 0ffa fb3e c16c 15bf 8ab6 093f f374 2ebd
000001b0: 5590 e3bf 9e22 1b3f 7106 cebd 06d7 debc
000001c0: 7e93 4a3e d52c de3e 55d9 913e 009c 143f
000001d0: 0363 d83e ec28 143f eff9 f33e 0a62 c23e
000001e0: 7513 c0be 1d2b f43e a375 443c 99e6 1f3f
000001f0: a78c 153f 6c75 5d3e 00dc ff3a 35b0 9fbe
00000200: 3297 04bd 1b26 a43d 1259 f93d dba9 00bd
00000210: 941d fcbd 6516 1dbc 70dc 85bc 4e07 95bd
00000220: 1b03 833d f57d 963d 2ef8 39bd 7976 cabd
00000230: 8c75 2d3d 12f7 bbbc c0ce 58bb 3f7a c0bd
00000240: ea9c f43d 16aa 463d 77d1 c13c 561d 7e3d
00000250: 73c2 87bd fb29 c4bd 672f e53b 10f0 62be
00000260: 45e8 1dbd 2912 9ebe 6c95 cebb 0ef3 babd
00000270: adf0 7e3d 541d 2d3c f9a2 02be 2138 763d
00000280: 6b09 b73d 4a50 103b 60ab adbc e2e5 e33d
00000290: 8db8 bb3d a0fc 8e3d c419 6b3d aeda 2a3c
000002a0: 526c 9dbb a01b d5bc c889 463d 38eb d63c
000002b0: c82d 76bd 902b b83d f8c1 5e3d 3c93 71bd
000002c0: a75b f7bd 5b29 61be 2e59 06be eaa6 dd3d
000002d0: c502 953d 84c6 c1bb 4e46 78bb 4b3f cebd
000002e0: 0617 24bd c3f1 8cbe 10d7 053d 098c cdbd
000002f0: 9b87 0abe 6053 5b3c b0cb 893c 5031 91bc
00000300: bd82 b53e 9c05 ed3e 8c7a bfbd a29c a63e
00000310: 5d5c 083f 62cd 543f 7567 1c3f d0a6 fe3e
00000320: ffdd d73e 1d48 323f d79f 2a3f b200 133f
00000330: 82ef 013f a0ea e0bf 3961 7d3f 06bc 373f
00000340: 10af 113f ec89 973c d940 583e 31e5 4b3f
00000350: 6bc8 2d3f 9644 803e 61c2 493f 6f70 b9bd
00000360: ab7a c0be 5ca5 f33e f88f e5bd 289b 733f
00000370: 5f9e 0d3f 9d77 3e3f acae 173f e4e8 213f
00000380: a055 4c3f f2b7 f73e b707 8b3d df83 21bf
00000390: 9c03 0a3f 7c14 f33e 9652 3e3f e5df 173f
000003a0: a357 203d 2317 73bf c526 1d3e b5b6 c2bc
000003b0: 3634 e0bf af02 1e3f b664 133f 5a3b 2a3d
000003c0: 81cf 483f 346f e93e 7c5b f2bd 63e0 153f
000003d0: a60a 563f dc84 8e3e 7bd1 123f 3bf5 413f
000003e0: 1636 d6be 5bf7 5b3e 9b21 4bbe dd15 2a3f
000003f0: 4e6a bc3e 3b84 b23e b4b8 353d 9ec7 cabe

model.2.bias f4 [32]
-0.032037307 0.32062712 0.03851996 0.7038546 0.037928622 -0.025114847 -0.0102408435 0.7445917
0.05934115 -0.015204146 -0.04889202 0.32880723 -0.12424749 0.570911 0.5307953 -0.08826271
-0.039476566 0.01302649 -0.020949101 0.8366384 0.0013085038 -0.12993848 0.86299616 0.09609461
0.09313913 0.08536593 -0.12600318 -0.14120476 -0.032824002 -0.21967955 1.5921353 -0.0319056
00000000: 8d39 03bd 3d29 a43e 1bc7 1d3d d12f 343f
00000010: 0b5b 1b3d a7bd cdbc 36c9 27bc 909d 3e3f
00000020: b50f 733d cf1a 79bc 0043 48bd 6c59 a83e
00000030: 7875 febd 3927 123f 33e2 073f 14c3 b4bd
00000040: 2eb2 21bd 0f6d 553c 739d abbc ef2d 563f
00000050: 1a82 ab3a 980e 05be 51ed 5c3f 40cd c43d
00000060: babf be3d 55d4 ae3d fa06 01be fb97 10be
00000070: 7672 06bd adf3 60be 17cb cb3f 72af 02bd

model.4.weight f4 [3, 32]
0.13426523 0.42616078 0.29420123 1.0129919 -0.060818125 -0.065636426 0.065271154 0.97759753
0.37112215 0.18144552 0.18153413 0.7967249 -0.13956057 0.7691372 0.82245207 -0.14964725
0.08911348 -0.10736732 0.09295525 1.2020432 0.06339511 -0.23094523 1.1041769 0.36107913
-0.086784825 0.7014888 0.110555544 0.008102504 -0.035554517 0.25269756 -1.2492994 -0.12157927
0.0025885701 0.41305122 -0.12747559 1.0736735 0.034505613 -0.08559303 -0.068939045 1.1125127
0.5448047 0.5243443 -0.07164739 0.31236085 0.08012934 0.508243 0.33269835 0.100181505
0.04817711 0.11168142 0.119628385 1.2129031 0.26385212 -0.46004325 0.95864576 0.44804272
0.17122969 0.5617347 -0.008958323 0.03561826 0.0990129 0.30352315 -1.1550657 0.2606296
0.11480287 1.0253555 -0.25197345 0.52628696 -0.015828969 -0.11472673 0.11414392 0.57838553
1.0031097 0.9817778 0.15295722 0.33926857 0.03731504 0.4276363 0.39445752 -0.14423722
0.13228847 0.046367884 -0.0039372263 0.70641404 0.80783874 -0.17072459 0.581617 1.0610892
0.11444561 0.8566705 0.020116508 -0.090268984 0.11334841 0.37884533 -0.9582353 0.6918756
00000000: d37c 093e bf31 da3e 8ba1 963e b8a9 813f
00000010: 6d1c 79bd 646c 86bd e2ac 853d d543 7a3f
00000020: b903 be3e dbcc 393e 15e4 393e 2af6 4b3f
00000030: f7e8 0ebe 2de6 443f 388c 523f 213d 19be
00000040: 2181 b63d 66e3 dbbd 525f be3d 8ddc 993f
00000050: 4cd5 813d e87c 6cbe ab55 8d3f 5ddf b83e
00000060: 3ebc b1bd c594 333f f26a e23d 5dc0 043c
00000070: 9da1 11bd 9361 813e 0be9 9fbf 8dfe f8bd
00000080: 00a5 293b 737b d33e f688 02be 226e 893f
00000090: c255 0d3d 664b afbd ea2f 8dbd d166 8e3f
000000a0: 5278 0b3f 6e3b 063f debb 92bd c3ed 9f3e
000000b0: da1a a43d 371c 023f 7057 aa3e f62b cd3d
000000c0: 5c55 453d 3ab9 e43d baff f43d 6940 9b3f
000000d0: a017 873e ca8a ebbe cf69 753f db65 e53e
000000e0: d656 2f3e d8cd 0f3f eec5 12bc 74e4 113d
000000f0: 46c7 ca3d 6367 9b3e 31d9 93bf 3e71 853e
00000100: c41d eb3d d93e 833f aa02 81be beba 063f
00000110: c1ab 81bc d9f5 eabd 4ac4 e93d 1311 143f
00000120: e665 803f ca55 7b3f d1a0 1c3e 9cb4 ad3e
00000130: a8d7 183d 25f3 da3e 56f6 c93e ecb2 13be
00000140: a176 073e 40ec 3d3d d903 81bb 8dd7 343f
00000150: 85ce 4e3f 6dd2 2ebe dae4 143f c5d1 873f
00000160: 7662 ea3d c24e 5b3f 60cb a43c f2de b8bd
00000170: 3623 e83d 04f8 c13e e94e 75bf c21e 313f

model.4.bias f4 [3]
0.64083415 0.20333518 -0.009985916
00000000: b50d 243f 1937 503e f89b 23bc
