models/structural_breaks_model.pt (torch, 277855 bytes, 11 tensors)

cnn.0.weight f4 [8, 1, 3, 3]
0	0x3da15289	0.078770705
1	0x3d61f810	0.05516821
2	0xbe43c7d0	-0.19119191
3	0x3d9c5a0e	0.07634364
4	0x3d8d336e	0.06894575
5	0xbd07fe61	-0.03320158
6	0x3d195c3a	0.03744147
7	0x3ce4630b	0.027879259
8	0x3da0291d	0.07820342
9	0xb98ec014	-0.0002722746
10	0xbc39d25b	-0.011341657
11	0x3e4de948	0.20108521
12	0xbd854a09	-0.06508262
13	0xbe356766	-0.17715225
14	0xbe2d2dc7	-0.16911994
15	0xbe8c0df6	-0.273544
16	0xbe0891b4	-0.13336831
17	0x3ea69663	0.3253661
18	0x3e621f0e	0.22082159
19	0x3e89c325	0.26906696
20	0x3eab8a19	0.33503798
21	0x3ed67bdc	0.41891372
22	0xbe88edb2	-0.26743847
23	0xbe986403	-0.29763803
24	0xbe82ff99	-0.2558563
25	0x3dbcde18	0.092220485
26	0xbe95144d	-0.2911705
27	0xbd27f8dd	-0.04100882
28	0x3d9f5696	0.07780187
29	0xbd0bafcf	-0.03410321
30	0xbe1386e7	-0.1440693
31	0xbe4d775c	-0.20065063
32	0x3ec38dc2	0.3819409
33	0xbe27c46c	-0.16383523
34	0x3db69729	0.0891555
35	0xbca8b983	-0.020596271
36	0x3dffd4aa	0.12491734
37	0xbe6668f4	-0.22500974
38	0x3ea3f5d7	0.32023498
39	0xbe9326f6	-0.28740662
40	0xbe6e2519	-0.23256339
41	0x3e8c3bd6	0.273894
42	0xbe0bcf90	-0.13653398
43	0x3c034e6a	0.008014301
44	0x3eb70f30	0.35753775
45	0x3d5422e3	0.051791083
46	0xbe1cdaa2	-0.15317777
47	0x3e570a5e	0.21000049
48	0x3d8b6c0a	0.06807716
49	0x3e5218a5	0.20517214
50	0x3e62ebcb	0.2216026
51	0xbe7ede0d	-0.24889393
52	0xbea20d51	-0.31650785
53	0xbe483638	-0.19551933
54	0xbd839b9e	-0.06426166
55	0x3dad9ca0	0.084771395
56	0xbea9c3f8	-0.33157325
57	0xbd0b9fe0	-0.034088016
58	0x3e806b17	0.25081703
59	0x3e64e40c	0.22352618
60	0xbdf9bd14	-0.12194267
61	0x3d985eb4	0.07439938
62	0x3ea83cb8	0.32858825
63	0xbe78a8cb	-0.2428314
64	0x3e18ea47	0.1493312
65	0x3deda394	0.11603466
66	0xbe79f839	-0.24411096
67	0x3e38fb0f	0.18064521
68	0xbca3fa19	-0.020016717
69	0x3dee3cfe	0.11632727
70	0xbdb14161	-0.08655048
71	0xbe8aa9fe	-0.2708282

cnn.0.bias f4 [8]
0	0x3e8d8015	0.2763678
1	0x3e93eff2	0.28894
2	0xbe7c77cc	-0.24655074
3	0xbe08f8e6	-0.13376197
4	0x3db0c12b	0.08630594
5	0x3ec79f92	0.3898893
6	0x3d5c1b02	0.053736694
7	0x3ea2576b	0.3170732

cnn.3.weight f4 [16, 8, 3, 3]
0	0x3b70c4ab	0.0036738317
1	0x3dbec83c	0.093155354
2	0xbdc586d8	-0.0964486
3	0x3dac9bbf	0.08428144
4	0x3d86bc84	0.06578925
5	0x3dcbc358	0.09949368
6	0x3e100f2c	0.14068288
7	0xbd2c0e11	-0.042005602
8	0x3d00b573	0.031423043
9	0x3deeb278	0.11655134
10	0xbd79a758	-0.060950607
11	0x3d38e6d6	0.045142017
12	0xbd8ab899	-0.067734905
13	0x3d29a094	0.041412905
14	0x3d53a2ce	0.051668935
15	0xbdc079ab	-0.09398206
16	0x3dc19081	0.0945139
17	0x3dea2732	0.11433257
18	0xbdabab9a	-0.0838234
19	0xbe06e2b4	-0.13172418
20	0x3d143816	0.0361863
21	0xbe03e62a	-0.1288077
22	0xbca25d00	-0.019819736
23	0xbc47f330	-0.0122039765
24	0x3e030464	0.12794644
25	0x3afef6a6	0.0019452169
26	0x3dbf4e90	0.093411565
27	0x3d10952d	0.035298515
28	0xbd2635f6	-0.040578805
29	0x3daab693	0.083356045
30	0x3c9f92fd	0.01947927
31	0xbb97adb2	-0.0046288604
32	0xbe245195	-0.16046746
33	0x3d5f55fb	0.054525357
34	0x3cebcfee	0.028785672
35	0xbd3549e1	-0.04425991
36	0xbd877e68	-0.06615907
37	0xbdd90b4d	-0.105978586
38	0xbdbbe243	-0.091740154
39	0x3dc4acaa	0.096032456
40	0x3bc26c73	0.0059333383
41	0xbd4a2a38	-0.04935667
42	0x3da9c0ff	0.08288764
43	0xbd819c12	-0.06328596
44	0x3cbbcbe2	0.022924367
45	0xbd3bc351	-0.045840565
46	0x3cc96fdb	0.02458947
47	0x3c9c9cf8	0.019117817
48	0x3d896cf0	0.06710231
49	0xbba1fb04	-0.0049432535
50	0xbd9b768a	-0.07590969
51	0x3dcc7c91	0.09984697
52	0xbd66293a	-0.05619166
53	0xbdfff6a6	-0.12498216
54	0xbde810d9	-0.113313384
55	0xbe05365f	-0.13009022
56	0xbc60c7f7	-0.01371955
57	0x3b990729	0.004670043
58	0xbd304bc4	-0.043041006
59	0xbddfe4f1	-0.10932339
60	0x3e042c70	0.12907577
61	0xbd795d99	-0.060880277
62	0x3dc72330	0.09723508
63	0xbd87d87f	-0.0663309
64	0xbd59cb05	-0.05317213
65	0x3dae5a1a	0.08513279
66	0x3ce9e137	0.028549774
67	0x3dc80089	0.09765727
68	0x3d42bdd1	0.047544304
69	0x3e0bb00b	0.13641374
70	0x3ddb46d8	0.10706872
71	0x3d029934	0.031884387
72	0x3d88141a	0.06644459
73	0xbdf634c4	-0.12021783
74	0x3dc90b3c	0.09816596
75	0xbd7c0816	-0.06153115
76	0x3def0818	0.11671466
77	0x3c42d69e	0.011891989
78	0x3bb5cc08	0.005548004
79	0xbd42693a	-0.047463633
80	0x3da9a3e6	0.08283214
81	0xbcf6dbdc	-0.030134134
82	0x3ce46ba4	0.027883358
83	0x3d83cbd2	0.0643536
84	0xbe051e64	-0.12999874
85	0xbdb71456	-0.08939426
86	0x3d133325	0.035937447
87	0x3e118026	0.14209041
88	0x3d9a6fba	0.075408414
89	0xbd0cf62e	-0.034414463
90	0x3c7337bf	0.014844834
91	0x3b421bda	0.0029618652
92	0x3d98b02b	0.074554764
93	0x3dfee7bb	0.12446543
94	0x3dc24d03	0.09487345
95	0xb9bcd68f	-0.00036018013
96	0x3d82dd02	0.0638981
97	0xbddbf2b3	-0.107396506
98	0x3e15501f	0.14581345
99	0xbe767cb6	-0.24071011
100	0xbe0bc8dd	-0.13650842
101	0xbda218cb	-0.07914885
102	0xbda69da6	-0.08135538
103	0xbdd63754	-0.10459772
104	0xbdff9428	-0.124794304
105	0x3d80a7ec	0.062820286
106	0xbca78de2	-0.020453397
107	0xbdc29c9c	-0.09502527
108	0xbd698317	-0.057009783
109	0xbe4ac565	-0.19801863
110	0x3c3cecca	0.011531064
111	0xbdab4688	-0.08363062
112	0x3d8c6dcb	0.06856879
113	0x3dea72a1	0.11447645
114	0xbbb4b998	-0.0055152886
115	0x3dc5392d	0.09630046
116	0x3dd27272	0.10275735
117	0x3de8f490	0.113747716
118	0x3c2d4eb5	0.010577847
119	0x3e5080f4	0.20361692
120	0x3db6ae5e	0.08919977
121	0x3d5b2434	0.053501323
122	0x3dfe9411	0.12430585
123	0xbdc5bd8b	-0.09655293
124	0x3cd9e0a6	0.026596379
125	0x3d73a883	0.059486877
126	0x3c28dc6e	0.010306461
127	0xbdd96e83	-0.106167816
128	0xbe00c4e4	-0.12575108
129	0xbd392b88	-0.04520753
130	0x3d58bd9c	0.0529152
131	0xbdb3bbf4	-0.087760836
132	0xbcd6af5a	-0.026206661
133	0xbdaa8526	-0.08326177
134	0x3d9f9823	0.0779269
135	0xbe0b445b	-0.13600294
136	0x3d82dbe7	0.06389599
137	0x3d993dc5	0.07482485
138	0xbcd266ff	-0.025683878
139	0xbdc91464	-0.09818342
140	0xbbb63a16	-0.0055611236
141	0xbcd0069a	-0.025393773
142	0x3d9ca037	0.07647746
143	0x3d181a44	0.037134424
144	0x3df7b94f	0.12095892
145	0x3e231063	0.1592422
146	0x3df61ee1	0.120176084
147	0xbd13ad0d	-0.036053706
148	0x3dd5dac1	0.104421146
149	0x3e08627d	0.1331882
150	0xbd91d0ab	-0.071198784
151	0x3d1c363c	0.03813766
152	0x3e190c86	0.14946184
153	0x3c37f1b5	0.011227061
154	0xbc61c300	-0.013779402
155	0xbd957755	-0.072981514
156	0x3da2374f	0.079207055
157	0xbd6ccc8a	-0.05781225
158	0x3dd7b74b	0.10533007
159	0x3cc81f8c	0.024429105
160	0xbcf2b784	-0.029628523
161	0x3d2f45b6	0.04279109
162	0xbe0a9587	-0.13533603
163	0xbde8ca28	-0.11366683
164	0xbe27db12	-0.16392162
165	0xbdf30997	-0.118670635
166	0xbdb3dbd8	-0.08782166
167	0xbe2b81b8	-0.16748703
168	0xbddc8f54	-0.10769525
169	0xbbd18ac5	-0.0063947164
170	0xbdc5e903	-0.09663584
171	0xbd0ae268	-0.033907324
172	0xbdc21aaa	-0.09477742
173	0xbc8eb992	-0.017422471
174	0xbd503dd2	-0.050840206
175	0x3c9c3bc9	0.019071477
176	0xbe34908c	-0.17633265
177	0xbd3274df	-0.04356849
178	0xbcb4de82	-0.022078756
179	0x3d1ecf03	0.03877164
180	0xbdb83320	-0.08994126
181	0x3d3bba0e	0.045831732
182	0xbd9166b9	-0.07099671
183	0xbc627a79	-0.013823145
184	0x3c7be721	0.01537493
185	0x3dc025b8	0.09382194
186	0x3dfd3ab4	0.12364712
187	0x3c8b07ba	0.016971458
188	0xbd6818cf	-0.056664284
189	0x3e02f021	0.12786914
190	0xbcdff3f6	-0.02733801
191	0xbca2c6d0	-0.019870192
192	0x3bb8cc3a	0.00563958
193	0x3cc6b016	0.024253886
194	0x3de5832d	0.112066604
195	0xbd3acf1b	-0.045607667
196	0x3cae38a6	0.021267246
197	0x3d9fd9b0	0.078051925
198	0xbd0f6b6e	-0.035014562
199	0x3d0c95e1	0.034322623
200	0x3d1efaf5	0.03881355
201	0x3d2c5b98	0.042079538
202	0xbca63cf2	-0.020292733
203	0xbd3c020f	-0.0459004
204	0x3dc9e244	0.0985761
205	0x3d4a853f	0.04944348
206	0x3d8ad3e1	0.06778694
207	0x3dc1f74e	0.09470998
208	0xbd215aec	-0.03939335
209	0x3b952920	0.0045520216
210	0xbd5361f7	-0.0516071
211	0x3db432a6	0.08798723
212	0xbadc1d37	-0.0016793375
213	0xbd4abc90	-0.049496233
214	0x3d0f9dbc	0.035062537
215	0x3d923ac7	0.07140117
216	0x3dd22cd4	0.102624565
217	0x3e0fc84c	0.14041251
218	0x3d8bf017	0.06832903
219	0x3e154688	0.14577687
220	0x3de5e194	0.11224666
221	0x3c99668d	0.018725658
222	0x3e36032a	0.17774644
223	0x3e432094	0.19055396
224	0xbda070ff	-0.07834052
225	0x3de99298	0.11404914
226	0xbd8cdb0e	-0.06877719
227	0xbd90ec4e	-0.070763215
228	0xbd03311a	-0.03202925
229	0xbd79a910	-0.060952246
230	0x3e083aa2	0.13303617
231	0x3df6a873	0.12043848
232	0x3d94c484	0.07264045
233	0xbcb8fdde	-0.02258199
234	0xbe451b31	-0.19248654
235	0xbdfce60b	-0.12348565
236	0xbe078fdb	-0.1323847
237	0xbde768db	-0.112992965
238	0x3cbe613f	0.02323973
239	0x3d18a6a1	0.037268285
240	0x3e8a36c5	0.2699491
241	0x3cd36af6	0.025807839
242	0x3e0a1dc9	0.13487925
243	0x3d43eac4	0.04783131
244	0xbd182d10	-0.03715235
245	0x3cb5d57d	0.022196526
246	0x3d28f43b	0.04124854
247	0x3d31c208	0.043397933
248	0x3d997122	0.074922815
249	0x3e09b7cb	0.13449018
250	0xbc5b1944	-0.013372723
251	0xbb8b4f09	-0.004251365
252	0x3d4b3347	0.04960945
253	0x3db12a61	0.08650661
254	0xbddfe887	-0.10933023
255	0xbd9c5b4f	-0.07634603

cnn.3.bias f4 [16]
0	0x3d642cb4	0.055706695
1	0x3d13a75c	0.03604828
2	0x3e7959ba	0.24350634
3	0x3d95ad6e	0.0730847
4	0x3e43cb08	0.19120419
5	0x3d717a3a	0.058954455
6	0x3e181408	0.14851391
7	0x3e431261	0.1904998
8	0x3dc5f975	0.09666721
9	0x3e268192	0.16260365
10	0x3e336163	0.17517619
11	0x3b9958ef	0.004679791
12	0x3cf9118a	0.030403871
13	0xbcbe3da8	-0.02322276
14	0xbd9cd3e0	-0.076575994
15	0xbe0e5fc2	-0.13903716

lstm.weight_ih_l0 f4 [256, 3]
0	0x3ee2f331	0.44326165
1	0x3e082598	0.13295591
2	0x3b564966	0.0032697557
3	0x3ccdeb76	0.02513669
4	0xba01cd12	-0.00049515173
5	0xbd1743b9	-0.03692982
6	0xbdb3a290	-0.08771241
7	0xbc43fe44	-0.011962477
8	0x3d9d1d22	0.07671572
9	0xbd386f35	-0.04502793
10	0xbe34a50f	-0.1764109
11	0xbea15d6b	-0.31516585
12	0xbd944fa9	-0.072417565
13	0xbdc38f67	-0.09548836
14	0x3ea9d83e	0.33172792
15	0x3e1d2b3c	0.15348524
16	0xbd93e81d	-0.072220065
17	0xbdce5773	-0.10075273
18	0x3ce0d7f4	0.027446724
19	0xbec7fd77	-0.39060566
20	0xbed355ea	-0.41276485
21	0xbddfa9fd	-0.109210946
22	0xbc6fb8a5	-0.014631425
23	0x3cd2338e	0.025659349
24	0x3e238de5	0.15972097
25	0x3e21a279	0.15784635
26	0x3cd33e44	0.025786527
27	0x3d4d42d9	0.05011258
28	0x3d77467c	0.060369954
29	0x3d7ed5d4	0.06221564
30	0x3d435113	0.04768474
31	0xbcb57897	-0.022152228
32	0xbb1c9713	-0.0023893758
33	0x3e35c230	0.17749858
34	0xbd05960b	-0.032613795
35	0x3cde9656	0.027171295
36	0x3e114e16	0.14189944
37	0xbc9e84f0	-0.019350499
38	0xbdaaa6a6	-0.08332567
39	0xbdbff155	-0.09372202
40	0x3c71712c	0.014736455
41	0xbdccf738	-0.10008091
42	0x3dfc66df	0.123243086
43	0x3d4e09f3	0.050302457
44	0x3dd73479	0.10508055
45	0xbd25a9ba	-0.040445067
46	0x3d457ac9	0.0482128
47	0x3e0dc19f	0.13843392
48	0x3baf7bc1	0.005355329
49	0x3da0912a	0.07840188
50	0x3cc9a310	0.024613887
51	0x3d2f6238	0.042818278
52	0x3d84208e	0.06451522
53	0xbd0956cc	-0.03353004
54	0x3d464be3	0.048412215
55	0xbb7d0402	-0.0038607125
56	0x3be11ff9	0.0068702665
57	0x3d57c90c	0.052681968
58	0xbc0857a3	-0.0083216755
59	0xbb9ff78d	-0.0048818053
60	0x3c367d6d	0.011138302
61	0x3c661e42	0.0140453
62	0x3df662f5	0.12030593
63	0xbcbd36ef	-0.023097483
64	0xbd190531	-0.037358467
65	0xbc81ce22	-0.015845362
66	0xbd68b2f0	-0.056811273
67	0x3d3a8822	0.045539983
68	0xbe5c7966	-0.21530685
69	0xbcf0c340	-0.029389977
70	0x3be864af	0.0070920805
71	0xbc52e7f3	-0.012872684
72	0xbe5755cf	-0.21028827
73	0xbd393bc0	-0.045222998
74	0x3d425744	0.047446504
75	0x3da64068	0.08117753
76	0x3dbde39a	0.09271927
77	0xbdbb6ca4	-0.09151581
78	0xbeb92851	-0.3616357
79	0xbd309ab9	-0.043116305
80	0xbc9e2709	-0.019305723
81	0x3db7dbb4	0.08977452
82	0xbcff421c	-0.031159453
83	0x3d93bb8e	0.072135076
84	0x3e317c50	0.17332578
85	0x3d917bba	0.07103677
86	0xbd99b3e9	-0.07505018
87	0x3e3d40a8	0.18481696
88	0xbc55532d	-0.013020319
89	0xbad489e6	-0.0016215413
90	0x3d99e5f9	0.07514567
91	0x3d7fcf1e	0.06245338
92	0xbdb09b26	-0.08623342
93	0x3e10d508	0.14143765
94	0x3d441938	0.047875613
95	0x3b321512	0.0027173203
96	0x3e056031	0.13024975
97	0x3cea1505	0.028574476
98	0xbbb01361	-0.005373404
99	0x3d49524f	0.04915076
100	0xbd3683a0	-0.04455912
101	0xbda94e40	-0.08266878
102	0xbd72e66b	-0.059301775
103	0xbccc53e3	-0.024942344
104	0x3c696f8d	0.014247787
105	0x3dfbbe62	0.12292172
106	0x3c490dad	0.012271327
107	0xbc7a6b4b	-0.01528437
108	0xbde35e89	-0.111020155
109	0xbe323f08	-0.17406857
110	0x3d232504	0.039830223
111	0x3e4bc536	0.19899449
112	0x3d31e412	0.043430395
113	0x3ca97c1d	0.020689065
114	0x3de2a489	0.11066539
115	0x3df5ce14	0.12002197
116	0x3e2ed6f5	0.17074187
117	0x3ea74639	0.32670763
118	0x3e80f1a6	0.25184363
119	0xbd81a793	-0.0633079
120	0x3df205a1	0.1181748
121	0x3d4cb6cf	0.049979027
122	0x3e09e8a1	0.13467647
123	0xbc7be01c	-0.015373256
124	0x3d668049	0.056274686
125	0xbdc19167	-0.094515614
126	0xbd18d85e	-0.03731572
127	0x3db14d6b	0.086573444
128	0x3d97586c	0.07389912
129	0x3e509939	0.2037095
130	0x3ea660db	0.3249577
131	0x3e9b83ed	0.3037409
132	0x3de20d06	0.1103764
133	0xbd7af611	-0.061269823
134	0xbca99181	-0.020699264
135	0xbd7327c0	-0.05936408
136	0x3c77ee29	0.015132465
137	0xbe0e16b8	-0.13875854
138	0x3d69b4f0	0.05705732
139	0x3e0afedd	0.13573785
140	0xbd9988d0	-0.07496798
141	0x3b8f57f5	0.004374499
142	0xbcbd6665	-0.023120115
143	0x3ca94b5f	0.020665823
144	0x3d13cbf2	0.03608317
145	0xbd55a6bd	-0.052160967
146	0x3d874f27	0.06606894
147	0x3e68c443	0.22731118
148	0xbba41bca	-0.0050081955
149	0x3ccf4798	0.025302693
150	0x3d8e5387	0.06949525
151	0x3e5a9a5d	0.21347947
152	0x3da92320	0.08258653
153	0x3d93d179	0.07217688
154	0xbd9aedd4	-0.07564893
155	0xbd8acd3d	-0.06777427
156	0x3e4e56c8	0.20150292
157	0x3e17aa94	0.14811164
158	0x3e18d16a	0.14923635
159	0xbc2cf312	-0.010555999
160	0xbd60241b	-0.054721933
161	0xbce0b0c2	-0.027428035
162	0xbcb1d923	-0.021709984
163	0xbddde495	-0.10834614
164	0x3d2e1b85	0.042506713
165	0x3e827648	0.25480866
166	0xbd35e8dc	-0.044411525
167	0xbe1e0132	-0.15430143
168	0xbd49f9ee	-0.049310617
169	0xbdb9c36c	-0.09070477
170	0xbdc69bb5	-0.096976675
171	0x3d8d996a	0.06914027
172	0x3d481af1	0.04885382
173	0x3d9f1d2a	0.077692345
174	0xbe178f23	-0.14800696
175	0xbd6d25cd	-0.057897378
176	0x3cd6e3ad	0.026231611
177	0x3e13b694	0.14425117
178	0xbe02b283	-0.1276341
179	0xbe10706e	-0.14105389
180	0x3cdade68	0.02671738
181	0xbd1e7f87	-0.03869584
182	0xbda56a42	-0.08076908
183	0xbd618b15	-0.05506428
184	0x3dd0ecde	0.10201429
185	0xbd93f041	-0.07223559
186	0x3d48a714	0.048987463
187	0x3d47a8e4	0.04874505
188	0xbcb62f07	-0.022239221
189	0xbcb09090	-0.021553308
190	0xbc1c30c9	-0.009533116
191	0xbd413d69	-0.047177706
192	0x3f2e46f7	0.68077034
193	0x3e81bf23	0.25341138
194	0xbe149896	-0.14511332
195	0x3c21b8fb	0.009870763
196	0xbd1874df	-0.037220832
197	0xbcd55daf	-0.026045648
198	0xbd98550f	-0.07438099
199	0xbdc511ac	-0.09622511
200	0xbd6b2a56	-0.05741342
201	0x3e130cce	0.14360353
202	0x3dade087	0.08490091
203	0xbe9ea7f9	-0.30987528
204	0xbe6c2212	-0.23059872
205	0xbd1b4748	-0.037909776
206	0x3ec9aa7c	0.39387882
207	0xbcef1260	-0.029183567
208	0x3c8fabc3	0.017537957
209	0x3dc67325	0.09689931
210	0x3e9f3131	0.31092218
211	0xbeb0a51e	-0.34500974
212	0xbea0028d	-0.31251946
213	0x3d403406	0.046924613
214	0x3d864feb	0.06558212
215	0x3c97fac7	0.018552197
216	0x3e1b3b6b	0.15159385
217	0x3cc267e4	0.02373118
218	0xbd97db1d	-0.074148394
219	0x3dab9419	0.08377857
220	0xbddc111d	-0.107454516
221	0xbdef4a9f	-0.11684155
222	0xbc676996	-0.014124295
223	0x3d306a56	0.04307016
224	0xbdb1d5ae	-0.08683334
225	0x3e730560	0.23732519
226	0x3e84bec9	0.25926808
227	0x3e50a08c	0.20373744
228	0x3e31571c	0.17318386
229	0x3d9f68b6	0.07783644
230	0xbe9db98f	-0.30805632
231	0x3c58acf7	0.013224832
232	0xbdadc5e5	-0.08485011
233	0x3d51396a	0.051080145
234	0xbd79ee6a	-0.061018385
235	0x3d4bcb72	0.049754567
236	0x3dd6478b	0.104628645
237	0x3d02c1db	0.031923156
238	0x3ceb68e6	0.028736543
239	0x3da7f02b	0.08200105
240	0xbdb3d828	-0.08781463
241	0xbcdad83a	-0.026714433
242	0x3d4ad5e1	0.049520377
243	0x3bc21215	0.0059225657
244	0xbb903197	-0.004400443
245	0x3dbda0d1	0.09259189
246	0xbcc7f45a	-0.024408508
247	0x3c612956	0.013742765
248	0xbde9b321	-0.11411119
249	0x3e14f261	0.14545585
250	0xbcaf15cc	-0.021372698
251	0x3da1b4fb	0.078958474
252	0xbd826674	-0.06367198
253	0x3ccff53b	0.02538549
254	0x3c4dfb61	0.01257214
255	0xbcecc28e	-0.028901365

lstm.weight_hh_l0 f4 [256, 64]
0	0x3d3d5046	0.046219133
1	0xbd54144b	-0.051777165
2	0x3e0a8e66	0.13530883
3	0xbd28d069	-0.04121438
4	0xbd3f3200	-0.046678543
5	0x3de78f7c	0.11306664
6	0xbd03c410	-0.0321694
7	0x3c163a81	0.009169222
8	0x3bf74c50	0.007546939
9	0xbd7bb4df	-0.06145179
10	0xbdb2e3e0	-0.0873487
11	0xbd52f21e	-0.051500432
12	0xbb9089bd	-0.004410951
13	0xbdcd07f2	-0.10011281
14	0x3bb1b450	0.0054231063
15	0xbe13b75d	-0.14425416
16	0x3cff3608	0.031153694
17	0xbd997bbf	-0.07494306
18	0x3dd7d297	0.10538214
19	0x3d95de0d	0.073177435
20	0x3e009b10	0.12559152
21	0xbdaeae2b	-0.08529314
22	0x3db17ba3	0.0866616
23	0xbdfd5746	-0.12370162
24	0x3e03fcd9	0.12889422
25	0xbe067790	-0.13131547
26	0x3d3cbe25	0.046079773
27	0x3dbcd519	0.09220333
28	0x3e18ab8d	0.14909191
29	0x3d991f43	0.07476666
30	0xbaddb3c9	-0.0016914542
31	0x3d696eca	0.056990422
32	0xbdfdcd21	-0.12392641
33	0x3dff85da	0.12476702
34	0x3ce6bded	0.028166736
35	0xbe061bf5	-0.13096602
36	0x3da3e534	0.080027014
37	0x3e382ec9	0.17986597
38	0xbcc82fcb	-0.024436852
39	0xbd819837	-0.06327861
40	0xbce1130f	-0.027474908
41	0xbc2236a0	-0.009900719
42	0xbd824081	-0.063599594
43	0xbd415bed	-0.047206808
44	0x3d2f3546	0.042775415
45	0xbd6b963e	-0.05751633
46	0x3a1ccf71	0.0005981839
47	0x3ab2c2a1	0.0013638326
48	0x3df05fb3	0.11737003
49	0xbdc2647d	-0.09491823
50	0x3df99f9f	0.121886484
51	0x3ca2b6d5	0.019862572
52	0x3d48e2a5	0.04904427
53	0x3d2df399	0.04246864
54	0x3d94cf85	0.07266144
55	0xbd97e5e9	-0.07416899
56	0xbd3b6892	-0.045754023
57	0x3ac164da	0.0014754788
58	0xbd8918b5	-0.066941656
59	0x3cd6adca	0.026205916
60	0xbd891ea6	-0.06695299
61	0xbbabfcdb	-0.0052486486
62	0x3d8ef611	0.06980527
63	0x3a9e4fc8	0.001207822
64	0x3cf46b6d	0.02983638
65	0xbd599760	-0.053122878
66	0xbd044e2f	-0.032301124
67	0xbc956b81	-0.018239738
68	0xbe05cfad	-0.13067503
69	0x3d5821b4	0.052766517
70	0x3e1fe82a	0.15615907
71	0x3d5d58c0	0.054039717
72	0xbcf47e8a	-0.029845495
73	0xbd52588c	-0.051353976
74	0x3c0a8059	0.008453452
75	0x3de4f61c	0.11179754
76	0x3d4780e6	0.04870691
77	0x3d77a509	0.060460124
78	0xbd9ad3a7	-0.07559901
79	0x3e23cc46	0.15995893
80	0x3d9c6a27	0.076374345
81	0xbe176e7b	-0.14788239
82	0x3df63a98	0.120228946
83	0xbd3881f1	-0.045045797
84	0x3da8583b	0.082199536
85	0xbd5e916e	-0.05433791
86	0xbd8439e6	-0.06456356
87	0x3df4bb07	0.11949735
88	0x3bda4fb7	0.006662335
89	0x3d8d7ea6	0.06908922
90	0x3db3bc5a	0.087761596
91	0x3e2e9cc6	0.17051992
92	0xbbca113d	-0.0061666057
93	0xbd521e3d	-0.05129837
94	0xbdb91c85	-0.09038643
95	0xbd2f5fde	-0.042816035
96	0xbd6c26f9	-0.057654355
97	0xbd9a7405	-0.0754166
98	0xbd0db5ab	-0.03459708
99	0xbc2ec2b2	-0.010666536
100	0xbe015ca6	-0.12632999
101	0xbd13df00	-0.03610134
102	0x3dac81dd	0.08423207
103	0xbdad6cfe	-0.08468054
104	0xbd4b12a3	-0.04957832
105	0x3e20924e	0.15680811
106	0xbdfc9b0b	-0.123342596
107	0x3d09a53c	0.033604845
108	0xba88e7a8	-0.0010445016
109	0x3db08a0f	0.086200826
110	0xbcded1ee	-0.027199712
111	0x3de58ca1	0.112084635
112	0x3c3f164f	0.011663034
113	0x3cb5b324	0.022180147
114	0xbd8069de	-0.062701926
115	0xbbe9b024	-0.0071315933
116	0x3d98ddfc	0.07464215
117	0x3d0ccddb	0.034376007
118	0x3dcf8e8f	0.10134613
119	0x3dd724cc	0.10505065
120	0xbd181b16	-0.037135206
121	0xbab2c191	-0.001363801
122	0xbddd70c0	-0.10812521
123	0xbdbd82b3	-0.092534445
124	0x3e03e40e	0.12879965
125	0x3df4d902	0.119554535
126	0x3d63d074	0.05561872
127	0xbd3293d6	-0.04359802
128	0xbc50af05	-0.01273704
129	0x3d9d2719	0.07673473
130	0x3d8b32f1	0.06796826
131	0xbd5d33d5	-0.05400451
132	0xbd034650	-0.032049477
133	0x3d021f7b	0.031768303
134	0x3e115e96	0.14196238
135	0xbd231b9b	-0.03982125
136	0xbd5d5c9b	-0.054043394
137	0xbddc7232	-0.107639685
138	0x3d9ccf3b	0.076567136
139	0x3c570ea5	0.01312605
140	0xbd4086b7	-0.047003474
141	0xb885a8fd	-6.373411e-05
142	0xbe15e9e9	-0.14640011
143	0xbd8c46ca	-0.068494394
144	0x3cd1511a	0.025551368
145	0xbe088df1	-0.13335396
146	0x3e0d5cb3	0.13804893
147	0xbe26b354	-0.16279346
148	0x3d2dd18f	0.04243618
149	0xbc62d22a	-0.013844052
150	0x3d79f771	0.061026994
151	0x3c0adc34	0.008475352
152	0xbb9fdba1	-0.0048784767
153	0x3bf38982	0.0074321637
154	0x3d54e59c	0.051976785
155	0x3e03eeab	0.12884013
156	0xbdaa05e2	-0.08301903
157	0xbba4d4a9	-0.005030234
158	0x3d5bc288	0.053652316
159	0xbdf14430	-0.11780584
160	0x3d3d4693	0.046209883
161	0x3c9fc916	0.019505065
162	0x3d3ee639	0.046606276
163	0xbcd85bc1	-0.02641094
164	0xbdef8ffc	-0.11697385
165	0xbe01d2a1	-0.12678005
166	0xbd09fa46	-0.033685945
167	0xbd6b7367	-0.057483103
168	0x3d1d67d2	0.03842909
169	0x3e0b6ada	0.1361498
170	0x3d9551a1	0.0729096
171	0x3d10fc7c	0.035397038
172	0x3d1cc553	0.03827412
173	0xbe00435f	-0.125257
174	0x3baeef40	0.0053385794
175	0x3e26956f	0.16267942
176	0xbe282615	-0.16420777
177	0xbc576610	-0.013146892
178	0xbdd22cfd	-0.10262487
179	0xbe03abc0	-0.12858486
180	0xbd96c050	-0.073608994
181	0x3e02c6b6	0.12771115
182	0x3dbeec64	0.09322432
183	0x3dd4d5e1	0.10392357
184	0xbd38c105	-0.045105953
185	0xbd8455ce	-0.064616784
186	0xbe2a5378	-0.16633403
187	0xbc709110	-0.014683023
188	0x3d3ac79c	0.04560052
189	0xbc1be9cc	-0.009516191
190	0x3e2eb368	0.17060626
191	0x3d9df2d5	0.07712332
192	0x3d83d7f5	0.06437675
193	0x3dd9da45	0.10637335
194	0xbd79130e	-0.060809188
195	0xbbbf2367	-0.0058330777
196	0xbda7ab4c	-0.08186969
197	0xbcebfc46	-0.028806817
198	0x3df620bc	0.12017962
199	0xbd4a8b7c	-0.04944943
200	0xbdb19451	-0.08670867
201	0x3c3874b2	0.011258291
202	0x3d23bfc6	0.03997781
203	0xbc91bcbb	-0.017790189
204	0xbdd77567	-0.105204396
205	0x3d004940	0.031319857
206	0x3db59d6e	0.08867918
207	0x3dc1aa43	0.09456303
208	0xbdb714cf	-0.08939516
209	0x3d206f7a	0.039168812
210	0xbddd20c9	-0.10797269
211	0xbdb7d2a7	-0.089757256
212	0xbe11f576	-0.14253792
213	0x3d8d7084	0.06906226
214	0xbc3eeeb9	-0.011653596
215	0x3e2d4c2b	0.16923587
216	0xbc600059	-0.013671958
217	0x3cf3b78a	0.029750604
218	0xbd52bcdc	-0.05144964
219	0x3df7ee7c	0.12106034
220	0x3df3cc80	0.1190424
221	0x3d6898da	0.056786396
222	0xbde270c2	-0.11056663
223	0xbd3441a9	-0.04400793
224	0xbd3f20f8	-0.0466623
225	0xbe182706	-0.14858636
226	0x3dbc33a1	0.09189535
227	0xbdbed6d2	-0.093183175
228	0x3db5d7b7	0.08879035
229	0x3d88ff06	0.06689267
230	0xbe0b6392	-0.13612202
231	0xbdc49a95	-0.09599797
232	0x3bd3d736	0.006464864
233	0x3e023b3d	0.1271791
234	0xbd20cfca	-0.039260663
235	0xbd9dc1f0	-0.07703006
236	0xbe21ada9	-0.15788902
237	0xbe366f0a	-0.17815796
238	0xbb948fdb	-0.0045337505
239	0xbd619d4d	-0.055081654
240	0x3d5b21af	0.05349892
241	0xbd553083	-0.052048218
242	0x3d694953	0.056954693
243	0x3d50cec5	0.05097844
244	0x3c5bbf44	0.0134123005
245	0x3bf6fa47	0.0075371596
246	0x3dca72e3	0.09885194
247	0xbdfd4724	-0.123670846
248	0x3e02652c	0.12733907
249	0xbd025e05	-0.031827945
250	0x3dd50d36	0.104029104
251	0x3db13d75	0.086543
252	0xbddc00c3	-0.10742333
253	0x3de42e66	0.11141662
254	0xbdfcf262	-0.12350918
255	0x3ddca2d6	0.10773246

lstm.bias_ih_l0 f4 [256]
0	0xbd031623	-0.032003533
1	0xbd74979a	-0.05971489
2	0xbd922e01	-0.07137681
3	0x3db5250d	0.088449575
4	0xbd3d14c8	-0.046162397
5	0xbd7baa87	-0.061441924
6	0xbbaf2270	-0.0053446814
7	0x3e2f1083	0.17096142
8	0x3d9f5474	0.0777978
9	0x3d065ced	0.032803465
10	0x3c1498be	0.00906962
11	0xbc8903b1	-0.016725393
12	0x3d13a3a1	0.03604472
13	0x3e0ab88e	0.13546965
14	0x3d1dbd93	0.03851087
15	0x3e087574	0.13326055
16	0xbc7a0a21	-0.015261204
17	0xbd64536a	-0.055743612
18	0xbc144b27	-0.009051121
19	0xbdb2edb2	-0.08736743
20	0xbd00ccac	-0.03144519
21	0xbdcfeac2	-0.101521984
22	0x3e038a90	0.12845826
23	0x3be6825e	0.007034584
24	0xbd6ed16c	-0.05830519
25	0x3cb13c63	0.02163524
26	0x3c8e4908	0.017368808
27	0x3d089f0b	0.0333548
28	0x3d2564aa	0.040379204
29	0xbcca04d0	-0.024660498
30	0x3cb2a209	0.02180578
31	0xbd85ba92	-0.06529726
32	0x3dca3eb3	0.0987524
33	0xbc9c9b34	-0.019116975
34	0xbd8aebef	-0.06783282
35	0x3e20828b	0.15674798
36	0x3c0a899c	0.00845566
37	0xbd111436	-0.035419665
38	0xbd047cb4	-0.03234549
39	0xbd79b268	-0.060961157
40	0x3d39d536	0.04536935
41	0x3d707b38	0.05871126
42	0x3c91fbda	0.017820287
43	0x3d95dd25	0.073175706
44	0xbd2d552d	-0.042317558
45	0xbc915790	-0.017741948
46	0x3cc40426	0.02392776
47	0xbd89e8a5	-0.067338265
48	0x3e08e68c	0.13369197
49	0x3d9d4387	0.076788954
50	0x3e0cd116	0.13751635
51	0xbb08d90e	-0.0020881328
52	0xbcde6906	-0.027149688
53	0x3dd9c0a9	0.1063245
54	0x3e3f519d	0.18683477
55	0x3ddc396f	0.10753142
56	0x3dc643b6	0.096808836
57	0x3d5d5c85	0.05404331
58	0x3e2e2246	0.17005262
59	0xbdb0c02a	-0.086304024
60	0x3d710b9e	0.05884897
61	0xbd64ed14	-0.055890158
62	0x3d439427	0.04774871
63	0xbd10cc4d	-0.035351086
64	0xbdf25b38	-0.11833805
65	0xbc842a53	-0.016133463
66	0x3dadb34e	0.08481465
67	0xbdac68e5	-0.084184445
68	0x3d7c7138	0.06163141
69	0x3e05b602	0.13057712
70	0x3d26d803	0.04073335
71	0x3ca9e3c9	0.0207385
72	0x3ce7bfb1	0.028289648
73	0xbd6c8b6b	-0.057750147
74	0x3e0c202a	0.13684145
75	0xbd9617ba	-0.07328744
76	0x3c9c6fe8	0.01909633
77	0xbd528d2e	-0.05140417
78	0xbd945a30	-0.072437644
79	0xbbc903a9	-0.0061344695
80	0xbd37c1e9	-0.04486266
81	0x3defd815	0.11711136
82	0x3cc38808	0.023868576
83	0x3d83ce48	0.064358294
84	0x3e278ac1	0.16361524
85	0x3c27bc5f	0.010237782
86	0xbcb67cc9	-0.0222763
87	0xbd3b62f2	-0.04574866
88	0xbd9f73ff	-0.077857964
89	0x3d0d3aea	0.034480013
90	0xbcca7a3e	-0.024716493
91	0x3b45b53a	0.0030167834
92	0x3bfdf047	0.0077495906
93	0x3d1a5755	0.037680943
94	0x3d9a1145	0.07522825
95	0x3da6c3cd	0.08142815
96	0x3d8acd85	0.06777481
97	0xbc832f31	-0.016013714
98	0x3e1af46c	0.15132302
99	0x3e159b85	0.14610107
100	0xbdb22d5e	-0.08700059
101	0x3d193164	0.03740062
102	0x3d6ebe28	0.058286816
103	0xbd793677	-0.060842957
104	0xbdc64633	-0.09681358
105	0x3dee563a	0.1163754
106	0xbc1b655c	-0.009484615
107	0xbd061627	-0.03273597
108	0xbb5c09d9	-0.0033575206
109	0x3dc3e4c8	0.09565121
110	0x3d5690bd	0.052384127
111	0xbd138067	-0.036011126
112	0x3d4502d4	0.0480984
113	0x3defc8fb	0.11708256
114	0x3db49c78	0.088189065
115	0x3d36d77d	0.0446391
116	0xbd25fcf8	-0.040524453
117	0xbb1a90e2	-0.0023584892
118	0x3dff55c6	0.12467532
119	0xbde469b3	-0.11152973
120	0x3d7b3c78	0.061336964
121	0x3dc90268	0.09814912
122	0x3dcd750e	0.10032092
123	0x3d091d47	0.033475187
124	0xbc9837ef	-0.018581359
125	0xbd8237c6	-0.06358294
126	0xbd41678d	-0.047217894
127	0x3e011bc3	0.12608247
128	0xbdaebe94	-0.08532444
129	0x3e219029	0.15777649
130	0xbce5bb01	-0.028043272
131	0x3c97a7d1	0.018512638
132	0xbb387106	-0.002814354
133	0x3e0d4359	0.13795222
134	0xbc703b19	-0.0146625275
135	0x3e268ef6	0.16265473
136	0xbd4d5472	-0.05012936
137	0xbcef208f	-0.02919033
138	0xbe1caab6	-0.15299496
139	0xbd5694ab	-0.052387875
140	0xbc9a84da	-0.018862177
141	0xbdf11f8d	-0.11773596
142	0xbdf0e550	-0.11762488
143	0xbcbdad66	-0.023153972
144	0xbca2369a	-0.019801427
145	0xbdbd7fc5	-0.09252886
146	0x3c43dc2d	0.0119543495
147	0xbb1dbd38	-0.0024069082
148	0xbd015169	-0.03157178
149	0x3d750081	0.059814934
150	0xbdb9e7f7	-0.09077447
151	0xbda46a99	-0.080281444
152	0x3d845294	0.06461063
153	0x3d5dd8f5	0.054161984
154	0x3cfcadcb	0.03084459
155	0xbd5ca721	-0.053870324
156	0xbdabc932	-0.08387984
157	0x3bef614e	0.007305301
158	0xbe15b280	-0.14618874
159	0x3d25281c	0.040321454
160	0x3e2b62de	0.16736934
161	0xbbb65f99	-0.0055655953
162	0xbd997020	-0.07492089
163	0x3e2364f9	0.15956487
164	0xbc919fdc	-0.017776422
165	0xbd521007	-0.051284816
166	0x3cd1b378	0.025598273
167	0xbdc65fda	-0.09686251
168	0x3e246325	0.16053446
169	0x3d96b0c0	0.07357931
170	0x3d71410a	0.058899917
171	0xbdb6cbd7	-0.08925598
172	0x3d7c8709	0.061652217
173	0xbd95f8cb	-0.07322844
174	0xbe206915	-0.15665086
175	0x3e00bf1d	0.12572904
176	0xbdebb51a	-0.11509152
177	0xbdfb843a	-0.122810796
178	0xbdea6464	-0.11444929
179	0xbd8752ab	-0.066075645
180	0x3d46d4fb	0.048542958
181	0x3e0a4228	0.13501799
182	0x3ceb90f8	0.02875565
183	0x3ce7831f	0.028260766
184	0x3e20bf27	0.15697919
185	0xbd075cd3	-0.03304751
186	0xbd73a744	-0.05948569
187	0xbe062232	-0.13098982
188	0x3e0229c2	0.12711242
189	0x3db7f99b	0.08983155
190	0xbcb93ed0	-0.02261296
191	0x3d1524fb	0.03641222
192	0xbd6aaec2	-0.05729557
193	0xbd2a214b	-0.041535657
194	0xbd8a4d18	-0.06752986
195	0x3cf8fe48	0.030394688
196	0x3da67913	0.08128562
197	0x3beabbbe	0.007163494
198	0x3e055c1b	0.13023417
199	0x3e429520	0.19002199
200	0x3db4c284	0.088261634
201	0xbe08221a	-0.13294259
202	0x3e1b2dee	0.1515424
203	0x3e1f1a1b	0.15537302
204	0xbd9deaa2	-0.07710768
205	0x391d23b4	0.00014985987
206	0xbd3d7be2	-0.046260722
207	0x3e37a90b	0.17935579
208	0xbd05ba77	-0.03264853
209	0x3dd4d4cf	0.103921525
210	0x3e05463d	0.13015075
211	0xbdbf5aff	-0.09343528
212	0xbd61293e	-0.054970972
213	0xbcfd9c69	-0.030958371
214	0xbda86f6b	-0.08224376
215	0x3e3a328d	0.18183346
216	0xbd9c0d7b	-0.07619759
217	0xbc6c36ce	-0.014417363
218	0x3e0475b0	0.12935519
219	0xbbc409fb	-0.005982635
220	0x3ce5f3af	0.028070299
221	0xbc0bc58c	-0.008530986
222	0x3dcf71c1	0.10129119
223	0xbd4ce54d	-0.050023366
224	0xbc216e05	-0.009852891
225	0x3ce4e9f4	0.027943589
226	0x3e056427	0.13026486
227	0x3b4a2d05	0.0030849588
228	0x3d4a8f8b	0.0494533
229	0x3dae4e01	0.08510972
230	0x3e368f7a	0.1782817
231	0xbd89cf4d	-0.067289926
232	0x39397de5	0.00017689874
233	0x3d0c8f02	0.03431607
234	0x3caadb71	0.020856591
235	0x3e3b2f9d	0.18279882
236	0xbb26b990	-0.0025440194
237	0x3e2561ff	0.16150664
238	0x3e7c74a8	0.24653876
239	0x3d420511	0.047368113
240	0x3e182411	0.14857508
241	0xbc449054	-0.011997301
242	0x3b9dc7be	0.004815071
243	0x3d8c3b83	0.068472885
244	0x3dc02ddf	0.09383749
245	0xbc2997bd	-0.010351119
246	0x3da0bfcf	0.078490846
247	0x3bbb31bc	0.005712716
248	0x3dfc9c52	0.12334503
249	0x3e386f03	0.18011098
250	0x3dc3a1b6	0.09552328
251	0x3d85ce14	0.06533447
252	0x3cef6ba9	0.029226141
253	0xbd2e5b45	-0.04256751
254	0x3dd51997	0.104052715
255	0x3dad7c9d	0.08471034

lstm.bias_hh_l0 f4 [256]
0	0x3d83951c	0.06424925
1	0xbd76d7d1	-0.060264412
2	0xbd21d86e	-0.039513044
3	0x3d7a1d2e	0.061062984
4	0x3d49cc3c	0.04926704
5	0x3d59f388	0.053210765
6	0x3d38c608	0.045110732
7	0xbd41abc4	-0.04728295
8	0x3de1b0fd	0.11020086
9	0xbdf2e30a	-0.118597105
10	0x3da6ffd0	0.08154261
11	0x3e362fdb	0.17791693
12	0x3e06dba3	0.13169722
13	0xbcaad649	-0.020854132
14	0x3dfdd7e2	0.12394692
15	0x3c4a7ac3	0.01235837
16	0x3de16a20	0.1100657
17	0x3e1072fd	0.14106365
18	0x3e22e8e3	0.15909152
19	0xbd32cf7b	-0.0436549
20	0x3dd1eb6e	0.10249983
21	0xbdfe77fa	-0.124252275
22	0xbcc96aa3	-0.024586981
23	0x3d9b5796	0.07585065
24	0x3d84ad31	0.06478346
25	0x3d858853	0.065201424
26	0x3d488f3f	0.048964735
27	0x3dc50133	0.09619369
28	0x3d125e88	0.035734683
29	0xbc556899	-0.013025426
30	0x3c451a5f	0.012030213
31	0x3b31942a	0.002709637
32	0xbd829475	-0.06375972
33	0xbdcb8191	-0.09936822
34	0x3cf7b405	0.030237207
35	0x3e0bfc6a	0.13670507
36	0xbe0ae41e	-0.13563582
37	0x3d988acc	0.074483484
38	0x3d22971a	0.039694883
39	0xbdbaa697	-0.09113806
40	0x3d87dfc2	0.06634475
41	0x3cf5679b	0.02995663
42	0x3d189fee	0.037261896
43	0x3dbb938d	0.091590025
44	0xbdbd04be	-0.0922942
45	0xbd868e2d	-0.06570087
46	0xbd676485	-0.056492347
47	0xbd47a5a7	-0.048741963
48	0x3cffc971	0.031223984
49	0xbd821c7b	-0.063530885
50	0x3cae9259	0.021310018
51	0x3d9d987a	0.07695098
52	0x3d889712	0.066694394
53	0x3d277e1a	0.040891744
54	0xbd106335	-0.03525086
55	0x3da89e41	0.082333095
56	0x3dc078c4	0.09398034
57	0xbcbf0942	-0.023319844
58	0xbd8a22d3	-0.067449234
59	0xbe0c6c5f	-0.13713215
60	0x3ca9e62b	0.020739635
61	0x3da22cad	0.079186775
62	0x3d203985	0.039117355
63	0x3bc5f83b	0.0060415543
64	0x3d804766	0.06263618
65	0x3e02811c	0.12744564
66	0x3cbb0494	0.022829331
67	0x3db53ca1	0.08849455
68	0x3c5c4584	0.013444308
69	0x3e171dae	0.14757416
70	0x3d148063	0.03625525
71	0xbd5b2871	-0.053505365
72	0x3c960241	0.018311622
73	0x3c28c1f7	0.010300151
74	0x3e1133e7	0.14179955
75	0xbd72e316	-0.059298597
76	0x3db08eb3	0.08620968
77	0x3de8a66c	0.113598675
78	0x3d98da46	0.07463507
79	0x3d916b64	0.07100561
80	0xbc32e359	-0.010918462
81	0x3d71661c	0.05893527
82	0x3e24448a	0.1604177
83	0x3d90ecde	0.07076429
84	0x3c042636	0.008065751
85	0x3da8d9b2	0.08244647
86	0x3d441dee	0.047880106
87	0xbd8c4d3e	-0.0685067
88	0xbda5a413	-0.08087935
89	0x3e0f8637	0.14016043
90	0xbdbdcd51	-0.092676766
91	0xbd5dfa22	-0.054193623
92	0xbe114484	-0.14186293
93	0x3d02bc49	0.031917844
94	0x3db3c736	0.08778231
95	0x3c996235	0.018723587
96	0xbc394757	-0.011308513
97	0xbdbf4e5e	-0.09341119
98	0x3d04a5ea	0.03238479
99	0x3c783a07	0.015150554
100	0xbc7185c2	-0.014741363
101	0x3c051598	0.008122824
102	0x3e18a6e8	0.1490742
103	0xbcf4afc6	-0.029868972
104	0xbdab739f	-0.08371662
105	0x3e02aa6b	0.12760322
106	0xbd856c04	-0.06514743
107	0x3dc1e47e	0.094674096
108	0x3e2eaa35	0.17057116
109	0xbc970997	-0.01843719
110	0x3e250dee	0.16118595
111	0x3d432f95	0.0476528
112	0x3d345fc8	0.044036657
113	0x3dfe8fc7	0.12429767
114	0xbd00fefb	-0.03149317
115	0x3d2a8d7d	0.04163884
116	0xbdd70668	-0.10499269
117	0x3ded69ba	0.11592431
118	0x3e0d1055	0.13775761
119	0xbdb38471	-0.087654956
120	0x3e2deb10	0.169842
121	0x3d7a5891	0.06111962
122	0x3d09a8eb	0.03360836
123	0xbdb9c5b9	-0.09070916
124	0x3de28604	0.11060718
125	0x3aa92439	0.0012904472
126	0xbd1a8d60	-0.037732482
127	0x3d7926ce	0.060828023
128	0x3dad89dc	0.0847356
129	0x3e17ce9b	0.14824907
130	0xbdc07896	-0.09398
131	0x3d890b0c	0.0669156
132	0xbe251e63	-0.16124873
133	0xbd8c6860	-0.068558455
134	0x3db9524e	0.090489015
135	0x3dd3847c	0.10328004
136	0x3d9c480a	0.07630928
137	0xbd60c811	-0.0548783
138	0xbcf2a298	-0.029618546
139	0x3dc6b9ed	0.09703431
140	0x3d916e45	0.0710111
141	0xbde0716d	-0.10959134
142	0xbe1f8396	-0.1557754
143	0x3dae8635	0.08521692
144	0x3d8ac4e8	0.06775838
145	0xbe1cdc23	-0.1531835
146	0x3db3a99a	0.08772583
147	0xbdafff6d	-0.085936405
148	0xbdb8d8d3	-0.09025731
149	0x3d61c899	0.055122945
150	0xbd34291a	-0.04398451
151	0x3bfec502	0.00777495
152	0x3db11d76	0.08648197
153	0x3e083c49	0.13304247
154	0x3d9f54e1	0.07779861
155	0x3e1c3281	0.1525364
156	0x3ccd6cfc	0.025076382
157	0xbd2e561f	-0.0425626
158	0x3d435f0f	0.047698077
159	0xbc152fbe	-0.009105621
160	0xbd131bd2	-0.035915203
161	0xbc7854dc	-0.015156951
162	0x3cc1af18	0.023643062
163	0x3e026c6a	0.12736669
164	0x3d3ebe5a	0.046568252
165	0x3d835394	0.06412426
166	0xbd90a6dc	-0.07063076
167	0xbe0db935	-0.13840182
168	0x3db918c3	0.09037926
169	0x3d0c3cef	0.0342378
170	0xbde79db4	-0.11309376
171	0xbdc6c457	-0.097054176
172	0x3d93ef37	0.07223361
173	0x3c3e4d4f	0.0116151115
174	0xbdd179b7	-0.102282934
175	0xbc55b704	-0.013044123
176	0xbe22a1f1	-0.15882088
177	0xbc7ebbc2	-0.015547695
178	0xbca54e5c	-0.020178966
179	0xbe0ab045	-0.13543804
180	0xbc9a20e1	-0.018814506
181	0x3d44c418	0.048038572
182	0x3cccfc58	0.02502267
183	0x3d9cbb74	0.07652941
184	0x3e2a5b36	0.16636357
185	0x3d8cef3f	0.0688157
186	0xbd98a25a	-0.07452841
187	0xbde760f3	-0.112977885
188	0x3d924d61	0.07143665
189	0x3e1644dd	0.14674707
190	0x3df3ab63	0.11897924
191	0x3d81c5f2	0.06336583
192	0xbcce38c1	-0.025173547
193	0x3de610c9	0.1123367
194	0xbbca6576	-0.006176646
195	0x3d62fc25	0.055416245
196	0x3e0d66e5	0.13808782
197	0x3e3f015e	0.18652865
198	0x3bff91c1	0.0077993576
199	0x3e294d24	0.16533333
200	0x3c04f7f9	0.008115762
201	0xbdcc3473	-0.099709414
202	0x3e44fe04	0.19237524
203	0x3e34e2d5	0.17664655
204	0x3dd54bc0	0.10414839
205	0x3dcaf026	0.09909086
206	0x3b00b214	0.0019637393
207	0xbb204956	-0.0024457774
208	0x3e08ad9e	0.1334748
209	0x3d9f2a63	0.077717565
210	0x3de45cff	0.1115055
211	0x3d812dbd	0.06307552
212	0xbdac9e91	-0.08428682
213	0xbc827b0b	-0.015927812
214	0x3d80cffc	0.0628967
215	0x3d8ad6c8	0.067792475
216	0xbaa2fcd0	-0.0012434963
217	0x3e485675	0.1956423
218	0x3a6cd23b	0.00090340123
219	0x3dadba5a	0.08482809
220	0x3cecc0cb	0.028900525
221	0xbdc2a818	-0.095047176
222	0xbcd31e1a	-0.02577119
223	0xbccb8867	-0.024845315
224	0xbb8c5cf0	-0.00428354
225	0x3e51dbe2	0.20494035
226	0xbb4055c1	-0.0029347988
227	0x3ddcc6fa	0.10780139
228	0xbdebccee	-0.115136966
229	0x3e05dab6	0.13071713
230	0x3e5f3884	0.21798903
231	0x3d6cfb36	0.05785676
232	0xbda263d1	-0.07929195
233	0x3cf230f0	0.02956435
234	0x3cf8a81c	0.030353598
235	0x3e041eb2	0.12902334
236	0x3cd83f7b	0.026397457
237	0x3cfc8296	0.030823987
238	0x3e72493a	0.23660746
239	0x3e4e04e1	0.20119049
240	0x3d09b5fe	0.033620827
241	0x3de1b380	0.11020565
242	0x3dbd431a	0.09241314
243	0x3c912cc6	0.017721545
244	0x3dd44c0b	0.103660665
245	0x3d904d91	0.070460446
246	0x3e3f0952	0.18655899
247	0x3dfb187b	0.12260529
248	0x3e026fc6	0.1273795
249	0x3e30ae45	0.17253979
250	0x3d99c57b	0.075083695
251	0xbd1dfd7d	-0.038571823
252	0x3dbddb4c	0.09270343
253	0xbdb4234b	-0.08795794
254	0xbb50246c	-0.003175999
255	0x3e34e954	0.17667133

fc.0.weight f4 [64, 768]
0	0x3c70c758	0.014695965
1	0xbc5777f4	-0.013151158
2	0x3a599f00	0.0008301586
3	0x3d134b8c	0.03596072
4	0x3d105620	0.035238385
5	0xbcdc9374	-0.02692578
6	0xbbf640e0	-0.007515058
7	0xbc63bcaa	-0.0138999615
8	0x3d0da682	0.034582622
9	0x3cbe92c0	0.023263335
10	0xbc5631c0	-0.013073385
11	0xbc9ef4f9	-0.019403921
12	0xbcc2a259	-0.023759054
13	0xbceb5e9c	-0.028731637
14	0xbac94760	-0.0015356354
15	0x3cfd6320	0.030931056
16	0x3b7f7300	0.0038978457
17	0xbc061334	-0.008183289
18	0x3cbb45c0	0.022860408
19	0xbce7c678	-0.02829288
20	0x3cada57a	0.02119707
21	0x3c74d93c	0.014944371
22	0xbc9589a2	-0.018254105
23	0xbcbbe5e9	-0.022936778
24	0x3bea1200	0.007143259
25	0xbcaecd21	-0.021338047
26	0xbb2d83c0	-0.0026476234
27	0x3c478590	0.01217784
28	0x3ce5925c	0.028023891
29	0x3c8d5558	0.01725261
30	0xbc19f5b4	-0.009396959
31	0x3cbda8c2	0.023151759
32	0xbc50e22a	-0.012749234
33	0xbc086e22	-0.008327039
34	0xbc14061e	-0.009034662
35	0xbce36af9	-0.02776097
36	0x3cbc1cc6	0.022962939
37	0x3bf39d30	0.0074345097
38	0x3c9c2dc0	0.019064784
39	0xbcb29281	-0.021798374
40	0x3ca30818	0.01990132
41	0xbbc7b39c	-0.006094409
42	0x3cf26758	0.029590294
43	0x3c98c658	0.018649265
44	0x3be0fc98	0.006866049
45	0x3d02b976	0.03191515
46	0x3ab61ea0	0.0013894625
47	0xbb52b810	-0.0032153167
48	0xbcb39b46	-0.021924626
49	0xbcff312f	-0.031151382
50	0x3be71530	0.0070520863
51	0xbc1ce02e	-0.009574933
52	0x3ceee72c	0.029162966
53	0xbcec13ed	-0.028818095
54	0xbc0d4fd8	-0.008624993
55	0x3cd0fc70	0.025510997
56	0xbc7a63bc	-0.015282568
57	0xbd02d39c	-0.031940088
58	0x3c79c790	0.015245333
59	0x3cb2d518	0.021830127
60	0xbc6a935a	-0.014317358
61	0xbb8ab368	-0.0042328127
62	0x3cfd777c	0.030940764
63	0xbcb487bc	-0.02203738
64	0x3cfcd7c0	0.030864596
65	0x3c9e3a52	0.019314919
66	0x3b825420	0.0039773136
67	0x3ae499c0	0.0017440841
68	0xbcbc64cf	-0.022997288
69	0x3cf88778	0.030338034
70	0x3b22cdb0	0.0024841838
71	0x3c7bdbe0	0.0153722465
72	0xbb48fc10	-0.003066782
73	0x3b3c82e0	0.002876453
74	0x3b90ff88	0.004424993
75	0xbcf10a26	-0.029423784
76	0xbbb2ef1c	-0.005460633
77	0xbcbd3e3a	-0.023100961
78	0x3c9ae300	0.01890707
79	0x3cc2d658	0.023783848
80	0xbcf3ad40	-0.029745698
81	0xbd1294b2	-0.03578634
82	0x3b3346f0	0.0027355514
83	0xbc8cf0c6	-0.017204653
84	0xbc95fb8d	-0.018308425
85	0xbc507526	-0.012723243
86	0x3c65abc8	0.014018007
87	0xbc83e4c3	-0.016100293
88	0x3a54ec00	0.0008122325
89	0x3a4ead80	0.000788413
90	0x3c88d3a2	0.016702477
91	0xbcdb0437	-0.026735408
92	0xbb998f60	-0.004686281
93	0x3d0f57f0	0.034995973
94	0xbc870706	-0.016482841
95	0xbd0ecb2c	-0.03486173
96	0xbcde6a99	-0.02715044
97	0xbc9285a2	-0.017885987
98	0x3c65ab74	0.014017928
99	0x3c8e2330	0.017350763
100	0x3cb2d06c	0.021827899
101	0xbc1b1948	-0.009466477
102	0x3ca238c0	0.019802451
103	0xbcf5aee8	-0.029990628
104	0x3befc448	0.0073170997
105	0x3bc93bd8	0.006141167
106	0xbc965ce6	-0.018354844
107	0xbc8b06ad	-0.016970957
108	0x3b5f2190	0.0034047104
109	0x3b4bad80	0.0031078756
110	0xbbb6b420	-0.005575672
111	0xbca00f76	-0.019538622
112	0x3cfcd9a0	0.03086549
113	0xbba1f59c	-0.004942609
114	0x3cfc49c8	0.0307969
115	0x3d12dfea	0.035858072
116	0x3bb55f68	0.005535055
117	0xbb844400	-0.0040364265
118	0x3c7dbd8c	0.015487086
119	0xbcaf43cd	-0.021394635
120	0x3cf21d64	0.02955503
121	0xbc9516ec	-0.018199407
122	0x3c2e5404	0.010640148
123	0xbcf252bc	-0.029580466
124	0x3b039680	0.0020078719
125	0xbca7b1ac	-0.020470463
126	0xbce0d394	-0.027444638
127	0x3be561a8	0.007000167
128	0x3d04161c	0.032247648
129	0xbb567fe0	-0.0032730028
130	0xbd1311a3	-0.03590549
131	0x3cdcc7e4	0.026950784
132	0xbd08f22a	-0.03343407
133	0x3cbf809c	0.023376755
134	0x3d0aa1ec	0.033845827
135	0x3d085460	0.03328359
136	0x3c669be8	0.014075257
137	0xbcc35bde	-0.023847517
138	0xbc9c8e90	-0.019110948
139	0x3c27ea60	0.01024875
140	0xbb8fd7f0	-0.0043897554
141	0xbcf61f96	-0.030044358
142	0x3c219fec	0.0098647885
143	0x3cf19ecc	0.029494666
144	0x3c80e138	0.015732393
145	0xbc33af56	-0.010967096
146	0xbc4d1dc6	-0.012519306
147	0xbcd59ae6	-0.026074838
148	0xbce29ffd	-0.027664179
149	0xbb065070	-0.0020494722
150	0x3b17d1f0	0.0023165904
151	0xbc415480	-0.0117999315
152	0x3cb4ebb6	0.022085052
153	0xbcc4d826	-0.024028849
154	0x3c96b5f6	0.018397313
155	0x3c50f9a4	0.012754831
156	0x3bc90c28	0.0061354823
157	0xbc07e7de	-0.008295028
158	0xbb916d10	-0.00443805
159	0xbd0fa1eb	-0.035066526
160	0xbc950fe0	-0.018196046
161	0xbbe48a1c	-0.0069744717
162	0x3bd67c00	0.0065455437
163	0xbd05f2ef	-0.032702383
164	0x3c9d1218	0.019173667
165	0x3b5a0b30	0.0033270828
166	0x3cb3001a	0.021850634
167	0x3cafb718	0.02144961
168	0xbc40e230	-0.011772677
169	0xbcc845da	-0.02444737
170	0xbd0f8c35	-0.03504582
171	0x3c246f2c	0.010036271
172	0xbd01ff40	-0.031737566
173	0xbd021ade	-0.031763904
174	0x3cdd7ed4	0.027038015
175	0xbb91e678	-0.004452523
176	0xbc8543b8	-0.016267642
177	0xbb20d990	-0.002454374
178	0xbc104d04	-0.008807424
179	0x3cae8316	0.021302741
180	0x3c71b930	0.014753625
181	0xbb24ead0	-0.0025164373
182	0xbd109a6d	-0.035303522
183	0x3c5152c0	0.012776077
184	0x3b75c3d0	0.0037500747
185	0xbd09161d	-0.033468354
186	0xbaef9020	-0.0018277206
187	0x3bfc6d08	0.007703427
188	0x3d0b8eb0	0.034071624
189	0x3b0272c0	0.0019904822
190	0x3c3d3d70	0.011550292
191	0x3be5f208	0.0070173778
192	0xbccc2990	-0.024922162
193	0x3c476cec	0.012171965
194	0xbd02d843	-0.031944524
195	0xbce70dca	-0.028204817
196	0xbc84f786	-0.01623131
197	0x3cbd86c0	0.023135543
198	0x3c810916	0.015751403
199	0xbcde3452	-0.027124558
200	0xbcb5ad20	-0.022177279
201	0x3bd1a788	0.006398145
202	0xbd019f96	-0.031646334
203	0x3c8c3c28	0.017118528
204	0xbc765446	-0.015034741
205	0xbc11ab66	-0.008890962
206	0xbcdfb75c	-0.027309112
207	0xbcf995e6	-0.030466985
208	0xbd10a312	-0.035311766
209	0xbc3d53de	-0.01155564
210	0x3cd049c2	0.025425795
211	0xbc42d0ec	-0.011890631
212	0x3bf97508	0.007612828
213	0x3a91dfa0	0.0011129268
214	0x3b17d7d0	0.0023169406
215	0xbc834d8a	-0.016028184
216	0x3b4af120	0.0030966476
217	0xbc918b61	-0.017766656
218	0x3ccd6594	0.02507285
219	0xbc0dc0c6	-0.008651918
220	0x3d062712	0.032752104
221	0xbc260d62	-0.010135027
222	0x3a72c200	0.00092604756
223	0x3a9e56c0	0.0012080297
224	0xbcfdd480	-0.030985117
225	0xbcd865e0	-0.026415765
226	0xbd03c365	-0.032168765
227	0x3d0546fc	0.0325384
228	0xbd125d88	-0.03573373
229	0x3baed148	0.005335007
230	0xbd0cf93a	-0.03441737
231	0xbc430db0	-0.011905119
232	0x3c8176a8	0.01580365
233	0xbcab902c	-0.02094277
234	0x3cafd1e4	0.021462388
235	0x3b0770a0	0.0020666495
236	0x3b2fe3f0	0.0026838742
237	0x39aa4580	0.00032476708
238	0x3ce4a7c8	0.027912036
239	0x3d10074e	0.035163216
240	0xbcb53b92	-0.022123132
241	0x3c46a780	0.012124896
242	0x3c85127a	0.016244162
243	0xbd009452	-0.03139145
244	0x3bae0398	0.005310487
245	0x3c99bd6e	0.018767085
246	0x3c3f716c	0.011684757
247	0x3c098a28	0.008394755
248	0x3cc71bba	0.024305213
249	0x3be3e9e8	0.006955374
250	0x3c4e0444	0.012574259
251	0xbcddb0a8	-0.027061775
252	0x3c80ae3e	0.015708085
253	0xbcc69f52	-0.024245892
254	0x3bdad208	0.0066778697
255	0x3830e400	4.217401e-05

fc.0.bias f4 [64]
0	0xbcd2b796	-0.025722306
1	0xbb3b3bd0	-0.0028569587
2	0xbc1d8ed4	-0.009616572
3	0xbca2c185	-0.019867668
4	0xbcb2c2d0	-0.02182141
5	0xbd13bf9a	-0.036071397
6	0xbcacf4fc	-0.021112911
7	0x3c8998d4	0.016796507
8	0x3c9f7d64	0.01946897
9	0x3cc0a3b0	0.023515552
10	0xbc47af42	-0.012187781
11	0x3c9c90cc	0.019112013
12	0x3c25932c	0.010105889
13	0x3d02d50e	0.031941466
14	0x3d0fa280	0.03506708
15	0x3d037f0a	0.032103576
16	0xbc853b08	-0.0162635
17	0x3d123288	0.03569272
18	0xbc422df8	-0.01185178
19	0x3ceead74	0.029135443
20	0xbca89778	-0.020580038
21	0x3ac63b40	0.0015123859
22	0x3c9e9a9e	0.019360837
23	0x3cf78fac	0.030219875
24	0x3c440b34	0.011965562
25	0xbc8bf2ec	-0.017083608
26	0xbd0347f7	-0.032051053
27	0xbbc3c328	-0.005974192
28	0x3ce0f32c	0.027459703
29	0x3b95c028	0.004570026
30	0xbb8129e8	-0.003941763
31	0xbc91a0b0	-0.017776817
32	0x3cbdcfb8	0.023170337
33	0x3a7a2240	0.0009541847
34	0xbcb101c4	-0.021607287
35	0xbc37a554	-0.011208851
36	0xbcaada06	-0.020855915
37	0x3cbb52f0	0.022866696
38	0x3c9e1730	0.019298166
39	0x3cc69be0	0.024244249
40	0x3ccfec16	0.02538113
41	0x3d0394a0	0.03212416
42	0xbcf47025	-0.02983863
43	0x3b868038	0.0041046403
44	0x3cfc6df8	0.030814156
45	0x3bf65b18	0.0075181834
46	0x3cd68244	0.026185162
47	0x3bd227a8	0.006413419
48	0x3c8144c8	0.015779868
49	0xbc2c4a90	-0.010515824
50	0x3bd7c0e8	0.0065842755
51	0xba83c020	-0.0010051765
52	0x3ceaf384	0.02868057
53	0xbc7a2cd0	-0.015269473
54	0x3c8f9a12	0.017529521
55	0x3cac4942	0.021031026
56	0xbced1d2c	-0.028944574
57	0x3ce18d2c	0.027533136
58	0x3d0923b0	0.0334813
59	0xbcc77697	-0.02434854
60	0x3b3044e0	0.0026896521
61	0x3c0133e0	0.007885903
62	0xbc175a40	-0.009237826
63	0xbcb4b71f	-0.022059975

fc.3.weight f4 [1, 64]
0	0xbddcee48	-0.10787636
1	0xbc2ddf90	-0.0106123835
2	0x3cef2370	0.029191703
3	0xbdfa46f0	-0.122205615
4	0x3db7d012	0.08975233
5	0x3d6a8c20	0.05726254
6	0xbc769870	-0.015050992
7	0x3dc1f66c	0.09470829
8	0xbdf8e324	-0.12152699
9	0xbd45563c	-0.048177943
10	0x3d35850c	0.044316337
11	0xbdd996b0	-0.106244445
12	0xbd7f7670	-0.06236881
13	0xbd953576	-0.072855875
14	0xbdc123ca	-0.09430654
15	0x3b9066c0	0.00440678
16	0xbdac9bb2	-0.08428134
17	0x3ac46080	0.0014982373
18	0xbd8c4046	-0.06848197
19	0x3dcabd66	0.09899406
20	0x3db904ce	0.090341195
21	0x3cb5cb78	0.022191748
22	0xbdbcfc2a	-0.09227784
23	0xbda452e8	-0.080236256
24	0xbd6b44cc	-0.057438657
25	0xbd5176bc	-0.051138625
26	0xbdbb8e42	-0.09157993
27	0x3d852f80	0.065032005
28	0x3c6673d0	0.014065698
29	0x3caee4d0	0.02134934
30	0x3dc9f9c2	0.09862091
31	0xbc22dfd0	-0.009941056
32	0x3da18838	0.0788731
33	0xbd4002d0	-0.046877682
34	0xbdffc942	-0.12489559
35	0x3d8b4aea	0.06801398
36	0xbdbff20a	-0.09372337
37	0x3d877728	0.06614524
38	0xbdb88e8e	-0.09011565
39	0x3d297e0c	0.041379973
40	0xba794a00	-0.0009509623
41	0x3dea7e94	0.11449924
42	0xbb220b40	-0.0024725944
43	0xbd73f978	-0.059564084
44	0x3dcccc6c	0.09999928
45	0xbc86e158	-0.016464874
46	0xbce8c058	-0.02841203
47	0xbdfab4c4	-0.122415096
48	0x3d6a8080	0.057251453
49	0x3d8924ec	0.066964954
50	0xbd0bf32c	-0.034167454
51	0xbd00ec54	-0.03147538
52	0x3d85032c	0.064947456
53	0xbd86f494	-0.06589618
54	0x3ccc8840	0.024967313
55	0xbd35c824	-0.044380322
56	0x3da3119e	0.079623446
57	0x3cd43bc8	0.025907412
58	0x3d831b18	0.06401652
59	0xbd972a26	-0.07381086
60	0x3dca04f4	0.09864226
61	0x3dba15c0	0.0908618
62	0x3dfd4098	0.12365836
63	0xbcd492e0	-0.025948942
