models/structural_breaks_model.pt (torch, 277855 bytes, 11 tensors)

cnn.0.weight f4 [8, 1, 3, 3]
-0.27010432 0.14165267 -0.23856866 0.20552959 0.043734506 0.04755144 -0.2554758 -0.2769261
-0.23177527 0.022372639 0.01745309 0.20742233 -0.14364855 -0.35516626 -0.19402811 0.35423422
-0.03822591 0.09823926 0.08129724 0.23710896 -0.08473403 0.33051622 -0.012996226 -0.08510945
-0.06328196 -0.37364015 0.059285432 0.19210891 0.0012231128 0.15744682 -0.08579627 0.25382143
0.26184854 -0.14671718 -0.2507113 -0.21378355 0.2527367 0.017018808 0.18418022 0.2796983
-0.018809156 0.045004915 -0.00021503509 0.12229264 0.21508169 -0.28294697 -0.38832936 0.09193516
0.019972093 0.18519063 0.32827005 0.22319753 0.22361425 -0.25598824 0.018145863 0.24211472
0.29132825 0.3165811 -0.0749625 -0.15677279 -0.29356855 0.1472425 0.12725663 -0.02939846
0.22288518 0.3156188 0.042933386 0.183938 -0.02873248 -0.18917201 -0.24094039 -0.4041875
00000000: 1d4b 8abe 660d 113e 584b 74be 5976 523e
00000010: f422 333d 4cc5 423d b9cd 82be 42c9 8dbe
00000020: 7f56 6dbe d346 b73c c8f9 8e3c 8566 543e
00000030: 9b18 13be 5ad8 b5be 4eaf 46be 305e b53e
00000040: c692 1cbd aa31 c93d 2b7f a63d b1cc 723e
00000050: 0989 adbd 6c39 a93e 1fee 54bc dd4d aebd
00000060: f999 81bd c34d bfbe 48d5 723d 33b8 443e
00000070: db50 a03a bd39 213e f4b5 afbd e2f4 813e
00000080: 0311 863e 073d 16be 3b5d 80be 13ea 5abe
00000090: b466 813e 076b 8b3c bd99 3c3e 9e34 8f3e
000000a0: a915 9abc 1357 383d 0b7b 61b9 9074 fa3d
000000b0: 603e 5c3e 6dde 90be 1bd3 c6be 8048 bc3d
000000c0: 849c a33c 9da2 3d3e 0313 a83e e58d 643e
000000d0: 22fb 643e e410 83be a2a6 943c ecec 773e
000000e0: fa28 953e eb16 a23e f085 99bd 0c89 20be
000000f0: 9e4e 96be bdc6 163e 904f 023e 0ad5 f0bc
00000100: 033c 643e ca98 a13e ebda 2f3d 3e5a 3c3e
00000110: 6160 ebbc 4fb6 41be 14b9 76be aaf1 cebe

cnn.0.bias f4 [8]
-0.1335725 0.07405328 0.37068826 0.4684906 -0.24466105 0.13745235 0.30150333 -0.3518364
00000000: 3bc7 08be 3fa9 973d daca bd3e 00de ef3e
00000010: 6d88 7abe 4fc0 0c3e a55e 9a3e e723 b4be

cnn.3.weight f4 [16, 8, 3, 3]
0.092415065 0.17902248 0.076433115 -0.18314119 -0.25619093 -0.15526451 -0.07373226 0.024667945
-0.19321379 0.1308417 0.068755716 0.088715285 -0.12796481 0.011511334 0.17663842 0.12054094
-0.044998877 -0.0034100953 -0.31908628 -0.28527173 -0.11883649 0.15454122 0.16542345 0.23818955
0.2566005 0.24561147 0.14086571 -0.38876694 -0.24002178 -0.23104478 0.2468868 0.13287015
0.12753163 0.078393616 0.09214615 0.04362814 -0.17816553 -0.30166724 -0.25366762 -0.013771437
-0.08405522 -0.10866902 -0.03107446 -0.0040743034 -0.039855607 -0.036837455 -0.15302698 -0.25585216
0.14889582 0.13004094 -0.06738299 0.27275428 0.12295131 0.26822156 -0.3626275 -0.4176874
-0.37872097 0.14138387 -0.11870639 -0.22441593 0.26066878 0.1722968 -0.03497312 -0.04307377
0.105144784 0.25943395 0.018470602 -0.14819847 0.008701289 0.0803976 0.06072086 -0.114395425
0.024065062 -0.08460481 -0.19801675 -0.042154748 0.08816842 0.009087029 0.004471477 0.030979358
0.11965786 -0.032296356 0.00290986 -0.105339974 -0.017146852 -0.02537308 -0.013966287 -0.10633896
0.029939733 0.053590316 -0.058462664 0.042823948 -0.017066658 -0.0846043 0.08893657 0.15260515
0.015657125 -0.05001664 -0.07238641 0.105415404 0.00066482887 0.116379194 -0.07065855 0.10474716
0.1410511 0.080437794 -0.052992295 -0.075030915 0.16052613 0.066527285 -0.024599044 0.07159452
0.04952908 0.021440992 0.026325995 0.027978564 -0.040025596 0.10188783 0.10381231 -0.032859273
-0.010044029 -0.1151461 -0.09649632 -0.060219094 -0.042984076 -0.27544704 0.019425461 0.14706013
0.15664995 -0.11651817 -0.0431881 -0.03553292 0.01666212 -0.017680166 -0.0014012003 -0.09647805
-0.100013465 0.00047415894 -0.26763642 -0.11065534 0.066939525 0.0122649865 -0.14972757 -0.06440122
0.027094815 -0.12057006 -0.076239206 -0.074345246 -0.08544886 -0.07671412 -0.070040144 -0.08873904
-0.079079024 -0.08174106 -0.039766535 -0.08991191 -0.099486515 0.021824732 0.032735534 0.037040845
0.060430676 -0.1373066 -0.09423353 -0.08913937 -0.030799855 0.052626472 -0.040667064 -0.12293817
0.023319902 0.07643941 -0.08759382 0.08574411 -0.12649558 0.049228426 0.036343694 0.087311864
-0.054423407 -0.06964411 -0.038423702 0.006294 -0.0027005265 0.089424945 0.01272996 0.018410264
0.0423292 -0.030573735 0.029346496 -0.056715254 -0.08504845 -0.062290624 -0.020769479 -0.074982345
0.03627387 -0.10136423 0.08690204 -0.041087717 -0.064868495 0.065132305 0.016314507 -0.084244065
0.05341031 -0.08008935 -0.0871308 0.055961046 -0.04211168 0.091632955 0.0030134267 -0.1339475
0.008704439 0.111919545 0.08107739 -0.13544643 -0.07608631 -0.011215017 0.048563696 0.060168248
0.12921938 0.07695383 -0.10088088 0.04822811 0.049859382 0.029231744 -0.1346081 0.070148714
-0.15233456 0.12548016 -0.073369354 -0.15866221 0.025724156 0.05097989 0.12015419 -0.0732124
-0.06354422 -0.02880714 0.10951823 0.003656342 0.053453535 0.17152783 0.014854165 -0.04841947
0.0059691807 0.062371504 0.04908114 0.0013374474 0.055468116 0.11563654 -0.00061187893 0.024571294
0.035819627 -0.061158214 0.029716829 -0.027821949 -0.0782434 -0.3316638 -0.19723365 -0.12907241
00000000: 1c44 bd3d ab51 373e f788 9c3d 5d89 3bbe
00000010: 752b 83be a9fd 1ebe f000 97bd 6e14 ca3c
00000020: d6d9 45be 5efb 053e cccf 8c3d 5cb0 b53d
00000030: 3509 03be 099a 3c3c b4e0 343e 2bde f63d
00000040: be50 38bd e87b 5fbb 475f a3be 230f 92be
00000050: 8c60 f3bd 0e40 1e3e c464 293e f6e7 733e
00000060: 2461 833e 9381 7b3e 1a3f 103e 760c c7be
00000070: 45c8 75be 0197 6cbe e5cf 7c3e 1d0f 083e
00000080: a797 023e d58c a03d 1fb7 bc3d 6cb3 323d
00000090: 0671 36be 2174 9abe b9e0 81be 98a1 61bc
000000a0: 2525 acbd dd8d debd de8f febc bc81 85bb
000000b0: a23f 23bd dfe2 16bd 1bb3 1cbe 0eff 82be
000000c0: 2578 183e 7429 053e 1800 8abd 73a6 8b3e
000000d0: e5cd fb3d 5654 893e 50aa b9be 1fdb d5be
000000e0: b7e7 c1be efc6 103e 561c f3bd 4acd 65be
000000f0: 6176 853e 936e 303e f93f 0fbd 1f6e 30bd
00000100: 2656 d73d 87d4 843e a94f 973c 57c1 17be
00000110: da8f 0e3c 7fa7 a43d 70b6 783d 2648 eabd
00000120: 1824 c53c 4945 adbd e7c4 4abe 75aa 2cbd
00000130: a591 b43d c3e1 143c 7885 923b 6cc8 fd3c
00000140: 2e0f f53d 2f49 04bd 5ab3 3e3b 7cbc d7bd
00000150: 8e77 8cbc 35db cfbc dad2 64bc 3ec8 d9bd
00000160: 2c44 f53c 8581 5b3d 8c76 6fbd 2a68 2f3d
00000170: 60cf 8bbc 0545 adbd 6024 b63d 8644 1c3e
00000180: 5f43 803c 40de 4cbd 533f 94bd 08e4 d73d
00000190: e947 2e3a 3758 ee3d 6eb5 90bd ae85 d63d
000001a0: b36f 103e 92bc a43d 730e 59bd cfa9 99bd
000001b0: f660 243e 753f 883d ef83 c9bc 26a0 923d
000001c0: 01df 4a3d 05a5 af3c 9da9 d73c 4d33 e53c
000001d0: e1f1 23bd 91aa d03d 8c9b d43d 7297 06bd
000001e0: b68f 24bc b8d1 ebbd dd9f c5bd 4ca8 76bd
000001f0: 1210 30bd 6507 8dbe 2522 9f3c ee96 163e
00000200: d868 203e 14a1 eebd 01e6 30bd f88a 11bd
00000210: 007f 883c ffd5 90bc 7ba8 b7ba 4996 c5bd
00000220: dcd3 ccbd 8998 f839 a407 89be 449f e2bd
00000230: 9717 893d 15f3 483c 2f52 19be c9e4 83bd
00000240: f2f5 dd3c 70ed f6bd 4d23 9cbd 5242 98bd
00000250: d0ff aebd 4b1c 9dbd 3571 8fbd d0bc b5bd
00000260: 2ff4 a1bd db67 a7bd 3ce2 22bd bc23 b8bd
00000270: 96bf cbbd c8c9 b23c b215 063d 24b8 173d
00000280: 2886 773d 1a9a 0cbe 82fd c0bd b48e b6bd
00000290: fa4f fcbc db8e 573d 8292 26bd 02c7 fbbd
000002a0: 6109 bf3c 448c 9c3d 6464 b3bd 9c9a af3d
000002b0: 0f88 01be bfa3 493d 20dd 143d 90d0 b23d
000002c0: 14eb 5ebd 92a1 8ebd 2c62 1dbd e63d ce3b
000002d0: 51fb 30bb 6d24 b73d 5291 503c 1fd1 963c
000002e0: 6261 2d3d c575 fabc 1068 f03c 414e 68bd
000002f0: e22d aebd 7424 7fbd c124 aabc 5890 99bd
00000300: e993 143d 0d98 cfbd b2f9 b13d 984b 28bd
00000310: c6d9 84bd 1664 853d 00a6 853c 2788 acbd
00000320: c5c4 5a3d e305 a4bd a271 b2bd 6937 653d
00000330: 4c7d 2cbd 0faa bb3d e97c 453b 8929 09be
00000340: 109d 0e3c 1336 e53d e70b a63d 78b2 0abe
00000350: 24d3 9bbd 31bf 37bc baea 463d fb72 763d
00000360: 1652 043e f899 9d3d a39a cebd d78a 453d
00000370: 5a39 4c3d 6977 ef3c b5d6 09be 21aa 8f3d
00000380: 97fd 1bbe df7d 003e ac42 96bd 5978 22be
00000390: 77bb d23c 4ad0 503d 6613 f63d 62f0 95bd
000003a0: 7923 82bd f4fc ebbc 184b e03d 3d9f 6f3b
000003b0: 18f2 5a3d fea4 2f3e e25e 733c 7f53 46bd
000003c0: 1e99 c33b 4379 7f3d 4e09 493d 4a4d af3a
000003d0: 8932 633d dad2 ec3d 8066 20ba bd49 c93c
000003e0: 9ab7 123d 0981 7abd b570 f33c dbea e3bc
000003f0: 133e a0bd d6cf a9be 9ef7 49be 8f2b 04be

cnn.3.bias f4 [16]
0.41148752 -0.073025115 -0.12921418 0.31829655 0.054108772 -0.05424339 0.07114127 0.1755751
-0.05057491 0.08716697 -0.021986853 0.14482729 0.032003153 0.19791274 -0.29304025 0.084621005
00000000: 7eae d23e 318e 95bd b950 04be c4f7 a23e
00000010: 29a1 5d3d 512e 5ebd 84b2 913d f6c9 333e
00000020: a327 4fbd 9984 b23d c61d b4bc 9b4d 143e
00000030: bd15 033d a3a9 4a3e 5f09 96be c74d ad3d

lstm.weight_ih_l0 f4 [256, 3]
0.31953576 0.5034712 -0.17850298 -0.05131605 0.06523673 0.051429782 -0.056869812 -0.058168653
-0.015301134 0.109806485 -0.063378945 0.025483122 -0.064725086 -0.027361464 -0.067393824 -0.061544936
-0.061274085 0.05725346 -0.1303606 0.048522387 -0.03324599 -0.18363135 -0.053335477 0.14408086
-0.071651 -0.12632208 0.04515197 -0.018478135 -0.012596364 0.16549534 -0.4437751 -0.23908363
0.45859256 0.08988325 -0.10316315 0.07158439 -0.047199503 0.05423951 -0.08581005 0.103242785
0.09918896 0.026264923 -0.026461817 0.06861311 0.114920154 0.12867752 0.05686818 0.012626433
-0.05909931 0.13485327 0.106462285 0.09057684 -0.03245355 -0.09058281 -0.16822036 -0.092768416
0.010132316 -0.076515354 -0.06310423 -0.008692383 -0.1566769 -0.41020793 -0.35952964 -0.06766203
-0.07732653 0.22975962 0.12887788 -0.15140778 -0.3362918 -0.039228775 -0.05965305 0.005046367
-0.0340663 0.036204968 0.06976677 -0.055075355 0.17416047 0.19068658 -0.06858583 -0.07422396
-0.049071945 -0.076149315 0.14540641 0.17526461 -0.06789512 -0.03634335 0.057820555 0.079659484
-0.0101403715 0.013430754 -0.08040802 -0.0023348723 -0.029551148 0.08670366 0.02930011 -0.079222746
-0.051023882 0.011853872 -0.03305985 0.10154909 -0.113368906 0.025307305 0.08711471 -0.050227888
-0.025367916 0.0800051 -0.048032336 0.010522648 0.021001624 -0.05139483 -0.11809385 0.0013707945
0.038506474 -0.02032205 -0.06706619 0.08897024 -0.032795355 -0.052959643 0.10450615 -0.04202056
-0.015678689 -0.13941951 -0.29254246 -0.14511508 -0.03627746 -0.28540075 -0.013782971 -0.030993769
-0.062251613 0.21266581 -0.03281432 -0.20908226 -0.06289419 -0.10400943 0.020186812 0.11331312
-0.09007771 -0.00032571438 0.11473358 0.12935573 0.13253008 -0.18697649 0.098850265 0.14185432
-0.12456932 -0.09338331 0.004924089 0.089885876 0.00948279 -0.007841696 -0.054993637 -0.046968117
-0.07673017 -0.04056394 -0.06595008 0.14345519 -0.030725423 -0.079523414 0.018667255 0.118174866
-0.022046508 0.09002576 -0.056682095 0.05512838 0.13105206 0.14434892 -0.05900716 0.10264204
-0.08522751 -0.07219326 0.11129784 0.06384516 -0.018971547 -0.078811534 0.21727626 -0.40975478
-0.6544984 -0.0694616 0.0331896 0.06824794 0.11184879 -0.02630186 0.11386079 -0.10635407
-0.09885821 0.04257196 -0.08934741 0.047064394 -0.08038437 0.0064427787 0.044493 -0.039057396
0.33023536 0.51273817 -0.054121792 0.16149972 0.06843896 -0.082221635 0.07336835 0.0019781045
0.02618732 0.029633714 0.04961574 0.044919986 0.04187079 0.06372773 0.036927175 0.04055753
0.1423929 -0.03026305 -0.1427773 -0.1821907 -0.08472604 0.03310797 -0.122079335 -0.05807096
0.03677958 0.021561401 -0.06813886 0.4165706 0.30979258 0.10575768 -0.14760527 -0.06428882
0.71850044 -0.10922787 -0.0006096377 -0.109936394 0.11687681 -0.06337788 0.027402375 -0.09213804
0.0071579106 0.062851794 0.03226813 -0.07015603 -0.08892958 0.34050304 0.3691353 0.27921325
0.029137634 0.007468994 0.073643446 0.08151854 -0.038726605 0.10940306 -0.25727737 -0.07181141
-0.044072535 -0.028011255 0.08774921 -0.12312924 -0.1474588 -0.39328775 -0.40406498 -0.17234522
00000000: 319a a33e 7de3 003f 7cc9 36be c730 52bd
00000010: d69a 853d 09a8 523d 52f0 68bd 4142 6ebd
00000020: 9cb1 7abc 39e2 e03d d2cc 81bd fbc1 d03c
00000030: 968e 84bd 2625 e0bc c605 8abd 8b16 7cbd
00000040: 89fa 7abd 9b82 6a3d 407d 05be 69bf 463d
00000050: f22c 08bd db09 3cbe 4d76 5abd ef89 133e
00000060: c2bd 92bd 935a 01be 46f1 383d 755f 97bc
00000070: fb60 4ebc 9c77 293e 7d36 e3be 57d2 74be
00000080: a5cc ea3e b614 b83d 3447 d3bd d69a 923d
00000090: 4454 41bd 402a 5e3d 2ebd afbd f470 d33d
000000a0: 9523 cb3d 8929 d73c 74c6 d8bc 0885 8c3d
000000b0: 425b eb3d 0ac4 033e 9cee 683d 19df 4e3c
000000c0: 1e12 72bd fa16 0a3e e608 da3d 5a80 b93d
000000d0: 03ee 04bd 7b83 b9bd f541 2cbe 5efd bdbd
000000e0: 0302 263c 15b4 9cbd ca3c 81bd 7f6a 0ebc
000000f0: e96f 20be c606 d2be 4514 b8be 6492 8abd
00000100: 5f5d 9ebd 1b46 6b3e 90f8 033e a40a 1bbe
00000110: 702e acbe 5aae 20bd c256 74bd ff5b a53b
00000120: 1b89 0bbd a94b 143d e1e1 8e3d b296 61bd
00000130: 1f57 323e 5843 433e ba76 8cbd bb02 98bd
00000140: aaff 48bd 2cf4 9bbd 6be5 143e 9178 333e
00000150: 990c 8bbd c4dc 14bd 3fd5 6c3d 8324 a33d
00000160: cd23 26bc aa0c 5c3c f6ac a4bd a804 19bb
00000170: 4015 f2bc b091 b13d c906 f03c 893f a2bd
00000180: 6bfe 50bd be36 423c c469 07bd f8f8 cf3d
00000190: f52d e8bd 4451 cf3c 3269 b23d c2bb 4dbd
000001a0: 60d0 cfbc b7d9 a33d 8ebd 44bd 2f67 2c3c
000001b0: 990b ac3c 6383 52bd 30db f1bd 3bac b33a
000001c0: f7b8 1d3d 6e7a a6bc 005a 89bd 0736 b63d
000001d0: 6c54 06bd 36ec 58bd 5207 d63d c01d 2cbd
000001e0: 9870 80bc fdc3 0ebe 20c8 95be 0c99 14be
000001f0: ad97 14bd 0c20 92be f8d1 61bc a5e6 fdbc
00000200: 8cfb 7ebd 11c5 593e 4f68 06bd a919 56be
00000210: abce 80bd e502 d5bd d05e a53c b610 e83d
00000220: aa7a b8bd a5c4 aab9 70f9 ea3d d475 043e
00000230: f7b5 073e c476 3fbe 0272 ca3d 4242 113e
00000240: 331e ffbd c03f bfbd 415a a13b 1616 b83d
00000250: b45d 1b3c 757a 00bc 0241 61bd a461 40bd
00000260: b524 9dbd 6026 26bd d610 87bd ebe5 123e
00000270: e2b3 fbbc 2cdd a2bd 12ec 983c aa05 f23d
00000280: e19a b4bc 6d5f b83d 7c2b 68bd 4cce 613d
00000290: 8332 063e 34d0 133e 7eb1 71bd fd35 d23d
000002a0: c38b aebd 0fda 93bd 1ff0 e33d 40c1 823d
000002b0: 386a 9bbc f167 a1bd ab7d 5e3e 61cb d1be
000002c0: 358d 27bf e241 8ebd d1f1 073d 93c5 8b3d
000002d0: fa10 e53d 0077 d7bc d92f e93d 2ad0 d9bd
000002e0: 2c76 cabd ef5f 2e3d c6fb b6bd 98c6 403d
000002f0: 90a0 a4bd f21d d33b 4b3e 363d a6fa 1fbd
00000300: 9c14 a93e cf42 033f d0ae 5dbd 2f60 253e
00000310: ba29 8c3d d163 a8bd 2542 963d 16a3 013b
00000320: ca86 d63c 67c2 f23c e039 4b3d 05fe 373d
00000330: b580 2b3d af83 823d f340 173d a71f 263d
00000340: 72cf 113e 37ea f7bc 3634 12be 3390 3abe
00000350: d984 adbd 399c 073d bb04 fabd d1db 6dbd
00000360: 2fa6 163d 89a1 b03c 638c 8bbd be48 d53e
00000370: 229d 9e3e 7c97 d83d d625 17be dba9 83bd
00000380: a5ef 373f ddb2 dfbd 18d0 1fba 5526 e1bd
00000390: 1c5d ef3d 43cc 81bd f27a e03c deb2 bcbd
000003a0: e88c ea3b 71b8 803d 962b 043d f7ad 8fbd
000003b0: b620 b6bd 6a56 ae3e 4dff bc3e 0af5 8e3e
000003c0: 0cb2 ee3c 76be f43b 60d2 963d 31f3 a63d
000003d0: ca9f 1ebd b60e e03d dcb9 83be dc11 93bd
000003e0: 6785 34bd dc77 e5bc dcb5 b33d 2f2b fcbd
000003f0: 71ff 16be 035d c9be 9be1 cebe 447b 30be

lstm.weight_hh_l0 f4 [256, 64]
0.0036542462 0.07748543 0.074725226 0.10471512 -0.1474591 0.10423191 -0.090125866 -0.11171111
0.059222147 0.029886948 0.11448661 -0.11428996 0.042737763 -0.11365978 -0.0658347 0.014577898
-0.084498025 0.095756404 0.09467004 0.022245724 -0.08393195 0.06210698 0.18204315 -0.047721002
0.014542518 0.12873647 -0.13047618 0.005922519 -0.035505798 -0.14248994 -0.17356011 0.092042424
-0.11804255 0.06870352 -0.005622332 0.12227963 -0.14110349 -0.11189656 -0.00024838833 -0.012218913
0.025812395 0.08756444 -0.005603073 0.111956604 0.025856782 -0.090932794 -0.094360836 -0.30426332
-0.06866799 0.028483132 0.045518253 0.20079876 -0.06544117 -0.025520246 -0.09303979 0.13509388
0.107972294 -0.02547768 -0.17934442 0.01725373 -0.023298481 -0.08668498 -0.039264455 -0.013746504
-0.08527584 0.063619986 -0.009931584 0.089768 0.10633814 -0.15889971 -0.09556461 -0.11824001
0.02725106 0.064632155 -0.15344723 -0.037174124 0.07468634 -0.078754045 0.12922153 0.03504339
0.1302643 -0.11978659 -0.06850461 -0.1386139 -0.014695338 0.024067344 -0.024078598 0.050178543
-0.09456267 0.06384556 -0.051744167 0.09055109 -0.026543297 0.015249112 0.00613213 0.08905136
0.051274028 0.02374498 -0.15761364 -0.0063223564 -0.06110993 -0.13409871 0.055604354 -0.07824188
0.022426067 0.08014469 0.06552673 0.15583357 -0.087895945 -0.025276408 -0.16205026 -0.04688401
-0.10305417 0.090700395 -0.037390143 0.12074974 0.14515847 0.07695353 -0.05203497 0.091862984
-0.010860278 -0.029351028 -0.15653946 0.057056297 0.117248386 -0.03067149 0.118659966 -0.0073220767
-0.014792999 0.16093913 -0.008926488 0.034939107 0.05939286 0.026841102 0.011423193 0.046487607
-0.065120615 0.13507792 -0.06574357 0.04929449 0.16868609 -0.11018363 -0.005330445 -0.064099215
0.11450731 -0.15576087 -0.011874432 -0.052666564 0.06035615 -0.061009604 0.16426963 -0.0132964775
-0.11591798 0.04011406 0.070535526 -0.05474741 -0.0068445215 0.07209254 -0.05927852 0.12421045
0.03738566 0.05189305 -0.05362005 -0.085870005 -0.12308406 -0.16008763 0.01837786 -0.036014613
-0.024765464 -0.10735216 0.0131816575 0.057149094 -0.0024681184 0.036382362 -0.0881292 0.075387806
0.06812706 0.023977576 -0.04641421 -0.03509432 0.052944582 -0.019389303 0.044240095 0.079878025
-0.06549086 0.056984156 -0.04100401 0.070903644 0.06772027 0.06154568 -0.025946278 -0.14661223
0.0023464374 0.109648794 0.020895148 -0.05214341 0.10125895 -0.14299665 -0.121976845 -0.08353409
0.06670335 -0.024258967 -0.02474103 0.07279457 0.08439364 -0.08272903 0.041246083 -0.144292
0.07704278 -0.083442315 0.053937767 -0.14382635 -0.08652649 -0.06518855 0.1219928 0.11490488
-0.08524001 -0.08104213 0.15358418 0.12841067 0.05650936 -0.024581244 -0.1237741 0.15919964
-0.07753734 -0.00455593 0.014892233 -0.15604892 0.045937825 -0.07307971 -0.080034934 0.078377925
0.0157174 -0.10517138 0.13052648 -0.08096169 0.015198242 -0.023013845 -0.033468943 -0.03598028
0.07859768 -0.114816226 -0.076250285 -0.032719318 0.089280136 0.10020536 0.018384136 0.12705787
0.15428552 -0.005663138 0.052613504 -0.12138405 -0.02167126 0.06794226 0.039129 0.05303799
00000000: 147c 6f3b aeb0 9e3d 8a09 993d e174 d63d
00000010: 85ff 16be 8a77 d53d e993 b8bd cbc8 e4bd
00000020: ec92 723d 79d5 f43c f577 ea3d db10 eabd
00000030: cb0d 2f3d 75c6 e8bd 58d4 86bd 23d8 6e3c
00000040: 4d0d adbd ef1b c43d 5ee2 c13d aa3c b63c
00000050: 84e4 abbd e363 7e3d 8569 3a3e 1977 43bd
00000060: be43 6e3c 7ed3 033e 8c9b 05be b111 c23b
00000070: 876e 11bd e2e8 11be beb9 31be bd80 bc3d
00000080: 4bc0 f1bd 6eb4 8c3d 8a3b b8bb be6d fa3d
00000090: 6f7d 10be 062a e5bd 1e3a 82b9 d631 48bc
000000a0: 8474 d33c fc54 b33d fc99 b7bb 8149 e53d
000000b0: 9ad1 d33c f93a babd 4140 c1bd 67c8 9bbe
000000c0: cea1 8cbd 7555 e93c 5971 3a3d 319e 4d3e
000000d0: 0506 86bd d60f d1bc a58b bebd 0d56 0a3e
000000e0: 9420 dd3d 91b6 d0bc 10a6 37be b257 8d3c
000000f0: 75dc bebc e587 b1bd c4d3 20bd 0439 61bc
00000100: 19a5 aebd 324b 823d 15b8 22bc 49d8 b73d
00000110: d0c7 d93d 9bb6 22be 61b7 c3bd d227 f2bd
00000120: 9d3d df3c dd5d 843d 4521 1dbe e543 18bd
00000130: 27f5 983d cd49 a1bd a652 043e a889 0f3d
00000140: 0164 053e ac52 f5bd 254c 8cbd cdf0 0dbe
00000150: b7c4 70bc e128 c53c 7b40 c5bc 0488 4d3d
00000160: 13aa c1bd 76c1 823d b1f1 53bd da72 b93d
00000170: 5471 d9bc 69d7 793c 09f0 c83b 8f60 b63d
00000180: b704 523d d584 c23c 7865 21be c52b cfbb
00000190: 684e 7abd 2c51 09be 64c1 633d 473d a0bd
000001a0: dfb6 b73c e622 a43d e132 863d d692 1f3e
000001b0: ca02 b4bd 7810 cfbc 81f0 25be 7309 40bd
000001c0: 110e d3bd 21c1 b93d 6826 19bd a44b f73d
000001d0: 6ca4 143e d099 9d3d 9f22 55bd a922 bc3d
000001e0: 4fef 31bc 9171 f0bc e14b 20be ddb3 693d
000001f0: ec1f f03d c742 fbbc ff03 f33d 08ee efbb
00000200: 565e 72bc 3acd 243e 6840 12bc 4f1c 0f3d
00000210: ed45 733d dfe1 db3c 5828 3b3c ca69 3e3d
00000220: f55d 85bd de51 0a3e 91a4 86bd 05e9 493d
00000230: 0cbc 2c3e f4a7 e1bd 03ab aebb 7346 83bd
00000240: cf82 ea3d c77f 1fbe fa8c 42bc e5b8 57bd
00000250: 0338 773d 35e5 79bd 4c36 283e 78d9 59bc
00000260: 6866 edbd a44e 243d ee74 903d d23e 60bd
00000270: 0248 e0bb 41a5 933d 09ce 72bd 0c62 fe3d
00000280: b521 193d cf8d 543d b3a0 5bbd 9ddc afbd
00000290: 7f13 fcbd 03ee 23be 2a8d 963c 0f84 13bd
000002a0: f1e0 cabc 73db dbbd e1f7 573c 2b15 6a3d
000002b0: 28c0 21bb ac05 153d 157d b4bd ec64 9a3d
000002c0: 3386 8b3d 9f6c c43c d41c 3ebd 10bf 0fbd
000002d0: 6bdc 583d 51d6 9ebc 1a35 353d 1797 a33d
000002e0: 1220 86bd 3868 693d d2f3 27bd ee35 913d
000002f0: edb0 8a3d 5317 7c3d 4a8d d4bc 8421 16be
00000300: b0c6 193b 8c8f e03d 4d2c ab3c 5494 55bd
00000310: da60 cf3d b76d 12be ffce f9bd ec13 abbd
00000320: c49b 883d beba c6bc b3ad cabc 5215 953d
00000330: 93d6 ac3d d66d a9bd a7f1 283d 48c1 13be
00000340: 9bc8 9d3d cee3 aabd d9ed 5c3d 3747 13be
00000350: cd34 b1bd 9381 85bd 5cd7 f93d 4053 eb3d
00000360: 5092 aebd 6bf9 a5bd 2c45 1d3e 167e 033e
00000370: 5c76 673d 9b5e c9bc 467d fdbd 3b05 233e
00000380: e6cb 9ebd e949 95bb 8dfe 733c 4acb 1fbe
00000390: 4d29 3c3d d1aa 95bd 5be9 a3bd 9b84 a03d
000003a0: c7c1 803c 1864 d7bd bca8 053e 3ecf a5bd
000003b0: 0c02 793c 8887 bcbc bb16 09bd 0f60 13bd
000003c0: d2f7 a03d c524 ebbd 1c29 9cbd b104 06bd
000003d0: 81d8 b63d 7838 cd3d 549a 963c 751b 023e
000003e0: 06fd 1d3e d891 b9bb 4281 573d 3398 f8bd
000003f0: ed87 b1bc 5025 8b3d bb45 203d 5d3e 593d

lstm.bias_ih_l0 f4 [256]
-0.10123634 -0.05237681 0.041726224 0.073406145 0.094841205 0.044679414 0.029549664 0.017773695
0.05432927 0.03856047 0.009660965 -0.063989945 -0.01684466 -0.08059918 0.04986681 0.043155365
0.170667 -0.06203152 0.01388407 0.03288305 -0.1046528 -0.006108965 0.10364043 -0.017583217
0.07520292 -0.03832443 0.13342835 0.025793009 -0.076381214 -0.068971425 0.055371244 0.009297987
0.05299561 0.08329318 0.04270456 -0.051855054 0.026920836 0.077572554 0.17028092 0.14751692
0.09011887 -0.018687118 0.0943812 -0.08698198 0.009663842 0.1737816 -0.059268072 0.10825162
-0.016476722 -0.028942226 -0.038291804 0.06697698 0.062793225 0.057211243 -0.062158007 0.1020234
0.13999078 0.106310144 -0.11468136 -0.053447127 0.17223607 -0.0052540204 0.14463668 0.038385756
0.06454156 0.043102756 0.042630482 0.15443988 -0.04286959 0.17863567 0.09642571 0.00027619253
0.093884036 -0.045398105 -0.01926816 -0.07069052 0.0017519973 0.021896556 -0.059860997 0.12964025
0.011897991 0.15314457 0.04737082 0.012919514 0.010084264 -0.019334411 0.17758779 0.108091086
-0.08778463 0.16183543 0.0027061193 -0.022883035 -0.021089857 0.10859987 -0.0008499988 0.15432383
0.07712141 0.058417976 -0.047626875 0.13184847 0.044549294 0.0098699005 -0.028990751 0.07644617
0.088872716 -0.033095077 -0.011675175 -0.12432402 0.063512735 0.07583103 -0.020729909 -0.04330755
0.005897526 -0.0264107 0.08162837 -0.050295953 0.0124731595 0.12616073 -0.015074374 0.15611646
0.06801457 0.13702899 0.017755799 0.046814345 0.1299461 -0.15280162 0.11771647 0.0454648
-0.054791927 -0.02651705 -0.05951288 -0.015950684 0.03266348 0.049099043 0.08009829 -0.10188585
-0.1487604 -0.00026520801 0.029085925 -0.029268345 0.06052169 -0.005173694 0.1439356 0.045855924
0.10295875 0.03173316 0.009269398 -0.0063067577 -0.005961523 -0.1239955 0.08466913 0.08067419
0.026181402 -0.07976922 -0.0053658625 0.120587245 0.01819259 0.04252379 -0.090547636 0.14382926
0.010759019 0.06591458 -0.06066707 -0.0059188213 0.10725062 0.04626655 -0.017872622 0.053774036
-0.0026738413 0.052851576 0.05870881 0.054317333 0.038567726 -0.06338684 -0.151204 0.10986263
0.10395882 -0.045766406 0.025857862 0.14423335 0.13912043 0.033798937 -0.12883924 0.0886016
0.108096585 0.1560767 0.03274129 0.002180891 0.114875354 -0.065310225 0.03817368 -0.02418001
0.03499451 -0.16356438 0.10327659 0.03176095 0.103987165 0.16453293 -0.15858981 -0.053475756
0.06794695 0.14537092 0.08189388 0.038841754 0.0049695508 -0.031371556 0.13312355 0.1814642
-0.026042217 0.08130381 -0.010075145 0.13227782 0.1691446 0.16147049 0.005934787 0.08519357
0.0037842526 0.10308332 0.0626492 0.012150555 -0.06849904 -0.014378294 0.089485824 -0.027541807
0.14128533 0.15464926 -0.08272302 0.08509642 0.10319218 0.05764981 0.2602749 -0.03026953
0.086908996 0.03263954 0.0140852425 -0.044778682 -0.05490129 0.11778684 -0.102841586 0.03794121
-0.08837344 0.062382568 0.06853701 -0.010609203 0.22879617 -0.04556826 0.1564452 0.048860814
0.097275734 -0.098672956 0.10513304 0.055797752 0.124876924 -0.02291371 0.26095194 0.21407942
00000000: 0055 cfbd 1189 56bd 1ee9 2a3d f655 963d
00000010: 1b3c c23d c301 373d 2312 f23c 249a 913c
00000020: 5e88 5e3d 95f1 1d3d 0649 1e3c 290d 83bd
00000030: d0fd 89bc 2f11 a5bd 2441 4c3d aec3 303d
00000040: 54c3 2e3e c314 7ebd 037a 633c 61b0 063d
00000050: 3554 d6bd b62d c8bb 6f41 d43d ae0a 90bc
00000060: fd03 9a3d 14fa 1cbd 71a1 083e dc4b d33c
00000070: c16d 9cbd e440 8dbd f5cc 623d 9656 183c
00000080: ed11 593d 9d95 aa3d faea 2e3d f765 54bd
00000090: 1689 dc3c 5cde 9e3d 1f5e 2e3e ad0e 173e
000000a0: 3e90 b83d ba15 99bc ee4a c13d 9c23 b2bd
000000b0: 1755 1e3c cef3 313e 14c3 72bd 06b3 dd3d
000000c0: 31fa 86bc 3f18 edbc ded7 1cbd 3a2b 893d
000000d0: bc99 803d 5656 6a3d 6599 7ebd a5f1 d03d
000000e0: be59 0f3e 22b9 d93d 10de eabd 60eb 5abd
000000f0: a75e 303e eb29 acbb a31b 143e 623a 1d3d
00000100: 5e2e 843d 848c 303d 4d9d 2e3d 7d25 1e3e
00000110: 0698 2fbd 45ec 363e d87a c53d efcd 9039
00000120: 4646 c03d 5df3 39bd 43d8 9dbc 31c6 90bd
00000130: 46a3 e53a 6860 b33c ce30 75bd 6ac0 043e
00000140: cbef 423c eed1 1c3e e807 423d 5fac 533c
00000150: 7838 253c 3363 9ebc 93d9 353e dc5e dd3d
00000160: 6ec8 b3bd 30b8 253e 2659 313b 3475 bbbc
00000170: a3c4 acbc 9c69 de3d 74d2 5eba 1107 1e3e
00000180: d4f1 9d3d b047 6f3d 6614 43bd 4903 073e
00000190: 5279 363d 5db5 213c 037e edbc cf8f 9c3d
000001a0: e602 b63d b48e 07bd 3c49 3fbc 989d febd
000001b0: f712 823d 4d4d 9b3d c5d1 a9bc 4263 31bd
000001c0: 0940 c13b 415b d8bc c62c a73d 2103 4ebd
000001d0: 395c 4c3c 4730 013e 82fa 76bc fedc 1f3e
000001e0: 394b 8b3d 5451 0c3e 9c74 913c 66c0 3f3d
000001f0: 9710 053e 0778 1cbe 5515 f13d 4c39 3a3d
00000200: 806d 60bd 493a d9bc c7c3 73bd 02ab 82bc
00000210: 24ca 053d 141c 493d 930a a43d 87a9 d0bd
00000220: a554 18be 9e0b 8bb9 9b45 ee3c 2bc4 efbc
00000230: 97e5 773d 1788 a9bb db63 133e 6cd3 3b3d
00000240: 0adc d23d a1fa 013d acde 173c eba8 cebb
00000250: e158 c3bb 5af1 fdbd 0267 ad3d 8238 a53d
00000260: 617a d63c 0b5e a3bd 1ed4 afbb 72f6 f63d
00000270: a008 953c 6d2d 2e3d 0a71 b9bd fa47 133e
00000280: 9946 303c 39fe 863d 097e 78bd acf2 c1bb
00000290: 37a6 db3d fe81 3d3d 9b69 92bc 2a42 5c3d
000002a0: 9d3b 2fbb e57a 583d a678 703d da7b 5e3d
000002b0: 31f9 1d3d f6d0 81bd 39d5 1abe a9ff e03d
000002c0: 5de8 d43d 8e75 3bbd ded3 d33c e8b1 133e
000002d0: 9675 0e3e c170 0a3d 6fee 03be c174 b53d
000002e0: be61 dd3d 92d2 1f3e bb1b 063d 48ed 0e3b
000002f0: c543 eb3d 5ec1 85bd 015c 1c3d 2815 c6bc
00000300: 6756 0f3d 6c7d 27be ad82 d33d c517 023d
00000310: 39f7 d43d 527b 283e 5e65 22be 6509 5bbd
00000320: c527 8b3d 1ddc 143e fbb7 a73d 8818 1f3d
00000330: 9dd7 a23b 767f 00bd 8a51 083e c0d1 393e
00000340: 7d56 d5bc 9d82 a63d 3912 25bc d673 073e
00000350: 3e34 2d3e 8558 253e 9a78 c23b f779 ae3d
00000360: 3901 783b 591d d33d 394e 803d 1f13 473c
00000370: 3a49 8cbd f092 6bbc 5844 b73d 5b9f e1bc
00000380: 1aad 103e 605c 1e3e b06a a9bd 0847 ae3d
00000390: 6c56 d33d 3522 6c3d c042 853e cef7 f7bc
000003a0: 58fd b13d 0ab1 053d cac5 663c da69 37bd
000003b0: 2de0 60bd 3a3a f13d 9c9e d2bd 3e68 1b3d
000003c0: 22fd b4bd dd84 7f3d 225d 8c3d 39d2 2dbc
000003d0: 8b49 6a3e c9a5 3abd 2c33 203e 4722 483d
000003e0: 8038 c73d 0c15 cabd fe4f d73d 2f8c 643d
000003f0: 79bf ff3d 88b5 bbbc 7e9b 853e a337 5b3e

lstm.bias_hh_l0 f4 [256]
-0.11255958 0.00544556 0.15585795 -0.030874211 -0.032654252 0.06275733 0.16046657 0.002809089
-0.09282149 0.14178331 -0.08605583 -0.055684663 0.04083101 -0.038338933 0.04675494 0.20127164
-0.06177412 0.025271913 0.052886106 -0.04013163 0.05232767 -0.107187584 0.09536462 -0.06449379
0.08918441 0.04423148 -0.022949427 -0.06576718 0.11266302 0.06679568 0.15602618 -0.06553748
0.098163396 -0.08978116 0.15859109 0.10989956 0.15486784 0.13267018 -0.040116057 -0.045271803
0.08886327 0.023713553 0.021031747 -0.049054883 0.04276517 0.15031976 0.12636277 -0.058628123
0.116179936 -0.101942964 -0.030283075 1.5186701e-05 0.0832164 -0.028649973 -0.057281904 0.08593512
0.04908043 -0.03495115 0.11331446 0.043202378 0.16969772 -0.0008572094 0.076583706 0.04668513
-0.09873201 0.14114054 0.07500115 0.13943851 0.00776833 0.031954654 0.1272649 0.03091741
0.15984765 -0.0021677387 0.019985886 0.14275038 0.04275221 -0.08006151 0.14398734 0.021916851
0.15990561 0.05731676 -0.07156114 -0.004815722 0.097492896 -0.012029635 0.18252732 0.12515734
0.03436234 -0.046846434 -0.070509136 0.010635055 0.017446755 -0.11815141 -0.048039153 -0.039773192
0.09566301 -0.027722789 0.12625124 -0.00039178683 0.13871244 0.1348978 0.10979669 -0.027451739
0.011829966 0.12288274 0.1625679 -0.023451066 -0.022484954 0.010858981 0.18398345 0.022522803
0.14045887 0.09980098 0.055056963 0.042164553 0.010291024 0.11420918 0.11374271 -0.023371343
0.0366915 0.13904859 0.062877305 0.063494086 0.15855302 -0.030899229 0.16393058 0.14790145
0.056503173 0.07645355 0.049699973 -0.13928989 -0.06732266 -0.11196331 -0.13592651 -0.09793114
0.07254216 -0.021591146 -0.0029502118 0.01810202 0.15613754 -0.12098625 0.096744806 0.07236664
-0.05866386 -0.035464074 -0.13754901 -0.10084515 -0.09785844 -0.028642029 0.05597801 -0.051413305
-0.0697553 -0.10967816 0.13612986 0.11976501 0.13274413 -0.073389955 -0.035213947 0.017572632
0.14148726 0.0047410945 -0.15739475 -0.16885553 -0.029096516 -0.12282846 0.035224658 -0.08923305
0.09986903 -0.03135461 0.11160248 -0.11591096 0.15602963 -0.10368944 -0.018193971 0.12205025
0.056706958 0.0070491964 -0.04551159 0.12045774 0.14958629 0.15266892 0.06749336 -0.010884834
-0.008608609 0.15007883 -0.08015418 -0.123563625 0.021726446 0.15342425 0.10737356 -0.06725068
0.12084172 -0.12893675 0.15921424 0.031555284 -0.026396539 -0.0008053729 0.04573921 -0.106839426
0.16713507 0.23260686 0.079201296 0.13555695 0.061678205 -0.19144867 0.19763839 0.23646808
-0.08688848 0.019699559 -0.051478773 -0.058219343 0.13937339 0.089208595 0.010651525 0.1236604
0.0651854 -0.0034194265 0.040831998 0.04968938 -0.025473127 0.02573458 0.14982842 0.16920625
-0.082739405 0.15030394 0.0622325 0.1596863 0.20306624 0.061235525 0.10224876 0.11498947
0.018656373 0.06639452 0.097219005 0.12122009 -0.10332381 0.014748104 -0.11042747 -0.012287588
0.14657076 -0.02389873 -0.051457275 0.08849688 0.14012973 0.05762843 0.028572509 0.20446314
0.015663272 0.10284926 0.11821493 -0.015073108 0.058151647 0.14625373 0.24777654 0.09526056
00000000: a385 e6bd ab70 b23b 3a99 1f3e eaeb fcbc
00000010: 77c0 05bd ea86 803d 5951 243e b118 383b
00000020: 3119 bebd a52f 113e 0a3e b0bd 9a15 64bd
00000030: 6b3e 273d 4909 1dbd 1c82 3f3d 271a 4e3e
00000040: dc06 7dbd 0b07 cf3c 1a9f 583d 1061 24bd
00000050: 8a55 563d 2a85 dbbd 874e c33d 5215 84bd
00000060: 51a6 b63d 122c 353d 7000 bcbc f1b0 86bd
00000070: dfbb e63d 2ccc 883d 54c5 1f3e 8438 86bd
00000080: e409 c93d 2fdf b7bd b465 223e 0513 e13d
00000090: ad95 1e3e b1da 073e bc50 24bd ed6e 39bd
000000a0: f2fd b53d ed42 c23c c54a ac3c c6ed 48bd
000000b0: 882a 2f3d 6ced 193e 3e65 013e 0b24 70bd
000000c0: bfef ed3d 79c7 d0bd 3614 f8bc 62ca 7e37
000000d0: 5c6d aa3d 59b3 eabc 6ea0 6abd c1fe af3d
000000e0: 9008 493d f028 0fbd 6911 e83d faf4 303d
000000f0: 3dc5 2d3e 59b6 60ba ebd7 9c3d e838 3f3d
00000100: 0234 cabd 2587 103e 349a 993d f8c8 0e3e
00000110: 7a8d fe3b e2e2 023d bb51 023e 8246 fd3c
00000120: 1aaf 233e 9f10 0ebb 71b9 a33c 282d 123e
00000130: f11c 2f3d 4af7 a3bd 6b71 133e f88a b33c
00000140: 4cbe 233e fbc4 6a3d a68e 92bd 34cd 9dbb
00000150: 5baa c73d f217 45bc 71e8 3a3e 3f29 003e
00000160: 86bf 0c3d 0ce2 3fbd 1867 90bd a73e 2e3c
00000170: 7fec 8e3c 5ef9 f1bd b4c4 44bd 37e9 22bd
00000180: f8ea c33d e71a e3bc 0148 013e bd68 cdb9
00000190: a20a 0e3e a622 0a3e 16dd e03d 78e2 e0bc
000001a0: 79d2 413c f2a9 fb3d 3378 263e 731c c0bc
000001b0: 5e32 b8bc dee9 313c 2866 3c3e be81 b83c
000001c0: 73d4 0f3e 7564 cc3d 6983 613d bdb4 2c3d
000001d0: af9b 283c 81e6 e93d f0f1 e83d 4275 bfbc
000001e0: d449 163d c162 0e3e d1c5 803d 3009 823d
000001f0: b95b 223e 6120 fdbc 6bdd 273e 7a73 173e
00000200: df6f 673d ae93 9c3d 3392 4b3d 02a2 0ebe
00000210: 76e0 89bd 054d e5bd 5230 0bbe 1f90 c8bd
00000220: fc90 943d eadf b0bc 5758 41bb b04a 943c
00000230: 85e2 1f3e a4c7 f7bd 2422 c63d f634 943d
00000240: 8449 70bd c742 11bd a6d9 0cbe e787 cebd
00000250: 016a c8bd b0a2 eabc 3349 653d c296 52bd
00000260: dedb 8ebd f19e e0bd a065 0b3e 5c47 f53d
00000270: 14ee 073e 794d 96bd 803c 10bd 7bf4 8f3c
00000280: 09e2 103e 2f5b 9b3b 172c 21be 77e8 2cbe
00000290: d15b eebc 7d8d fbbd bb47 103d d1bf b6bd
000002a0: 2288 cc3d b16d 00bd d78f e43d ba62 edbd
000002b0: 3bc6 1f3e 215b d4bd 860b 95bc 7bf5 f93d
000002c0: 8e45 683d f2fc e63b 5c6a 3abd 8cb2 f63d
000002d0: 262d 193e 3e55 1c3e f539 8a3d 4e56 32bc
000002e0: 200b 0dbc 44ae 193e e027 a4bd ed0e fdbd
000002f0: a9fb b13c 3f1b 1d3e abe6 db3d b9ba 89bd
00000300: dd7b f73d ff07 04be 0f09 233e 1d40 013d
00000310: 8e3d d8bc a91f 53ba 0a59 3b3d a1ce dabd
00000320: 7525 2b3e 7e30 6e3e 4a34 a23d 71cf 0a3e
00000330: 49a2 7c3d 1f0b 44be b861 4a3e b024 723e
00000340: 96f2 b1bd f860 a13c 68db 52bd 6877 6ebd
00000350: e6b7 0e3e ffb2 b63d bc83 2e3c aa41 fd3d
00000360: ec7f 853d 7518 60bb 743f 273d 1787 4b3d
00000370: 05ad d0bc 53d1 d23c 9f6c 193e 6744 2d3e
00000380: 4773 a9bd 47e9 193e 82e7 7e3d ce84 233e
00000390: 99f0 4f3e 1ad2 7a3d cc67 d13d 997f eb3d
000003a0: 40d5 983c daf9 873d c21a c73d 3d42 f83d
000003b0: 6f9b d3bd 08a2 713c cc27 e2bd e151 49bc
000003c0: a516 163e 45c7 c3bc ddc4 52bd da3d b53d
000003d0: 2b7e 0f3e ca0b 6c3d e510 ea3c c95e 513e
000003e0: 4350 803c a2a2 d23d ab1a f23d 32f5 76bc
000003f0: 6c30 6e3d 8ac3 153e 22b9 7d3e f817 c33d

fc.0.weight f4 [64, 768]
-0.027686268 -0.009529706 0.032137163 0.028488658 -0.0027936995 0.0047216527 0.011605553 -0.029134946
-0.0111538805 0.0048280507 0.017463952 0.012530509 -0.01837653 0.014465909 -0.03399033 -0.015839392
-0.021756085 -0.012738124 -0.013072589 -0.0064336117 0.007934947 0.029960811 0.022199344 0.032485783
-0.0223817 0.029662207 -0.013011131 0.002873376 0.03378281 -0.010726461 -0.025310397 -0.0011364408
0.031003408 -0.014228767 0.007917486 0.015442751 -0.015384942 0.023668636 -0.013516286 -0.00477352
0.027707659 0.010834165 -0.0047218613 -0.018997751 0.013843607 0.017346218 -0.026209962 -0.009639598
0.01881025 -0.025130183 0.022405673 0.015599184 0.025857955 0.006872013 -0.006151555 0.010722235
0.022932198 0.030428708 0.020619303 0.021228846 -0.011794556 0.020114757 0.012858439 -0.027177788
-0.014045054 -0.023147397 0.005298838 0.029588945 -0.01216371 -0.02368726 -0.007158775 0.022635069
0.035108365 0.0042569973 0.03402005 -0.010074915 -0.021394987 -0.0021680184 -0.03575053 -0.026602834
-0.001268141 -0.017828105 -0.0051877014 0.019497428 -0.016069965 0.02220549 0.033964075 -0.027887423
0.024800058 0.02561612 0.032459527 -0.008625837 -0.00085152313 0.01009671 0.018961657 -0.030804493
-0.012616508 -0.006407108 -0.019868838 -0.01539284 -0.0042362586 -0.0029355474 -0.0048799906 0.017773695
-0.021213198 0.021109294 -0.0044886917 -0.0035368986 -0.011319574 0.022195231 0.023615565 -0.001839783
-0.0074062925 0.015391726 -0.013818614 0.000656195 -0.008694582 0.019596849 -0.025029039 0.033014707
-0.024797365 -0.013756186 -0.031867426 -0.0033224486 0.023608092 -0.024786327 -0.021908792 -0.033471778
-0.00976317 0.006743025 0.015093356 0.0073430166 0.0057060756 0.035557263 0.008622594 0.003146857
-0.017003115 0.025328893 0.02481746 0.029286407 0.0053985976 -0.022620719 0.010138556 -0.0058182776
0.007255297 -0.027168438 -0.019246014 -0.029737681 -0.027101938 0.025688387 0.014894836 -0.0060009696
0.00071723387 -0.0048831403 0.012330346 0.022284102 -0.008310586 0.00026086718 -0.024219543 -0.000496231
-0.03541415 -0.030071897 -0.0046370663 0.00219414 -0.025225054 -0.020735227 0.014442153 0.007914517
-0.029703934 -0.009935079 0.02345325 0.015035648 0.025499478 -0.012141312 0.025473617 -0.02118788
-0.00055282936 0.03461492 -0.01707737 0.010619219 0.010123536 -0.035880215 -0.021029834 -0.010102579
0.035783127 0.008876614 0.0045151524 0.0075145513 0.02065976 -0.031085242 0.027669378 0.0015164725
0.0048844926 -0.030747859 0.017394379 -0.0013308711 0.029994406 -0.010168966 -0.03352474 -0.02598968
-0.016454898 -0.003227573 0.0011294596 0.002957683 -0.020756725 0.016475335 -0.015714014 -0.028172575
0.02052774 0.025269374 -0.013514772 0.02504288 -0.008555971 -0.0012353323 0.0011448152 -0.00033376366
-0.016855579 0.031701885 0.020739384 0.031716675 -0.02691143 -0.005356131 0.03460955 -0.033880133
-0.023403801 -0.03195641 0.0034674257 -0.0022682585 0.032489672 0.011483807 -0.015844343 0.025945622
0.015868168 0.01200686 0.0050101317 0.011999179 0.018433712 -0.0037827604 0.009024613 -0.031449318
-0.014688367 0.032408595 0.0066631287 -0.0027720407 -0.017874347 0.020368923 0.019364636 0.028289117
-0.035713073 -0.016149636 -0.022411639 -0.0007311031 0.01810122 -0.015610075 0.021970082 0.012127452
00000000: 50ce e2bc 7c22 1cbc 42a2 033d 0c61 e93c
00000010: 8016 37bb 18b8 9a3b 3825 3e3c 69ac eebc
00000020: c4be 36bc a034 9e3b 9010 8f3c c44c 4d3c
00000030: 608a 96bc 6c02 6d3c 7239 0bbd 9dc1 81bc
00000040: d139 b2bc 90b3 50bc 6a2e 56bc 0cd1 d2bb
00000050: 9401 023c 6070 f53c 66db b53c d00f 053d
00000060: d459 b7bc 28fe f23c a42c 55bc 404f 3c3b
00000070: d85f 0a3d 0abe 2fbc c057 cfbc a0f4 94ba
00000080: dcfa fd3c c61f 69bc 58b8 013c 9803 7d3c
00000090: 2011 7cbc bae4 c13c 6a73 5dbc 306b 9cbb
000000a0: 2cfb e23c c881 313c d8b9 9abb 2ca1 9bbc
000000b0: 4cd0 623c a819 8e3c 46b6 d6bc 68ef 1dbc
000000c0: f417 9a3c d0dd cdbc 1a8c b73c b893 7f3c
000000d0: 10d4 d33c a02e e13b fc92 c9bb 50ac 2f3c
000000e0: 4edc bb3c a045 f93c d0e9 a83c 1ee8 ad3c
000000f0: f43d 41bc b4c7 a43c 34ac 523c f4a3 debc
00000100: 3a1d 66bc 9c9f bdbc e0a1 ad3b 8464 f23c
00000110: 4c4a 47bc c90b c2bc 2894 eabb 2e6d b93c
00000120: cacd 0f3d 487e 8b3b 9c58 0b3d 4211 25bc
00000130: 8a44 afbc 5015 0ebb 266f 12bd 30ee d9bc
00000140: c037 a6ba 3f0c 92bc 98fd a9bb 12b9 9f3c
00000150: 29a5 83bc 4ae8 b53c ea1d 0b3d 2a74 e4bc
00000160: 7e29 cb3c e6d8 d13c 48f4 043d 6253 0dbc
00000170: c038 5fba ac6c 253c 7a55 9b3c b459 fcbc
00000180: 78b5 4ebc b8f2 d1bb f9c3 a2bc 4032 7cbc
00000190: 50d0 8abb 5062 40bb 54e8 9fbb 249a 913c
000001a0: 4dc7 adbc 66ed ac3c e015 93bb 50cb 67bb
000001b0: bc75 39bc c6d2 b53c 6e75 c13c e024 f1ba
000001c0: 7cb0 f2bb 942d 7c3c 7867 62bc 8004 2c3a
000001d0: b873 0ebc 9289 a03c b309 cdbc 6e3a 073d
000001e0: d823 cbbc a061 61bc 6b87 02bd 70bd 59bb
000001f0: c265 c13c b20c cbbc 117a b3bc b419 09bd
00000200: b4f5 1fbc 98f4 dc3b 204a 773c b09d f03b
00000210: 08fa ba3b 7ea4 113d c845 0d3c 803b 4e3b
00000220: 1e4a 8bbc 8a7e cf3c fc4d cb3c 0cea ef3c
00000230: b8e6 b03b 164f b9bc 301c 263c 40a7 bebb
00000240: d8bd ed3b 5890 debc d1a9 9dbc 709c f3bc
00000250: e204 debc 7470 d23c 7809 743c c8a3 c4bb
00000260: c004 3c3a c002 a0bb 3805 4a3c 268d b63c
00000270: 2029 08bc 00c5 8839 1068 c6bc 8015 02ba
00000280: 6e0e 11bd 5759 f6bc 88f2 97bb 90cb 0f3b
00000290: c6a4 cebc ecdc a9bc c89e 6c3c e4ab 013c
000002a0: aa55 f3bc bec6 22bc 0821 c03c 1458 763c
000002b0: 48e4 d03c 5aec 46bc 0cae d03c 3492 adbc
000002c0: c0eb 10ba 60c8 0d3d d7e5 8bbc 3cfc 2d3c
000002d0: 30dd 253c 22f7 12bd c246 acbc 4a85 25bc
000002e0: 5491 123d 386f 113c d8f3 933b a03c f63b
000002f0: a83e a93c 7aa6 febc e4aa e23c 60c4 c63a
00000300: 180e a03b efe2 fbbc a87e 8e3c a070 aeba
00000310: d4b6 f53c bc9b 26bc 3d51 09bd 4fe8 d4bc
00000320: 6ccc 86bc b085 53bb 600a 943a b0d5 413b
00000330: 020a aabc 48f7 863c adba 80bc 2cca e6bc
00000340: ca29 a83c b801 cf3c 106d 5dbc ba26 cd3c
00000350: 582e 0cbc e0ea a1ba a00d 963a 00fd aeb9
00000360: b614 8abc d6d9 013d a4e5 a93c 58e9 013d
00000370: 5c75 dcbc 7c82 afbb bec2 0d3d e5c5 0abd
00000380: 54b9 bfbc b9e4 02bd c03d 633b 10a7 14bb
00000390: e413 053d 9426 3c3c ffcb 81bc ea8b d43c
000003a0: f6fd 813c 6cb8 443c 082c a43b 3498 443c
000003b0: 4c02 973c 30e8 77bb f8db 133c 00d1 00bd
000003c0: 7aa7 70bc e0be 043d 6056 da3b 20ab 35bb
000003d0: 396d 92bc badc a63c 96a2 9e3c 94be e73c
000003e0: df47 12bd 3e4c 84bc 9d98 b7bc 80a7 3fba
000003f0: 0249 943c 66c1 7fbc 9afa b33c 38b2 463c

fc.0.bias f4 [64]
0.020850714 -0.004370801 0.027783006 -0.010459559 0.017392166 -0.028667212 -0.03488846 -0.008504571
0.02869746 -0.03056665 0.023656853 -0.027354024 -0.029505253 -0.03604077 -0.019851886 0.025415014
-0.009718563 0.034849152 -0.034708787 -0.029767895 -0.026117966 -0.016946554 0.030296154 -0.02630651
0.018710975 -0.027986467 -0.000683669 0.013368007 -0.02940927 0.010264084 0.0068100654 0.0042844713
0.01067755 0.035609677 0.0047424138 0.0094065815 -0.02357556 -0.03154469 0.020627882 -0.018345622
0.008634184 -0.01852049 -0.015940867 -0.035996877 -0.0007423386 -0.03595927 -0.03312896 0.0046667233
0.008769181 -0.015630089 -0.013769606 0.0089969225 -0.015946187 -0.031670082 -0.018254364 -0.01635748
0.00024659187 -0.0136699565 -0.007062027 0.0077805035 0.01800555 -0.013431424 0.005653795 -0.019084817
00000000: 1ecf aa3c f038 8fbb 3099 e33c 925e 2bbc
00000010: 047a 8e3c 80d7 eabc 34e7 0ebd c256 0bbc
00000020: f016 eb3c e966 fabc 04cc c13c 8c15 e0bc
00000030: 00b5 f1bc 7d9f 13bd 6ca0 a2bc 2633 d03c
00000040: 9c3a 1fbc fcbd 0e3d cd2a 0ebd cddb f3bc
00000050: 58f5 d5bc 80d3 8abc a42f f83c c080 d7bc
00000060: c247 993c e043 e5bc 4038 33ba 7c05 5b3c
00000070: b6eb f0bc b02a 283c f826 df3b c064 8c3b
00000080: e4f0 2e3c 74db 113d 4066 9b3b 101e 1a3c
00000090: 8821 c1bc 0135 01bd cefb a83c 8f49 96bc
000000a0: 6476 0d3c 48b8 97bc 6c96 82bc 7671 13bd
000000b0: 8099 42ba 074a 13bd 3bb2 07bd 50eb 983b
000000c0: 9cac 0f3c ac0a 80bc ea99 61bc d467 133c
000000d0: 94a1 82bc 7db8 01bd 2d8a 95bc 1f00 86bc
000000e0: 0049 8139 f4f7 5fbc 9468 e7bb 98f3 fe3b
000000f0: 6080 933c 7a0f 5cbc 7843 b93b c357 9cbc

fc.3.weight f4 [1, 64]
0.02807872 -0.08489904 0.037416816 -0.11660123 0.081745684 0.038425654 -0.044890642 -0.0067787915
0.120725304 -0.089781865 -0.059884623 -0.03735815 -0.013678044 0.008789301 0.07480663 0.0013439953
-0.10553078 0.043024614 -0.08057186 -0.11990839 -0.09893502 -0.12119955 -0.0692803 0.024310663
-0.025637135 0.0127872825 0.042867526 -0.05679728 -0.06783761 0.034429505 -0.098410144 0.091031805
-0.078486204 -0.045541912 -0.089694604 0.07836431 0.0909117 -0.021619916 -0.005709544 -0.08592245
-0.100995645 0.02256754 -0.07828784 0.09260109 0.06010945 0.08281848 0.046814755 0.016304076
0.075225905 0.12120718 -0.1068234 0.052373707 -0.024221882 0.0065995753 0.11399104 0.03803219
0.025304973 -0.0059036016 0.017288327 0.117782965 -0.053082228 -0.123034656 0.030015305 -0.020308733
00000000: 5805 e63c 8cdf adbd 6042 193d a0cc eebd
00000010: 486a a73d 3864 1d3d 40df 37bd a020 debb
00000020: d43e f73d 8edf b7bd 9449 75bd dc04 19bd
00000030: e019 60bc 0001 103c 3834 993d 0029 b03a
00000040: 8620 d8bd 943a 303d dc02 a5bd 8892 f5bd
00000050: 729e cabd 7837 f8bd d4e2 8dbd 2827 c73c
00000060: f804 d2bc c081 513c dc95 2f3d 44a4 68bd
00000070: 72ee 8abd f405 0d3d 428b c9bd e26e ba3d
00000080: 60bd a0bd 288a 3abd ceb1 b7bd 787d a03d
00000090: ea2f ba3d 401c b1bc 2017 bbbb 1cf8 afbd
000000a0: ced6 cebd 90df b83c 6055 a0bd a4a5 bd3d
000000b0: 5435 763d bc9c a93d d4c0 3f3d 2090 853c
000000c0: 0a10 9a3d 783b f83d 3ac6 dabd d085 563d
000000d0: f86c c6bc 4041 d83b 2274 e93d a4c7 1b3d
000000e0: 604c cf3c 0073 c1bb 40a0 8d3c 3238 f13d
000000f0: c06c 59bd 98f9 fbbd a8e2 f53c 805e a6bc
