models/structural_breaks_model.pt (torch, 277855 bytes, 11 tensors)

cnn.0.weight f4 [8, 1, 3, 3]
0	0xbe8a7b42	-0.27047163
1	0x3e1d4f68	0.15362322
2	0x3ea6fb4f	0.32613608
3	0xbe1c36c5	-0.15255268
4	0x3e0ae987	0.13565646
5	0x3e7abcca	0.2448608
6	0x3e9ada18	0.30244517
7	0x3d626013	0.055267405
8	0xbe3516f1	-0.17684533
9	0xbd442b79	-0.04789302
10	0xbdf573e8	-0.11984998
11	0x3e8231eb	0.2542871
12	0x3e3dc179	0.18530835
13	0x3d094e17	0.033521738
14	0x3eb17069	0.34656075
15	0xbeb80102	-0.3593827
16	0xbd8549bc	-0.06508204
17	0xbdd90da9	-0.105983086
18	0x3e383a50	0.17990994
19	0xbe6a05c4	-0.22853762
20	0xbe8dae58	-0.27672076
21	0xbe018787	-0.12649356
22	0x3e56d3cf	0.20979236
23	0x3e303071	0.17205979
24	0xbe7a8f9e	-0.24468848
25	0x3e19181e	0.14950606
26	0xbeb8a931	-0.36066583
27	0x3e8f2a54	0.2796198
28	0x3e26762a	0.16256014
29	0x3d94ff80	0.07275295
30	0xbd2f9e2d	-0.042875458
31	0xbea6913b	-0.32532677
32	0x3dbd455c	0.09241745
33	0xbe4ebcab	-0.20189159
34	0xbe3370bf	-0.17523478
35	0x3d93d3d8	0.0721814
36	0xbcd3339a	-0.025781441
37	0x3c7b9a76	0.015356651
38	0x3e47b880	0.19503975
39	0xbd56efaa	-0.052474655
40	0x3e884077	0.26611683
41	0xbeae7f11	-0.3408132
42	0xbe6ceb0c	-0.23136538
43	0x3eb44869	0.35211495
44	0x3e48e50e	0.19618627
45	0xbd07a3f5	-0.033115346
46	0x3e83013e	0.25586885
47	0x3ed6bd94	0.41941512
48	0xbe55d67d	-0.20882602
49	0xbe66ed86	-0.22551546
50	0xbe585703	-0.21126942
51	0x3cb8796a	0.022518832
52	0xbe639af4	-0.22227079
53	0xbe46ab94	-0.1940139
54	0xbd4abcdc	-0.049496517
55	0x3e0b31ef	0.13593267
56	0xbdba5e70	-0.09100044
57	0xbe2da3b4	-0.16956979
58	0x3de408b2	0.11134471
59	0xbcee06c7	-0.029055966
60	0x398b07bc	0.0002651791
61	0x3e039ea2	0.12853482
62	0xbe3915cf	-0.18074726
63	0x3ea3caab	0.3199056
64	0x3ea5decb	0.3239654
65	0xbe36406b	-0.17798011
66	0xbe6624cc	-0.22474974
67	0x3e808a0c	0.2510532
68	0x3e5c4856	0.21511969
69	0xbed2817d	-0.41114417
70	0x3d3ad77f	0.04561567
71	0xbe6d54e0	-0.23176908

cnn.0.bias f4 [8]
0	0xbe42ca58	-0.190225
1	0xbcfe911e	-0.031075057
2	0xbdc843e9	-0.09778578
3	0x3f0d11b9	0.5510517
4	0x3ee41f3d	0.44555083
5	0x3ea9e9b7	0.33186123
6	0x3e6459f4	0.2229994
7	0x3db3046b	0.08741077

cnn.3.weight f4 [16, 8, 3, 3]
0	0xbd526c41	-0.05137277
1	0xbb0641b1	-0.0020485932
2	0xbe00bfa6	-0.12573108
3	0xbd86236c	-0.06549725
4	0xbe37d0bd	-0.17950721
5	0x3c9ef5e5	0.019404361
6	0xbd5cce53	-0.053907704
7	0x3caa60cf	0.020798115
8	0x3df450c2	0.11929466
9	0xbe2e3402	-0.17012027
10	0xbd2f5d9b	-0.04281388
11	0xbca4b627	-0.020106388
12	0x3c22a9ef	0.009928211
13	0x3d7ec8c8	0.0622032
14	0xbd9373ea	-0.07199843
15	0xbc09e326	-0.008415973
16	0xbe0e97b1	-0.13925053
17	0xbd810235	-0.06299249
18	0xbe805972	-0.2506824
19	0xbe3f92de	-0.18708369
20	0xbdd3318f	-0.10312187
21	0xbe1c273f	-0.15249346
22	0xbe192341	-0.14954855
23	0xbdd2ebe2	-0.10298897
24	0xbe048edc	-0.12945122
25	0xbbbad3b4	-0.0057015065
26	0x3ce4ee13	0.027945554
27	0x3d17aac4	0.03702809
28	0xbddca005	-0.10772709
29	0xb9bcf595	-0.00036041127
30	0x3e8bf180	0.27332687
31	0x3e9004f7	0.28128788
32	0x3e86177a	0.26189786
33	0x3d7d754f	0.061879452
34	0x3e2b8958	0.16751611
35	0x3d542910	0.051796973
36	0xbceb7120	-0.028740466
37	0xbe40ed45	-0.18840511
38	0x3c948640	0.018130422
39	0x3d0ee4e4	0.034886256
40	0x3d9e8455	0.07740084
41	0x3e1b6468	0.1517502
42	0xbdd29daa	-0.10283978
43	0x3de58afe	0.11208151
44	0xba8304be	-0.000999592
45	0xbd5291dc	-0.051408634
46	0xbdb34622	-0.08753611
47	0xbdf8c16e	-0.12146269
48	0xbcb54e65	-0.022132108
49	0xbb759b57	-0.0037476623
50	0x3cd7957c	0.026316397
51	0xbd0a228c	-0.033724353
52	0xbb841e7c	-0.0040319543
53	0x3d19b063	0.03752173
54	0xbd99df1d	-0.075132586
55	0xbe07f45d	-0.13276811
56	0xbd30e504	-0.043187156
57	0xbde14215	-0.10998932
58	0x3db9ddb2	0.09075488
59	0xbdaabf51	-0.08337272
60	0xbd5f4868	-0.05451241
61	0x3e0eff8d	0.13964672
62	0x3d971744	0.073774844
63	0xbd2e8e7a	-0.042616345
64	0x3e09c2e8	0.13453257
65	0x3d4c9d12	0.04995448
66	0x3e21c9d4	0.15799648
67	0x3e06f67c	0.13179964
68	0x3d8a2d4a	0.067469195
69	0xbe1380c9	-0.14404596
70	0x3d8c98fc	0.06865117
71	0xbd86f1fa	-0.06589122
72	0x3cb3f093	0.0219653
73	0x3d24eae7	0.040263083
74	0xbbef299a	-0.0072986605
75	0xbd6e4522	-0.0581714
76	0xbe02e640	-0.12783146
77	0xbd3fdc2b	-0.046840828
78	0x3e32c9ae	0.17459747
79	0x3d53cb7a	0.051707722
80	0x3d6f71b5	0.05845805
81	0xbceacc23	-0.028661793
82	0xbe34fb52	-0.17673996
83	0xbe6d32dc	-0.23163933
84	0x3d3f967f	0.046774384
85	0x3bf40eea	0.007448067
86	0xbdb138e7	-0.086534314
87	0x3da7ec21	0.08199335
88	0x3d473c14	0.04864128
89	0x3d1ebd7a	0.038754918
90	0xbe375827	-0.17904721
91	0xbda15efd	-0.07879446
92	0xbbc9e75d	-0.006161614
93	0xbdf739f7	-0.12071603
94	0xbb483875	-0.003055123
95	0x3d30f567	0.043202784
96	0xbe1e5bae	-0.1546466
97	0xbe2d7bb6	-0.16941723
98	0x3c90ba72	0.017667029
99	0x3d50b842	0.050956972
100	0x3db8913c	0.09012076
101	0xbd9a2b53	-0.07527795
102	0x3d81dde0	0.063411474
103	0x3ce48f92	0.02790049
104	0x3db08003	0.08618166
105	0x3e10122e	0.14069435
106	0x3e0277de	0.12741038
107	0xbda67877	-0.081284456
108	0xbd42c1e5	-0.047548193
109	0x3d2ed2c4	0.04268147
110	0xbb99a799	-0.0046891687
111	0xbc5e49d9	-0.013567411
112	0x3d28b74a	0.041190423
113	0x3d166841	0.036720518
114	0x3df37ba6	0.118888184
115	0x3c95091b	0.018192818
116	0x3e33f20c	0.17572802
117	0x3d3b7520	0.045765996
118	0xbb98e747	-0.0046662423
119	0xbcfe1574	-0.031016089
120	0xbdb164a2	-0.08661772
121	0x3de9d991	0.114184506
122	0xbcc45ade	-0.02396911
123	0x3c514a03	0.012773993
124	0xbd02a71a	-0.03189764
125	0x3cda03c9	0.026613133
126	0xbe0a4b18	-0.13505208
127	0xbcfc5cad	-0.03080591
128	0xbc9f3fed	-0.019439662
129	0x3d84ed32	0.06490554
130	0xbdbd3037	-0.09237712
131	0xbde76f29	-0.11300499
132	0xbe038513	-0.12843733
133	0x3d4ea5f4	0.050451234
134	0xbe1bf836	-0.15231404
135	0xbdb1f2d1	-0.08688892
136	0xbc9979cf	-0.01873484
137	0xbe06a76d	-0.13149805
138	0xbe06a102	-0.13147357
139	0xbe491f19	-0.19640769
140	0xbde6636f	-0.11249434
141	0xbcce10c8	-0.025154486
142	0x3e015168	0.1262871
143	0xb8253a30	-3.9393257e-05
144	0xbdc12233	-0.09430351
145	0x3e3ca8ed	0.18423815
146	0xbbece167	-0.0072290185
147	0xbded85e8	-0.11597806
148	0x3dd81128	0.10550147
149	0xbc8d9fce	-0.017288115
150	0xbe477ad9	-0.19480456
151	0x3e12ee20	0.1434865
152	0x3bcbb1ad	0.006216249
153	0xbdf47f03	-0.11938288
154	0x3dc38132	0.095461264
155	0xbd880f36	-0.06643526
156	0xbe154114	-0.14575607
157	0xbd1a5b9d	-0.037685025
158	0xbd7cd242	-0.061723955
159	0xbc1e06df	-0.009645193
160	0x3e01abfc	0.12663263
161	0xbc00657b	-0.007836695
162	0xbda87a64	-0.08226469
163	0x3d27a598	0.040929407
164	0x3dd83aa1	0.105580576
165	0xbd1aee92	-0.037825175
166	0xbe03f50e	-0.1288645
167	0x3dde6623	0.10859325
168	0xbccf701d	-0.025322014
169	0xbd412812	-0.047157355
170	0xbd9311d0	-0.07181132
171	0xbcc7ca26	-0.024388384
172	0x3d327daf	0.043576892
173	0x3d7ea0ed	0.06216519
174	0xbdf9a2a9	-0.12189228
175	0xbc02c637	-0.007981828
176	0xbdd37f0a	-0.10326965
177	0xbe25558b	-0.16145913
178	0x3e158fde	0.14605662
179	0xbd3322b7	-0.04373428
180	0xbddfcf27	-0.10928183
181	0x3d528327	0.051394608
182	0xbd90a198	-0.070620716
183	0xbe4a641e	-0.19764754
184	0x3e21c23d	0.15796752
185	0xbd950e30	-0.07278097
186	0xbe45e9f6	-0.1932753
187	0x3d02eebe	0.031965964
188	0x3d31407b	0.043274384
189	0xbe0e113e	-0.13873765
190	0x3de00409	0.1093827
191	0xbaaaec2a	-0.0013040353
192	0xbe203d20	-0.15648317
193	0xbdbde22e	-0.09271656
194	0xbdbd0a6e	-0.09230505
195	0xbe093cfe	-0.13402173
196	0x3d846920	0.064653635
197	0x3d8daef0	0.06918132
198	0xbde0c452	-0.10974945
199	0x3e356065	0.17712553
200	0x3e04a9ea	0.12955442
201	0xbd4557e1	-0.04817951
202	0x3b42c8f6	0.0029721833
203	0xbdcb4454	-0.09925142
204	0xbdebf6e3	-0.11521699
205	0xbd265409	-0.040607486
206	0xbd944fa3	-0.07241752
207	0xbbb02175	-0.005375082
208	0x3e6de228	0.23230803
209	0x3e07d7b7	0.13265882
210	0xbc87da2d	-0.016583527
211	0x3d92ba4e	0.07164441
212	0x3d80cc4f	0.06288969
213	0xbe0c8fbe	-0.13726708
214	0x3d8509e9	0.06496031
215	0xbc5f731c	-0.013638284
216	0xbcd13792	-0.025539193
217	0x3b9aaedc	0.004720552
218	0xbd9ca7ee	-0.076492175
219	0xbcdd5ae0	-0.027020872
220	0x3b659fee	0.0035037952
221	0x3de32a7e	0.11092089
222	0xbd671ca3	-0.056423794
223	0x3cb87d0d	0.022520566
224	0xbe1025b8	-0.14076889
225	0xbdf2c0aa	-0.11853154
226	0x3d595bbf	0.05306601
227	0x3c0fa327	0.008766926
228	0xbbfec7a3	-0.0077752634
229	0x3db316a8	0.08744556
230	0x3c11db68	0.008902408
231	0x3e1e49b9	0.1545781
232	0x3ca42aed	0.02004
233	0xbb5b8ba7	-0.0033499987
234	0xbd5e6840	-0.05429864
235	0xbe1700a8	-0.14746344
236	0xbd90b2a7	-0.07065325
237	0xbca0dd39	-0.019636737
238	0xbe16292a	-0.1466414
239	0xbd7fbca4	-0.06243576
240	0x3c42a343	0.011879745
241	0x3d1229cf	0.035684403
242	0x3e15c8de	0.14627406
243	0x3e0ff743	0.14059167
244	0x3e0aed7a	0.13567153
245	0x3e2634f8	0.16231143
246	0x3d7c916d	0.061662126
247	0x3dd0c9b7	0.10194724
248	0x3e367962	0.17819741
249	0x3e132842	0.14370826
250	0x3e452561	0.1925254
251	0x3e302663	0.17202143
252	0x3e2d28ec	0.16910142
253	0x3e3287a5	0.17434557
254	0x3e41c7ee	0.18923923
255	0x3d28f77b	0.04125164

cnn.3.bias f4 [16]
0	0x3e8dc6f7	0.2769086
1	0x3c19e94d	0.009394002
2	0xbb7bebdc	-0.0038440144
3	0x3d50d066	0.050979994
4	0xbe0b53fc	-0.13606256
5	0x3e32aa42	0.1744776
6	0xbd58bba2	-0.052913316
7	0x3e225dda	0.15856114
8	0x3e6a505f	0.22882222
9	0x3e41de8e	0.18932554
10	0x3e774659	0.24147929
11	0xbd849559	-0.06473798
12	0xbde08d62	-0.10964467
13	0xbd50238b	-0.050815146
14	0x3b62ac20	0.0034587458
15	0x3c2660fe	0.010154961

lstm.weight_ih_l0 f4 [256, 3]
0	0x3b86076a	0.0040902393
1	0xbd0ecf16	-0.03486546
2	0x3d8637b4	0.06553593
3	0xbc31cd41	-0.010852159
4	0x3d7e48d7	0.062081184
5	0x3da5efd9	0.08102388
6	0x3b3b8ece	0.0028619054
7	0x3e59fc39	0.21287622
8	0x3db1ae3d	0.086758114
9	0x3d54eba9	0.051982556
10	0xbbdc4e9f	-0.0067232396
11	0xbd85c66e	-0.06531988
12	0xbdc7be64	-0.09753111
13	0xbd74e010	-0.059783995
14	0xbcb34e70	-0.021887988
15	0x3df91c8d	0.12163649
16	0xbd6ce98c	-0.057839915
17	0xbcc239b2	-0.023709152
18	0x3d872970	0.065997005
19	0xbd3bd857	-0.045860615
20	0xbc2066f8	-0.009790175
21	0x3d6c1030	0.057632625
22	0xbb78c16c	-0.0037957085
23	0xbb80590e	-0.003916866
24	0x3f04aea7	0.51829
25	0x3d633354	0.055468872
26	0xbe7ba1c8	-0.24573433
27	0x3e873c10	0.26413012
28	0x3e3049c5	0.17215641
29	0xbe7bd327	-0.24592267
30	0x3dc5bd18	0.096552074
31	0x3dee391e	0.11631988
32	0x3e120bf3	0.14262371
33	0xbdfa38a6	-0.12217836
34	0xbdd9c51a	-0.10633297
35	0xbd801936	-0.062548086
36	0x3e820a10	0.25398302
37	0x3d8e450a	0.06946762
38	0xbea24c40	-0.316988
39	0x3dbaf040	0.09127855
40	0x3df5fc39	0.12010998
41	0x3da7da05	0.08195881
42	0x3c79acd9	0.015238964
43	0x3d8181ee	0.0632361
44	0x3dadbb87	0.084830336
45	0x3ce2eb7b	0.027700176
46	0x3da89701	0.08231927
47	0x3e051e6a	0.12999883
48	0xbc114d2e	-0.008868499
49	0xbd91efb6	-0.07125799
50	0x3cea4370	0.02859661
51	0x3d2cca74	0.04218526
52	0x3dd33a57	0.10313862
53	0xbdd94a1b	-0.106098376
54	0x3d155fff	0.036468502
55	0xbd983107	-0.07431226
56	0xbb6b4556	-0.0035899482
57	0x3d1d8919	0.038460825
58	0xbd922075	-0.07135097
59	0xbe7fe3a0	-0.24989176
60	0x3d265126	0.040604733
61	0x3c49d0be	0.012317834
62	0xbd358a7b	-0.04432152
63	0xbda3e295	-0.080022015
64	0x3df1d4a1	0.11808134
65	0xbd3e182e	-0.04640978
66	0x3c3ae764	0.011407707
67	0xbc102406	-0.008797651
68	0x3d99c147	0.07507568
69	0x3e05fc76	0.13084587
70	0xbdb17eda	-0.08666773
71	0x3cfd4795	0.030917922
72	0xbd88ef9c	-0.06686327
73	0xbda82e67	-0.082119755
74	0xbdc841d9	-0.097781844
75	0xbce62aa7	-0.02809651
76	0xbcb7ac50	-0.022421032
77	0x3dc9ddc0	0.098567486
78	0x3d2d7ea1	0.04235709
79	0x3dbe1e35	0.09283105
80	0x3d936118	0.071962535
81	0x3dd9e2a0	0.106389284
82	0x3e00b390	0.12568498
83	0xbcdbffc3	-0.026855355
84	0x3d4b2ea7	0.049605038
85	0x3d65b091	0.05607659
86	0x3db4324b	0.08798655
87	0xbd5f820b	-0.054567378
88	0xbd9ad94d	-0.07560978
89	0xbde3398b	-0.1109496
90	0x3e0280e1	0.12744476
91	0xbe00c8d9	-0.12576617
92	0xbd5206da	-0.051276065
93	0x3b7dae6b	0.0038708698
94	0x3d195636	0.037435733
95	0xbce2bd90	-0.027678281
96	0x3b9cd46d	0.0047860653
97	0xbd9b5f5c	-0.07586548
98	0x3db6df44	0.08929303
99	0x3e358b58	0.17728937
100	0x3e23831b	0.15967982
101	0x3da341e2	0.079715505
102	0x3df3ae97	0.11898535
103	0xbd37358d	-0.044728804
104	0x3e12d170	0.14337707
105	0x3c4a8db4	0.012362886
106	0x3d24f0db	0.04026876
107	0x3d091b0c	0.03347306
108	0x3dcf6c84	0.101281196
109	0xbd738b79	-0.059459183
110	0xbdb4b83f	-0.08824205
111	0x3e0c20cc	0.13684386
112	0xbc5f36eb	-0.013623933
113	0x3dc6dd9a	0.09710236
114	0xbc7dc2ca	-0.015488336
115	0xbd01b9ab	-0.031671207
116	0x3e108b7c	0.14115709
117	0x3bc715f7	0.0060756165
118	0xbdd1514b	-0.102205835
119	0xbd3c1e4a	-0.045927323
120	0x3c88a7f1	0.016681643
121	0x3dda4fd1	0.10659755
122	0x3dc24dfd	0.09487531
123	0x3dd6b064	0.104828626
124	0x3d9c6ce8	0.0763796
125	0xbd0ee7ff	-0.034889217
126	0x3df3e254	0.11908403
127	0x3dbcafea	0.092132404
128	0x3e003f43	0.12524132
129	0x3dfd511c	0.12368986
130	0x3e11cced	0.14238329
131	0x3e0e4dc4	0.13896853
132	0xbc304713	-0.010759133
133	0x3d1d8569	0.038457308
134	0x3ccb1a00	0.024792671
135	0xbd6c8ba9	-0.057750378
136	0x3d506319	0.050875757
137	0xbd4fd806	-0.050743125
138	0x3e885438	0.26626754
139	0xbd7358b1	-0.059410755
140	0xbe869364	-0.26284325
141	0x3da7b217	0.08188265
142	0x3d24d744	0.040244356
143	0xbcacac37	-0.021078212
144	0xbc3ae1de	-0.01140639
145	0xbd52acc0	-0.05143428
146	0x3e156c9f	0.14592217
147	0x3cca3f20	0.024688303
148	0x3de1e188	0.11029345
149	0x3e2055e9	0.15657772
150	0xbd70c13f	-0.058778044
151	0xbdcdd780	-0.10050869
152	0x3d915bf2	0.07097615
153	0xbd887472	-0.06662835
154	0x3dbede06	0.09319691
155	0xbd37952a	-0.04481999
156	0xbc842ba9	-0.0161341
157	0xbd9ddb4f	-0.077078454
158	0x3dae7513	0.08518424
159	0xbd2934f9	-0.041310284
160	0xbe18f16c	-0.14935845
161	0xbe38a43b	-0.18031399
162	0xbd5e0d29	-0.05421177
163	0xbc6a1990	-0.014288321
164	0xbd44bf12	-0.04803378
165	0x3d38702b	0.045028847
166	0x3cbaad21	0.022787632
167	0x3daaac3e	0.08333634
168	0xbe01e81e	-0.12686202
169	0xbda23257	-0.07919758
170	0x3d8834e1	0.06650711
171	0x3e84b7a6	0.25921363
172	0x3e0150fb	0.12628548
173	0x3e95799e	0.2919435
174	0xbd6b755e	-0.057484977
175	0xbd468832	-0.04846973
176	0x3db45de4	0.08806971
177	0x3c81b064	0.01583118
178	0x3e000fca	0.12506023
179	0xbddaed91	-0.106898434
180	0xbdc553b4	-0.09635106
181	0xbe053538	-0.13008583
182	0xbd97b153	-0.07406869
183	0x3dca8e5b	0.098904334
184	0xbd881a26	-0.066456124
185	0x3d5fd789	0.05464891
186	0x3d7ba66c	0.06143801
187	0x3d7112ba	0.05885575
188	0xbd88f747	-0.066877894
189	0xbcf89591	-0.030344756
190	0xbd903837	-0.07041972
191	0x3aad6326	0.0013228401
192	0xbcd0069f	-0.025393782
193	0x3a0e8b32	0.0005437612
194	0xbc85b998	-0.01632385
195	0xbde17e9d	-0.11010478
196	0xbbc98d6e	-0.006150893
197	0xbdaa352f	-0.08310925
198	0x3e308c7b	0.17241089
199	0x3d2ad967	0.041711237
200	0xbe5e06df	-0.21682309
201	0x3d032d30	0.032025516
202	0x3e4f9cd1	0.20274664
203	0xbc1fdc44	-0.009757105
204	0xbd5d1a30	-0.053980052
205	0x3dcb5258	0.09927815
206	0x3d43b13d	0.04777645
207	0xbdb0437a	-0.0860662
208	0xbd348321	-0.044070367
209	0xbd38f2d3	-0.04515345
210	0xbc118b74	-0.008883346
211	0xbb7f9d71	-0.0039003755
212	0x3cb61a4b	0.022229334
213	0x3ccf99d6	0.02534191
214	0xbd578f22	-0.052626736
215	0xbd255336	-0.04036256
216	0x3ee52cf4	0.4476086
217	0xbbd652e3	-0.0065406426
218	0xbe9ad17a	-0.30237943
219	0x3e8668d6	0.26251858
220	0x3e14f241	0.14545538
221	0xbeaf872c	-0.34282815
222	0x3e24f9ac	0.16110867
223	0x3dba9e94	0.091122776
224	0x3db9d048	0.090729296
225	0xbc928d65	-0.017889688
226	0xbddd3d6e	-0.108027324
227	0x3d7282bc	0.05920671
228	0x3e15e169	0.14636768
229	0xbd35b9ee	-0.04436677
230	0xbe552d6d	-0.2081811
231	0x3c02dbd6	0.007986983
232	0x3e06e986	0.1317502
233	0xbd891302	-0.066930786
234	0xbdd92fe6	-0.10604839
235	0x3dcd16fd	0.1001415
236	0x3e14a248	0.1451503
237	0x3e147973	0.14499454
238	0xbd6022b8	-0.05472061
239	0x3e004930	0.12527919
240	0xbd8b113b	-0.06790396
241	0xbdae6cbc	-0.08516833
242	0x3b47bfaa	0.003047923
243	0xbda98cf0	-0.08278835
244	0x3dc1a18f	0.09454643
245	0x3d672560	0.056432128
246	0xbba410a6	-0.0050068675
247	0x3db98e48	0.09060341
248	0x3d79d3df	0.06099307
249	0x3d849bee	0.06475054
250	0xbdc450d8	-0.09585732
251	0xbe23eb0f	-0.16007636
252	0x3d504ca5	0.050854344
253	0x3d735fc9	0.05941752
254	0xbc443acc	-0.011976909
255	0x3e141c88	0.14464009

lstm.weight_hh_l0 f4 [256, 64]
0	0x3d4e8e95	0.050428946
1	0xbe133a14	-0.14377624
2	0xba02bea9	-0.0004987517
3	0x3d477b56	0.048701607
4	0x3c94bd53	0.018156683
5	0xbdca9a40	-0.09892702
6	0xbdb2eb85	-0.08736328
7	0x3d8bd8a9	0.06828434
8	0x3d4793ee	0.04872506
9	0x3d90285d	0.07038949
10	0xbd86560f	-0.06559383
11	0x3dd82dd0	0.10555613
12	0xbd7c1b1a	-0.061549284
13	0xbda68455	-0.08130709
14	0xbdaabe42	-0.0833707
15	0x3e10333b	0.14082043
16	0xbe19bc3c	-0.15013212
17	0xbd589b39	-0.052882407
18	0x3d60a7bd	0.054847468
19	0xbdd19153	-0.102327965
20	0xbd27c89b	-0.040962797
21	0xbd862633	-0.06550255
22	0xbd00aa47	-0.03141239
23	0xbd952989	-0.07283313
24	0x3d2ec5c2	0.042669065
25	0x3da56f72	0.08077897
26	0xbbe3fa0b	-0.0069572977
27	0xbd8abf30	-0.06774747
28	0xbd80283d	-0.06257675
29	0x3b303e62	0.0026892652
30	0xbceb0a78	-0.028691515
31	0xbd07d214	-0.03315933
32	0xbdb06ecf	-0.08614885
33	0x3c5fc855	0.013658603
34	0xbd6f6b01	-0.058451656
35	0xbcb4a78d	-0.02205255
36	0xbc7960e5	-0.015220855
37	0x3c546f4b	0.012965987
38	0xbd353847	-0.044243123
39	0xbdb411e7	-0.08792477
40	0xbe29c411	-0.165787
41	0x3dc67b89	0.09691531
42	0x3e258eb9	0.16167726
43	0xbd2b2dcb	-0.04179172
44	0xbdac69ce	-0.08418618
45	0xbdcc0b03	-0.09963038
46	0x3c544e6c	0.01295815
47	0x3cfc1714	0.030772723
48	0xbccdffe9	-0.025146442
49	0xbc94dd7d	-0.01817202
50	0xbcae295a	-0.021259952
51	0x3da54e0b	0.08071526
52	0x3d6d682d	0.057960678
53	0x3bdd23ec	0.006748667
54	0xbd6a6bfc	-0.05723189
55	0xbd6a1a83	-0.05715419
56	0xbde97734	-0.11399689
57	0x3d8668b7	0.065629415
58	0x3e188a86	0.14896592
59	0x3d4e24a1	0.0503279
60	0x3ddca408	0.10773474
61	0x3d812e76	0.0630769
62	0x3dd2d0cc	0.10293731
63	0x3d70cfc9	0.05879191
64	0xbd012fd9	-0.03153977
65	0x3d706af7	0.05869576
66	0x3d74f6cd	0.05980568
67	0x3c37d727	0.01122073
68	0xbdd7edef	-0.10543429
69	0xbde68d87	-0.11257463
70	0x3c400ce5	0.011721824
71	0xbc328638	-0.010896258
72	0xbde76d4a	-0.11300142
73	0x3cd311c1	0.025765302
74	0xbddff8f8	-0.10936159
75	0xbb9ae240	-0.004726678
76	0xbe03700d	-0.12835713
77	0xbc0f2c4c	-0.008738589
78	0x3d871297	0.065953426
79	0x3d953ea0	0.072873354
80	0xbba4c932	-0.005028867
81	0x3b86aef0	0.0041102096
82	0xbd95726c	-0.07297215
83	0xbc12b09a	-0.008953238
84	0xbcec647a	-0.028856505
85	0x3c4aeacd	0.012385082
86	0xbd9ec57d	-0.07752512
87	0x3d945ed8	0.072446525
88	0x3dcc8d18	0.09987849
89	0x3c12a97a	0.008951539
90	0xbdc80eb1	-0.09768427
91	0x3d966c88	0.073449194
92	0xbd60784c	-0.054802224
93	0xbe0a8175	-0.13525946
94	0x3de52583	0.111887954
95	0xbde5c1d2	-0.11218609
96	0xbccfa58c	-0.025347494
97	0x3d12555d	0.03572594
98	0x3d80f6a4	0.06297043
99	0x3df73c48	0.120720446
100	0x3db1ccce	0.086816415
101	0xbd408cc8	-0.04700926
102	0x3d4d2acf	0.050089654
103	0x3de14dc0	0.11001158
104	0xbda5a0ed	-0.08087335
105	0xbd8a000a	-0.06738289
106	0x3d8023fb	0.06256863
107	0x3e12526d	0.14289255
108	0x3d94a825	0.072586335
109	0xbd9f54ec	-0.077798694
110	0x3c8185ab	0.015810808
111	0xbd95098e	-0.07277213
112	0x3d49bb28	0.04925075
113	0x3d88d549	0.06681306
114	0x3b408743	0.0029377497
115	0x3dd47e7a	0.10375686
116	0xbd5a83ba	-0.05334828
117	0x3d428442	0.047489412
118	0xbd04add7	-0.03239235
119	0xbe06e5f5	-0.13173659
120	0x3d10a139	0.035310004
121	0xbd3fbd2f	-0.04681128
122	0x3d9d02b2	0.0766653
123	0x3e0d03eb	0.13771026
124	0x3d820e79	0.06350417
125	0x3c94972f	0.018138496
126	0xbda34b51	-0.0797335
127	0xbce16cb4	-0.027517654
128	0xbd6d26d8	-0.057898372
129	0xbd865973	-0.0656003
130	0xbe11ecba	-0.1425046
131	0x3da628c5	0.08113245
132	0xbdde300e	-0.108490095
133	0x3db59062	0.088654295
134	0xbd258df3	-0.040418576
135	0xbde66468	-0.1124962
136	0x3d4a4b95	0.049388487
137	0xbca5a553	-0.020220434
138	0xbe1d87ea	-0.15383878
139	0x3de34e51	0.11098922
140	0x3dc88ba9	0.09792263
141	0xbc4d6a2e	-0.012537522
142	0x3de1cdb4	0.11025563
143	0x3cd4991e	0.025951918
144	0xbdbd1295	-0.0923206
145	0x3d2ed04f	0.042679127
146	0x3dc32014	0.09527603
147	0x3dacc2d4	0.08435598
148	0x3cb813cb	0.022470376
149	0xbdafeacd	-0.085897066
150	0x3ce4704c	0.027885579
151	0xbd8192ac	-0.063268036
152	0xbd90a97c	-0.070635766
153	0xbd856009	-0.06512458
154	0xbd762c2d	-0.060100723
155	0xbde14c5a	-0.11000891
156	0x3dc8ea6f	0.0981034
157	0xbc070450	-0.008240774
158	0x3dfa06c5	0.122083224
159	0x3cab1498	0.020883843
160	0x3d39148c	0.04518561
161	0xbd3955b9	-0.045247767
162	0xbdc5eeb1	-0.096646674
163	0xbdae64a1	-0.08515287
164	0xbda469e0	-0.080280066
165	0x3e01ede4	0.12688404
166	0x3d834fd2	0.06411709
167	0xbd6e79e8	-0.058221728
168	0x3c7dc446	0.01548869
169	0x3dede4d2	0.1161591
170	0xbd3ae010	-0.04562384
171	0x3d9718eb	0.073777996
172	0xbd008029	-0.031372223
173	0x3d5b712d	0.05357473
174	0x3d8973f3	0.06711569
175	0x3cbf2202	0.023331646
176	0xbdb6d0a5	-0.089265145
177	0xbd50e7da	-0.05100236
178	0xbd90bd82	-0.07067396
179	0xbdfb191e	-0.1226065
180	0x3e64ce99	0.22344436
181	0x3dbf8a43	0.09352543
182	0x3da86d48	0.08223969
183	0x3dd5bba8	0.10436183
184	0xbd3d846c	-0.046268865
185	0x3d96b6f3	0.073591135
186	0xbcd8425b	-0.026398828
187	0x3d2f73dd	0.042835105
188	0x3e0ab983	0.1354733
189	0x3d391611	0.04518706
190	0xbacf7bc9	-0.0015829738
191	0x3dc25ee5	0.09490756
192	0xbe3116b0	-0.17293811
193	0xbc80cbb9	-0.015722143
194	0xbd10894f	-0.035287198
195	0xbe2998e5	-0.16562231
196	0x3d7fd10a	0.062455215
197	0xbdbadc63	-0.09124067
198	0x3c8ebe3e	0.017424699
199	0x3e050ce2	0.12993196
200	0xbdebc5c7	-0.115123324
201	0x3d7b66a5	0.061377186
202	0xbe19d9b9	-0.15024461
203	0x3c9a8192	0.018860612
204	0x3d491249	0.049089704
205	0x3d02ad44	0.03190352
206	0xbc8dca28	-0.01730831
207	0x3d3c1aa6	0.04592385
208	0xbe100852	-0.14065674
209	0xbd208184	-0.039186016
210	0x3ddb495a	0.1070735
211	0xbe1a5dc4	-0.15074831
212	0xbdc927fa	-0.09822078
213	0xbc93d3bf	-0.018045304
214	0xbe055fd6	-0.1302484
215	0xbcd3ddfa	-0.025862683
216	0x3e44ed1d	0.19231077
217	0x3d387a76	0.045038663
218	0x3d3f20d1	0.046662156
219	0xbe32d5f5	-0.1746443
220	0xbd64c14c	-0.055848405
221	0x3deefe49	0.11669595
222	0xbd59a2ce	-0.05313378
223	0xbd938892	-0.07203783
224	0xbdbdf94b	-0.092760645
225	0x3aeaf144	0.0017924686
226	0xbbe34229	-0.006935377
227	0x3cd3d4c6	0.025858294
228	0x3c79b7df	0.015241592
229	0x3d64bf66	0.055846594
230	0x3e309d46	0.17247495
231	0xbcb7d04e	-0.022438195
232	0xbdbc9b08	-0.09209257
233	0x3dc22814	0.094803005
234	0x3c93c142	0.018036488
235	0x3e11a7cc	0.14224166
236	0x3d697224	0.05699362
237	0xbe183ec7	-0.14867698
238	0x3e2be047	0.16784774
239	0xbcb07e04	-0.021544464
240	0xbce495e5	-0.027903507
241	0x3d2aa082	0.04165698
242	0x3d86bf3c	0.06579444
243	0x3e0dee3d	0.13860412
244	0xbe03ae07	-0.12859355
245	0xbd8feadf	-0.0702722
246	0x3d03fc76	0.032223187
247	0xbe370da4	-0.17876297
248	0x3d33ca7e	0.043894283
249	0xbd17dc02	-0.03707505
250	0x3dc8634f	0.097845666
251	0x3de0c18a	0.10974415
252	0xbd3f2223	-0.046663415
253	0xbc1d371c	-0.009595659
254	0x3e2ee721	0.17080356
255	0xbdcbba72	-0.09947671

lstm.bias_ih_l0 f4 [256]
0	0xbd5a4a7f	-0.0532937
1	0xbbacaffb	-0.005270002
2	0xbd852cfb	-0.0650272
3	0x3d9729a0	0.07380986
4	0x3d338cae	0.043835334
5	0x3dfa034e	0.122076616
6	0xbcac78ed	-0.021053756
7	0xbdab40d7	-0.083619766
8	0x3d9d6e0a	0.07687004
9	0x3d906618	0.07050723
10	0xbb8e822b	-0.0043490133
11	0x3e1769a9	0.147864
12	0xbd1f059e	-0.038823716
13	0x3dce02c4	0.10059121
14	0x3d8cb5db	0.06870624
15	0xbd2ee59f	-0.042699452
16	0x3d48fbdb	0.049068313
17	0x3d8dc490	0.06922257
18	0x3e0582c9	0.13038172
19	0xbd872e4e	-0.06600629
20	0xbd80a10b	-0.062807165
21	0xbc27ccb8	-0.01024168
22	0xbbb91be9	-0.005649079
23	0xbdb3efd1	-0.08785976
24	0x3ddd0354	0.107916504
25	0x3d012238	0.031526774
26	0xbd26a42b	-0.040683907
27	0x3e014501	0.12623979
28	0x3bd1ac3d	0.006398706
29	0x3e017c9c	0.12645191
30	0xbd59445a	-0.0530437
31	0xbde26928	-0.11055213
32	0x3def1aa3	0.116750024
33	0xbd05876a	-0.032599844
34	0x3dd1f7cd	0.102523424
35	0x3e2a7e2c	0.16649693
36	0x3d0ef087	0.034897354
37	0x3de4a061	0.11163402
38	0x3c8f1670	0.017466754
39	0x3c5d0f97	0.013492486
40	0xbd735034	-0.05940266
41	0x3da2c455	0.079476036
42	0xbd712e20	-0.05888188
43	0x3c5f1b95	0.013617416
44	0x3cd623c4	0.026140101
45	0x3e12ad53	0.1432393
46	0x3d076b53	0.033061337
47	0xbd5754eb	-0.05257122
48	0xbd223231	-0.039598648
49	0x3ca8f429	0.020624237
50	0x3de1b3da	0.11020632
51	0x3e0c497b	0.13699906
52	0x3dd49691	0.10380281
53	0x3e18daf9	0.14927281
54	0x3c58cc28	0.013232268
55	0x3d0833ca	0.033252515
56	0x3df897b7	0.12138312
57	0xbd05b0c2	-0.032639273
58	0xbd248c44	-0.04017283
59	0x3e07ae12	0.13249996
60	0x3e150e78	0.145563
61	0x3e08bd89	0.13353552
62	0xbdb7532b	-0.0895141
63	0x3e0b5e3f	0.13610171
64	0x3e010e2a	0.1260306
65	0x3dbf0347	0.09326797
66	0x3cad3954	0.0211455
67	0xbc5bea83	-0.013422611
68	0xbc28f6c4	-0.01031274
69	0xbdbf581a	-0.09342976
70	0x3c1be0f8	0.009514086
71	0x3d383d86	0.04498055
72	0x3e0c61bb	0.13709156
73	0x3e0c4638	0.13698661
74	0xbc86b8ae	-0.016445484
75	0x3d49769e	0.049185388
76	0xbceb900a	-0.028755207
77	0x3d3b1ef5	0.04568382
78	0x3dda6a14	0.10664764
79	0x3c49f774	0.012327064
80	0xbc217eeb	-0.00985692
81	0xbd2946ca	-0.041327275
82	0xbda08ec6	-0.07839732
83	0x3ddd1fb2	0.10797061
84	0xbd22c316	-0.03973683
85	0xbc60a566	-0.013711309
86	0x3e1275f4	0.14302808
87	0x3cd25a28	0.025677755
88	0xbcbb8db8	-0.022894725
89	0x3df21ee9	0.11822302
90	0xbd100b5f	-0.035167094
91	0xbbe64a84	-0.007027926
92	0x3da9313c	0.08261344
93	0x3d863d9e	0.06554721
94	0x3d4db5fa	0.050222374
95	0xbc1371a5	-0.008999263
96	0xbd4a8b9d	-0.04944955
97	0x3d389868	0.04506722
98	0xbd2ecaec	-0.04267399
99	0x3dde0773	0.108412646
100	0x3dd61f7c	0.10455224
101	0xbd97d920	-0.0741446
102	0x3e03864f	0.12844203
103	0xbd23e98e	-0.040017657
104	0x3d39c3d4	0.045352772
105	0x3ce3493a	0.027744878
106	0x3cb47dd0	0.022032648
107	0xbd26663c	-0.040624842
108	0xbcaa13ea	-0.020761449
109	0x3ce9e515	0.028551618
110	0x3cddaac7	0.027058972
111	0xbcae5e02	-0.02128506
112	0x3d825ef3	0.063657664
113	0x3d84f6b5	0.06492368
114	0xbd38efb5	-0.045150477
115	0x3d4a4578	0.049382657
116	0xbd4abe58	-0.049497932
117	0x3de47f06	0.1115704
118	0x3df3fa30	0.11912954
119	0x3b5a3b43	0.0033299483
120	0x3df75ccb	0.12078246
121	0xbdd95f82	-0.1061392
122	0x3e0c8dd2	0.13725975
123	0x3b9c5e71	0.0047720005
124	0xbd05e97f	-0.032693382
125	0xbd431158	-0.047623962
126	0x3d8cc917	0.06874292
127	0x3cbd2177	0.023087246
128	0x3d8f4cce	0.06997071
129	0xbc8e6673	-0.017382836
130	0xbd9e732a	-0.077368096
131	0xbb90d409	-0.004419808
132	0x3d4dbf8b	0.050231498
133	0x3d85c888	0.06532389
134	0x3cbf806b	0.023376664
135	0x3d3fe72e	0.04685133
136	0xbcd16e83	-0.025565391
137	0x3e0ac81c	0.13552898
138	0xbe16ee17	-0.14739262
139	0x3d33d6cf	0.04390603
140	0xbd5eb7eb	-0.054374617
141	0xbdfbc338	-0.122930944
142	0x3da2993e	0.07939385
143	0x3e016e5e	0.12639758
144	0xbd33de87	-0.04391339
145	0x3e0f185e	0.13974139
146	0x3cc966f5	0.024585227
147	0xbe2303b2	-0.15919378
148	0xbe093430	-0.13398814
149	0xbdf1f71f	-0.11814713
150	0xbe1015ee	-0.14070866
151	0x3cef06a2	0.029177967
152	0x3dd78342	0.10523082
153	0x3c8e0868	0.017337993
154	0xbe11da99	-0.14243545
155	0xbdeb0f57	-0.11477535
156	0xbdff7a9b	-0.12474557
157	0xbc25b01b	-0.010112788
158	0xbbdb277b	-0.006688056
159	0x3ccea32f	0.025224296
160	0xbcb0cad7	-0.021581097
161	0x3d984701	0.07435418
162	0x3da1f8a9	0.07908756
163	0x3da316ee	0.07963358
164	0x3ddf64aa	0.10907872
165	0x3dddef61	0.108366735
166	0x3e0d7f50	0.13818097
167	0xbd92c3f3	-0.071662806
168	0xbc1b4e9a	-0.009479189
169	0x3e07c7dc	0.13259834
170	0xbd8044f7	-0.06263154
171	0x3de557ca	0.11198385
172	0xbdf11e7a	-0.11773391
173	0xbb3675b7	-0.002784116
174	0x3e26afc6	0.1627799
175	0xbd21c28c	-0.039492175
176	0xbd37ccfc	-0.044873223
177	0x3dcc14e1	0.0996492
178	0x3dbb2ea4	0.09139755
179	0x3df2d31f	0.118566744
180	0x3d9edfbc	0.07757518
181	0x3d8ce6e5	0.06879977
182	0x3db0daae	0.0863546
183	0x3bacb866	0.0052710054
184	0x3e0afb8d	0.13572522
185	0xbd84ff3d	-0.06493995
186	0x3e16108c	0.1465475
187	0x3dfc647c	0.123238534
188	0x3d331ee0	0.043730617
189	0xbb9edd66	-0.00484817
190	0x3d879507	0.066202216
191	0xbc830cb7	-0.015997274
192	0xbc81794a	-0.015804905
193	0x3d291b8f	0.041286048
194	0x3d865b0f	0.06560337
195	0x3e1893a1	0.14900066
196	0x3e4baa4b	0.1988918
197	0x3e0a252f	0.13490747
198	0xbb500fc2	-0.0031747674
199	0x3d88566d	0.066571094
200	0x3cfe6600	0.031054497
201	0xbcefa00c	-0.029251121
202	0x3cb275b9	0.02178465
203	0x3e39aafd	0.18131633
204	0xbd633d30	-0.055478275
205	0xbdb54061	-0.0885017
206	0xbddc2551	-0.10749305
207	0x3da99f25	0.082823075
208	0x3d4259c5	0.047448892
209	0x3d856f8e	0.06515418
210	0x3c26fdb7	0.010192326
211	0x3e16fff8	0.14746082
212	0xbba928f5	-0.005162353
213	0xbc1d5772	-0.009603368
214	0x3e4504b9	0.19240083
215	0x3d6dd0e2	0.058060534
216	0xbd7b0d9b	-0.061292272
217	0x3b190a1e	0.0023351978
218	0x3e372f13	0.17889051
219	0x3e2e43a5	0.17017992
220	0x3e55c409	0.20875563
221	0x3de3e92e	0.1112846
222	0x3d92f17a	0.07174964
223	0x3dedeef4	0.11617842
224	0x3ca9460d	0.020663286
225	0x3e46e50e	0.19423315
226	0x3e22f22d	0.15912695
227	0x3d593690	0.05303055
228	0x3dd7457b	0.10511299
229	0x3e43a9da	0.19107762
230	0x3dad6974	0.08467379
231	0xbd790c88	-0.060802966
232	0x3e31f856	0.17379889
233	0x3d3507f4	0.044197038
234	0x3e4f0924	0.2021833
235	0x3e0b1094	0.13580543
236	0x3b48cd6e	0.0030640024
237	0x3e289a7e	0.16465184
238	0x3e0d749c	0.13814014
239	0x3e2768eb	0.16348617
240	0x3e47db0f	0.19517158
241	0x3d6c5ade	0.057703845
242	0x3c093a02	0.008375647
243	0x3e1ea3e7	0.15492211
244	0x3d888cf1	0.066675074
245	0xbd27e271	-0.040987436
246	0x3e0e8af3	0.13920192
247	0x3bdc035b	0.006714267
248	0x3e026135	0.12732394
249	0x3e00b14d	0.12567635
250	0xbe04ff1f	-0.12987946
251	0x3cc6f713	0.024287736
252	0x3d9236b1	0.07139338
253	0x3dfec038	0.124390066
254	0x3e3d3026	0.18475398
255	0x3e28ebec	0.16496247

lstm.bias_hh_l0 f4 [256]
0	0xbd3879cf	-0.04503804
1	0x3df52745	0.11970381
2	0x3dce1811	0.10063184
3	0x3e1b1cfd	0.15147777
4	0xbc5ff440	-0.013669074
5	0xbd420750	-0.047370255
6	0xbd38396c	-0.044976637
7	0xbd4f84ed	-0.050663877
8	0x3dbec60e	0.0931512
9	0x3dba878e	0.09107886
10	0x3dc3a975	0.09553806
11	0x3d131ebc	0.035917982
12	0x3dad8293	0.08472171
13	0x3e164516	0.14674792
14	0xbdaf567b	-0.08561417
15	0x3d9d3755	0.07676569
16	0x3d97eeec	0.074186176
17	0x3d47646c	0.048679754
18	0xbd9eb4df	-0.07749342
19	0x3dcf413a	0.10119863
20	0x3dc3c3a7	0.09558802
21	0x3cbecb26	0.023290228
22	0x3be15243	0.0068762614
23	0xbb4bb70b	-0.0031084444
24	0xbceff740	-0.029292703
25	0x3d594f47	0.05305412
26	0xbc3affa7	-0.011413491
27	0x3e093456	0.13398871
28	0x3e0e4560	0.13893652
29	0x3db98db2	0.09060229
30	0x3de99af2	0.114065066
31	0xbc9127f6	-0.01771925
32	0xbd758495	-0.059940893
33	0x3d8bfe85	0.06835655
34	0x3d509ceb	0.0509309
35	0xbcfd09b2	-0.030888412
36	0x3d7700ed	0.060303617
37	0x3d98793d	0.07444999
38	0xbd6df54f	-0.058095273
39	0xbdb89381	-0.09012509
40	0xbd8109bc	-0.06300685
41	0x3e1aa72d	0.15102835
42	0xbc0ed658	-0.008718096
43	0x3d6681d2	0.05627615
44	0x3da67d2c	0.081293434
45	0x3ddd34a7	0.10801058
46	0x3dc61b36	0.09673159
47	0xbd73b8b8	-0.059502333
48	0x3cfe5adc	0.031049185
49	0x3cfb62ac	0.030686699
50	0xbd0bf67e	-0.03417062
51	0x3de599ce	0.112109765
52	0x3dbc66ed	0.09199319
53	0x3d9779fd	0.07396314
54	0x3d7891a3	0.060685765
55	0xbd142033	-0.03616352
56	0x3d92c43e	0.071663365
57	0xbdb824fd	-0.0899143
58	0xbb555afe	-0.0032555456
59	0x3d985bb6	0.074393675
60	0x3c28f8a5	0.010313188
61	0x3c0d3472	0.008618461
62	0x3e15f91f	0.14645813
63	0x3e2a6627	0.1664053
64	0x3c69f7d6	0.01428028
65	0xbd6878e4	-0.056755915
66	0xbdde7a3c	-0.10863158
67	0x38dd033c	0.00010538704
68	0xbc99ab4d	-0.01875844
69	0xbbc8890b	-0.0061198524
70	0x3d06432f	0.032778915
71	0x3cd75df5	0.02628992
72	0x3d3cac56	0.04606279
73	0xbd1e7b28	-0.03869167
74	0xbd7a0354	-0.06103833
75	0xbcfa9669	-0.0305893
76	0xbdc6c02e	-0.09704624
77	0x3de0a455	0.10968844
78	0x3e1c49fc	0.15262598
79	0x3d43eb16	0.047831617
80	0x3d83f59f	0.06443333
81	0x3e034f0a	0.1282312
82	0x3d3a1538	0.045430392
83	0x3d93a7e4	0.07209757
84	0xbd08b5ac	-0.03337638
85	0x3dbc73f9	0.092018075
86	0xbd4ca909	-0.049965892
87	0x3dda316a	0.10653956
88	0x3e12ce2a	0.14336458
89	0x3c0c2e7e	0.0085560065
90	0xbd4d9885	-0.050194282
91	0x3d70c76a	0.058783926
92	0xbbefb3cd	-0.007315135
93	0xbc4d58d9	-0.01253339
94	0x3dcfee43	0.10152867
95	0xbd8e5106	-0.06949048
96	0x3df5425a	0.11975546
97	0x3e00eef1	0.12591149
98	0x3cccff90	0.025024205
99	0x3d39d4f9	0.045369122
100	0x3e129f27	0.14318524
101	0x3deec54e	0.11658727
102	0x3d0ebd63	0.034848582
103	0x3d1183aa	0.035525955
104	0xbb9a3a50	-0.0047066584
105	0x3e05a85b	0.13052504
106	0x3d1371f2	0.03599734
107	0x3d8845dd	0.0665395
108	0xbccd1c20	-0.025037825
109	0x3e2aed52	0.16692093
110	0x3dd88f40	0.10574198
111	0x3cb19929	0.021679478
112	0x3d61f345	0.05516364
113	0x3e1c6076	0.15271172
114	0xbd899a7f	-0.06718921
115	0x3c1ee923	0.009699139
116	0xbccd996c	-0.025097571
117	0x3d8dcdbd	0.06924007
118	0x3c945fd2	0.018112097
119	0x3dd35236	0.10318415
120	0xbd1b3533	-0.03789253
121	0xbd043be0	-0.032283664
122	0xbd3f48eb	-0.0467004
123	0x3dcbf89a	0.09959526
124	0x3d5bc009	0.053649936
125	0x3e17f1cb	0.1483833
126	0x3de50073	0.11181726
127	0xbd00d7d7	-0.03145584
128	0xbdfe7aa8	-0.124257386
129	0xbd017856	-0.031608902
130	0x3db8da28	0.09025985
131	0xbd2bd799	-0.041953657
132	0xbc6dd7d7	-0.014516792
133	0x3c1dce12	0.0096316505
134	0xbd1d10a3	-0.038345944
135	0x3dfaf686	0.12254052
136	0xbe200d00	-0.15629959
137	0xbd25e408	-0.04050067
138	0x3d094f0e	0.033522658
139	0x3dfcea00	0.123493195
140	0xbe0a1d91	-0.13487841
141	0xbe1f2b67	-0.155439
142	0x3df52ba8	0.119712174
143	0x3df2dcc5	0.11858515
144	0xbdef318e	-0.11679374
145	0xbd8a0f43	-0.06741192
146	0xbd99eeba	-0.075162366
147	0xbba6fcca	-0.005096053
148	0x3ce0a9cd	0.027424717
149	0xbdd5124f	-0.10403883
150	0x3d69f25f	0.05711591
151	0x3d756844	0.05991389
152	0x3e0c1179	0.1367854
153	0x3d9cee15	0.07662598
154	0xbdd602b1	-0.10449732
155	0xbcaffdee	-0.021483388
156	0x3d09705d	0.033554424
157	0x3d73cd3d	0.059521902
158	0x3d0f5550	0.03499347
159	0x3daa475d	0.08314393
160	0xbd969b8a	-0.073538855
161	0x3d46f867	0.04857674
162	0xbd8e655f	-0.06952929
163	0x3d374252	0.044740982
164	0x3cfb99cd	0.030712986
165	0xbd41e55e	-0.047337882
166	0x3d947d19	0.07250423
167	0x3dd14cbb	0.10219713
168	0xbe0931a2	-0.1339784
169	0xbda6e90c	-0.08149919
170	0xbd915647	-0.07096534
171	0xbc73b3a6	-0.0148743745
172	0xbcb7d54b	-0.022440573
173	0xbcdf87a4	-0.027286358
174	0x3cbaf065	0.022819707
175	0xbe166759	-0.14687862
176	0xbd7a771a	-0.06114874
177	0x3d26d020	0.040725827
178	0x3e00e1a5	0.12586077
179	0x3e15c9ac	0.14627713
180	0x3d01e9e4	0.031717196
181	0xbcb9527c	-0.02262234
182	0xbda7649e	-0.08173488
183	0xbd144efb	-0.036208134
184	0xbc5b5f70	-0.013389453
185	0x3d394f97	0.04524192
186	0x3ca3db54	0.020002045
187	0x3df6e714	0.120557934
188	0x3dea4352	0.114386216
189	0x3d753f3f	0.05987477
190	0xbd163f56	-0.036681496
191	0x3c9da931	0.019245716
192	0x3e3fdcfa	0.1873664
193	0x3db1af7b	0.08676048
194	0xbe08207c	-0.13293642
195	0x3d9ba052	0.07598938
196	0x3bdebe7a	0.006797609
197	0x3dc26c25	0.09493283
198	0x3e48bf00	0.1960411
199	0x3e12da21	0.14341022
200	0x3dfada84	0.1224871
201	0xbcceedba	-0.025259841
202	0xbd890380	-0.06690121
203	0x3d899eec	0.06719765
204	0x3d376e36	0.04478284
205	0xbe038661	-0.1284423
206	0x3c9bac1f	0.019002972
207	0xbdd8dd23	-0.105890535
208	0xbc787cd1	-0.015166477
209	0x3e3ef664	0.18648678
210	0xbd096ef4	-0.03355308
211	0x3c5d10e7	0.013492799
212	0x3e22d081	0.1589985
213	0x3e241546	0.1602374
214	0xbc5ef405	-0.0136079835
215	0x3e098392	0.13429096
216	0x3d5181d1	0.051149193
217	0x3ca0e461	0.01964015
218	0x3de35b0f	0.111013524
219	0x3e39263d	0.18080993
220	0x3e18f093	0.14935522
221	0x3bb42ccf	0.0054985057
222	0x3e1fdaed	0.15610857
223	0x3df9f1ec	0.12204346
224	0x3e1cb2c1	0.15302564
225	0x3e2090d0	0.15680242
226	0x3e2f7c06	0.17137155
227	0x3e142bb7	0.14469801
228	0x3e31390e	0.17306921
229	0x3c5e2024	0.013557468
230	0x3de4a1ae	0.111636505
231	0x3b0d4b94	0.002155994
232	0x3c186db0	0.009303495
233	0x3c82009d	0.015869433
234	0x3d81dded	0.06341157
235	0xbd86b69a	-0.06577797
236	0x3e0d062a	0.13771883
237	0x3df46ebe	0.11935185
238	0x3e4c6b92	0.1996291
239	0x3df74ac3	0.120748065
240	0x3ca0d0d8	0.019630834
241	0x3d0663f5	0.03281017
242	0xbe022698	-0.12710035
243	0x3e115919	0.14194144
244	0x3c140451	0.009034232
245	0x3d51eeb1	0.051253024
246	0x3e6cf1a8	0.2313906
247	0x3c1b2e6d	0.009471518
248	0x3e0b6054	0.13610965
249	0x3dcc218a	0.099673346
250	0xbe022bf6	-0.12712082
251	0x3e1de6e6	0.15420112
252	0x3da7856d	0.08179746
253	0xbcbc7978	-0.02300714
254	0xbc2ed4f9	-0.010670894
255	0x3d623557	0.05522665

fc.0.weight f4 [64, 768]
0	0x3bde8188	0.0067903437
1	0x3ce3d7d0	0.027812868
2	0xbb143680	-0.0022615492
3	0x3d0a01c0	0.033693075
4	0x3c9c43aa	0.019075233
5	0x3cdcb3d8	0.026941225
6	0xbbd63d10	-0.006538041
7	0xbbc01b3c	-0.0058626216
8	0xbca480a6	-0.020080876
9	0xbd029da4	-0.03188862
10	0x3b84fcf0	0.004058473
11	0x3d13caa2	0.036081918
12	0xbce70a6c	-0.028203212
13	0xbad8e520	-0.0016547777
14	0x3cc460b2	0.02397189
15	0xbcafff3c	-0.02148401
16	0x3cfac6b4	0.030612327
17	0xbd0069a1	-0.031350736
18	0xbc93f6a4	-0.018061943
19	0xbca4b3e6	-0.020105314
20	0x3bc6c670	0.006066136
21	0x3cc53720	0.024074137
22	0x3c9d1dda	0.019179273
23	0xbc98b0c2	-0.018638972
24	0x3cd088ae	0.025455799
25	0x3bec3588	0.00720853
26	0xbc37ccc8	-0.011218257
27	0x3d00548a	0.031330623
28	0xbb8b69b0	-0.0042545423
29	0x3c6590c0	0.014011562
30	0x3d122782	0.03568221
31	0x3c5104dc	0.012757506
32	0x3ab93340	0.0014129654
33	0x3ccfb020	0.025352538
34	0xbc293316	-0.010327121
35	0x3c838d34	0.016058542
36	0xbc679a8e	-0.01413597
37	0x3b8b9500	0.0042597055
38	0xbcbd8131	-0.023132892
39	0x3c967a1c	0.018368773
40	0x3c3caaf0	0.011515364
41	0x3d0203be	0.03174185
42	0xbcce9734	-0.025218584
43	0x3cf449e0	0.029820383
44	0xbbc214d0	-0.005922891
45	0xbceefc87	-0.029173149
46	0xb91d1900	-0.00014982
47	0x3cca6732	0.02470741
48	0xbbd7ba5c	-0.006583495
49	0xbc8d1f10	-0.017226726
50	0xbd12b717	-0.03581914
51	0x3ac39660	0.0014922135
52	0xbc0973a8	-0.008389391
53	0x3c207f88	0.009796031
54	0x3b9d08c8	0.0047923066
55	0xbc173084	-0.009227876
56	0x3c9b2d66	0.018942546
57	0x3cfc9990	0.030834943
58	0x3ca78e84	0.020453699
59	0xbb36f2f0	-0.0027915798
60	0x3cba4818	0.022739455
61	0x3b1dcd30	0.00240786
62	0x3ce02138	0.02735959
63	0xbc6d838e	-0.014496697
64	0x3b2ca460	0.0026343092
65	0x3d02b84c	0.03191404
66	0xbba8a680	-0.0051468015
67	0x3b0cc030	0.0021476857
68	0x3d0a5d64	0.03378047
69	0xbc2c919e	-0.010532765
70	0xbb11d530	-0.0022252314
71	0xbcb03736	-0.021510702
72	0xbc4b8870	-0.012422666
73	0xbb8df6e0	-0.0043324083
74	0x3cfe889c	0.031071
75	0x3cc39172	0.023873065
76	0xbc15ef38	-0.0091512725
77	0xbcbd5fc4	-0.023116954
78	0x3d0de0da	0.034638263
79	0x3ca0daec	0.01963564
80	0x3d11508e	0.035477214
81	0x3cd8589c	0.02640944
82	0x3b940e58	0.0045183115
83	0x3d10c798	0.035346597
84	0xbccba9e8	-0.024861291
85	0xbc20850c	-0.009797346
86	0x3bd94da8	0.006631572
87	0x3cb249ea	0.02176376
88	0x3d0b9fae	0.03408783
89	0xbcf337ba	-0.029689658
90	0x3cf7a22c	0.030228697
91	0xbc4e7bea	-0.012602786
92	0x3c9d18c0	0.01917684
93	0xbc403c82	-0.011733176
94	0x3cb4943a	0.022043336
95	0x3ce49100	0.027901173
96	0xbc5948fe	-0.013262032
97	0x3c6f5e1c	0.01460984
98	0xbba95e94	-0.0051687453
99	0xbcaa6394	-0.020799436
100	0x3c3d41c4	0.011551324
101	0x3beb6118	0.0071832053
102	0x3d029432	0.03187961
103	0x3cd684d8	0.026186392
104	0xbd00ed83	-0.03147651
105	0x3bb36408	0.005474571
106	0x3c888a0e	0.016667392
107	0x3b9031e8	0.0044004805
108	0x3a300380	0.0006714389
109	0xbd09dad7	-0.033655968
110	0xbc8b05b4	-0.016970493
111	0x3c9c2e76	0.019065123
112	0x3bacc4a0	0.005272463
113	0x3c4886ac	0.0122391395
114	0x3cfaac70	0.030599803
115	0xbccc2b1d	-0.024922902
116	0x3b14fea0	0.0022734776
117	0xbce921b7	-0.02845846
118	0xba2106c0	-0.00061426684
119	0x3c176310	0.009239927
120	0xbc674f22	-0.014117988
121	0xbcbf2691	-0.02333382
122	0x3c91e6a8	0.01781018
123	0xbc66925c	-0.014072981
124	0xbbd5fcb8	-0.0065303706
125	0xbd0bedad	-0.034162212
126	0xbc52cbc6	-0.012865966
127	0x3c9bec8e	0.019033697
128	0x3cc22ba4	0.02370245
129	0xbc8a7737	-0.01690255
130	0xba386d80	-0.000703536
131	0x3c40ee70	0.011775598
132	0xbce156be	-0.027507182
133	0xbbd3fbc8	-0.0064692236
134	0x3cae9bc4	0.02131451
135	0xbcdde276	-0.027085524
136	0x3a2dadc0	0.0006625317
137	0x3ccfff56	0.025390308
138	0x3d037aae	0.03209942
139	0xbcacdca7	-0.021101309
140	0xbc3e2f5a	-0.011607969
141	0x3c72e238	0.014824443
142	0x3c97888e	0.018497732
143	0xba85db00	-0.0010212362
144	0x3b489da0	0.003061153
145	0xbca0aa6c	-0.019612513
146	0xbcdeb8e0	-0.027187765
147	0x3cc60754	0.024173416
148	0xbcc4e296	-0.024033826
149	0x3d0ac2bc	0.03387712
150	0x3c3179a0	0.01083222
151	0xbd0ea61a	-0.034826376
152	0xbd110972	-0.0354094
153	0xbac79d60	-0.0015229397
154	0xb9c0a080	-0.00036740676
155	0x3ceecd78	0.02915071
156	0xbca65c3c	-0.020307653
157	0x3c495058	0.012287222
158	0x3c319858	0.010839544
159	0xbd1117c1	-0.035423044
160	0xbb2cc830	-0.0026364438
161	0x3c832b5e	0.01601189
162	0x3c9d1080	0.019172907
163	0xbca362ae	-0.019944515
164	0xbca388a7	-0.019962622
165	0xbc45736e	-0.012051446
166	0xbd03e0f5	-0.032196958
167	0xbc3766f0	-0.011193976
168	0x3d131104	0.0359049
169	0xbc992f5a	-0.018699337
170	0x3c91c972	0.017796252
171	0xbba71ac4	-0.0050996263
172	0x3d13931e	0.036028974
173	0xbcbbd4b0	-0.022928566
174	0xbcf5512a	-0.029945929
175	0x3bed76f0	0.0072468445
176	0x3ca6c4ae	0.020357456
177	0x3d0291b0	0.03187722
178	0x3c03b27c	0.008038159
179	0x3c13f140	0.009029686
180	0x3d0102e4	0.031496897
181	0xbca03253	-0.019555246
182	0xbbead490	-0.0071664527
183	0xbc16db12	-0.009207504
184	0x3cdc0058	0.026855633
185	0xbc077ef4	-0.008270014
186	0x3b633190	0.0034666993
187	0xbc53945a	-0.012913788
188	0xbca2e357	-0.019883795
189	0x3c82544e	0.01590934
190	0xbd048a96	-0.03235873
191	0x3cb2e9d8	0.021840021
192	0xbd021eb2	-0.031767555
193	0x3c630ca4	0.013857994
194	0x3cea4ad0	0.028600127
195	0x3c530904	0.012880567
196	0x3bd49028	0.0064869113
197	0xbd0ad85c	-0.033897743
198	0xbd07a760	-0.033118606
199	0x3c9b392e	0.018948164
200	0x3d05fed6	0.032713734
201	0xbb05d2e0	-0.002041988
202	0x3b86ac60	0.004109904
203	0xbcbfed7b	-0.02342867
204	0x3ccab000	0.024742126
205	0xbac16de0	-0.0014757477
206	0xbc41f194	-0.011837382
207	0x3cd4b4e6	0.025965165
208	0xbd11bf65	-0.03558292
209	0x3cd2c9aa	0.025730927
210	0x3cf17ecc	0.029479407
211	0x3c82b174	0.015953757
212	0xbc60fd2e	-0.013732238
213	0xbc55db50	-0.013052776
214	0xbc4dd8fa	-0.012563938
215	0xbaf64660	-0.0018789284
216	0xbc910b31	-0.017705532
217	0x3b87e9c0	0.004147738
218	0x3c0d021c	0.00860646
219	0xbcb2ebc6	-0.021840941
220	0xbb59b320	-0.003321834
221	0x39f94180	0.00047541782
222	0xbccebdd3	-0.025237
223	0xbc8b9044	-0.017036565
224	0xbcb3dc60	-0.021955669
225	0x3c894ee6	0.016761255
226	0xbce92d1c	-0.028463893
227	0x3b9725d0	0.004612662
228	0x3c41f7b8	0.011838846
229	0x3b72de30	0.0037058704
230	0x3c445c54	0.011984903
231	0xbb87abc8	-0.004140351
232	0x3c2babbc	0.010477956
233	0xbc35280e	-0.011056913
234	0x3cef0ce4	0.029180951
235	0x3c2b130c	0.010441553
236	0x3cdc0704	0.026858814
237	0xbc27776a	-0.010221342
238	0x3cac1774	0.021007277
239	0xbc920749	-0.01782574
240	0xbd07c6ec	-0.03314869
241	0xbcd23cef	-0.025663821
242	0xbc22869a	-0.009919787
243	0xbd062cd4	-0.032757595
244	0xbca18829	-0.019718247
245	0xbc59a272	-0.013283359
246	0xbcc5f40b	-0.02416422
247	0x3d051c1c	0.03249751
248	0xbb217490	-0.0024636127
249	0xbbc261d0	-0.0059320703
250	0x3d039906	0.032128356
251	0x3c92a9f0	0.017903298
252	0xbb690b10	-0.0035559572
253	0xbd06bcd8	-0.03289494
254	0x3d018024	0.031616345
255	0x3d0865ca	0.0333002

fc.0.bias f4 [64]
0	0x3c86f21a	0.016472865
1	0xbcdb41b0	-0.02676472
2	0x3b9b39b0	0.0047371015
3	0x3c5cc030	0.013473555
4	0xbc90275a	-0.01759689
5	0x3cbcb482	0.023035292
6	0x3cd9e9bc	0.026600711
7	0xbcd62468	-0.026140407
8	0xbc538e20	-0.012912303
9	0x3ce77ac0	0.028256774
10	0x3c0ec434	0.008713771
11	0x3d0d78f8	0.034539193
12	0x3ceb97e8	0.028758958
13	0x3b13d580	0.0022557676
14	0x3ce76a6c	0.028248988
15	0x3cbe51d0	0.02323237
16	0x3bd3c778	0.0064629875
17	0xbca63062	-0.020286743
18	0x3b37e7a0	0.0028061643
19	0x3ae51460	0.0017477386
20	0xbb8ce3b8	-0.004299607
21	0x3cf4c46c	0.029878817
22	0x3d12fa04	0.035882965
23	0xbb4fafd0	-0.0031690486
24	0x3cca9546	0.024729382
25	0x3cbe14b6	0.023203235
26	0x3ce3f3cc	0.027826212
27	0x3cdf0d6c	0.02722808
28	0x3d0e116e	0.03468459
29	0xbca257fb	-0.019817343
30	0xbc9895b0	-0.018626064
31	0x3d0f809e	0.03503477
32	0x3cd07a6e	0.025449004
33	0x3d042c9a	0.032269098
34	0x3c2447a0	0.010026842
35	0xbca26bf6	-0.01982687
36	0x3d017704	0.031607643
37	0x3aa86f40	0.0012850538
38	0xbd086086	-0.033295177
39	0x3d08e1b2	0.033418365
40	0xbc9fa2b3	-0.01948676
41	0xbb6bcce0	-0.003598027
42	0x3b4ebca0	0.0031545535
43	0x3b1fb940	0.0024371892
44	0x3c5b4608	0.013383396
45	0xbc30ef50	-0.010799244
46	0x3d0a09de	0.033700816
47	0x3b3169d0	0.0027071126
48	0x3bbadad0	0.005702354
49	0x3c995632	0.018717859
50	0xbcd419ce	-0.02589121
51	0x3d12ee1e	0.035871617
52	0xbbc5a678	-0.0060318075
53	0x3c891996	0.016735833
54	0xbcf0f8e6	-0.029415559
55	0xbbd38ae8	-0.006455768
56	0x3b012800	0.001970768
57	0xbc0a779c	-0.008451369
58	0x3b7af5c0	0.003829345
59	0xbcf6ed93	-0.030142581
60	0xbcfeb312	-0.031091247
61	0x3cafa2a2	0.021439854
62	0xbc3f365a	-0.011670673
63	0x3c14a1a4	0.009071741

fc.3.weight f4 [1, 64]
0	0x3c7832f0	0.015148863
1	0x3bef0c80	0.0072951913
2	0xbcfb2458	-0.030656978
3	0x3df951b2	0.12173785
4	0xbc860638	-0.016360387
5	0x3d52a4c8	0.05142668
6	0xbdbe4542	-0.09290554
7	0x3dcfdd4a	0.101496294
8	0x3d7a5540	0.061116457
9	0x3d5c692c	0.053811237
10	0x3c227850	0.00991638
11	0x3d3ac2f4	0.045596078
12	0x3c893c00	0.016752243
13	0xbd2f26cc	-0.04276161
14	0x3dbf19dc	0.09331104
15	0xbdb6134e	-0.08890401
16	0xbd573608	-0.052541763
17	0xbd87e258	-0.066349685
18	0xbc744d40	-0.014910996
19	0x3d154274	0.036440328
20	0xbdbe5e82	-0.0929537
21	0xbd1112e4	-0.035418406
22	0x3d9f3808	0.07774359
23	0x3b9f8b80	0.0048689246
24	0xbd59f09c	-0.05320798
25	0x3ca93890	0.020656854
26	0x3dcb6b9c	0.09932634
27	0x3c12bf40	0.00895673
28	0xbdd516a8	-0.10404712
29	0xbbf9eac0	-0.0076268613
30	0x39d37000	0.00040328503
31	0xbd2b6b34	-0.041850284
32	0x3d14949c	0.036274537
33	0xbcf01c28	-0.029310301
34	0xbda90f26	-0.082548425
35	0xbda973b4	-0.08274022
36	0xbd40a6e8	-0.047034174
37	0x3c4139f0	0.0117935985
38	0x3de2b2aa	0.11069234
39	0xbdf11ad0	-0.11772692
40	0xbd4dfb44	-0.050288454
41	0x3df22fae	0.118255004
42	0x3d358614	0.04431732
43	0xbdb583b0	-0.08863008
44	0xbdce47d0	-0.10072291
45	0x3cc4c1e0	0.024018228
46	0xbc16e980	-0.009210944
47	0xbda9c9be	-0.082904324
48	0x3dc5dd62	0.09661366
49	0x3d8d28bc	0.06892535
50	0x3db53366	0.08847694
51	0xbd766638	-0.060156077
52	0xbdfeb58c	-0.12436971
53	0xbdbc4a92	-0.09193911
54	0xbccf62f0	-0.025315732
55	0x3d6db294	0.058031633
56	0x3de9f424	0.11423519
57	0x3df5ce0a	0.120021895
58	0xbd3fabc8	-0.046794683
59	0x3d4357b8	0.047691077
60	0x3ddce412	0.107856885
61	0xbd4cee00	-0.050031662
62	0xbc1f9610	-0.0097403675
63	0xbdcbfdbc	-0.09960505
