models/structural_breaks_model.pt (torch, 277855 bytes, 11 tensors)

cnn.0.weight f4 [8, 1, 3, 3]
-0.1661027 0.13988745 0.21881928 0.24443614 -0.24556437 0.021375913 -0.3446717 -0.24884023
-0.119620435 -0.03436653 0.17960346 -0.18184538 0.23057915 -0.30496517 0.29080078 0.04738353
0.22909041 0.21561077 0.21897927 0.24282843 -0.25903875 -0.23752579 -0.22486728 -0.17005262
0.008082335 0.3145261 0.17919578 0.09742866 -0.11521157 0.11145602 0.20707701 -0.33052307
0.10142087 -0.3362645 0.0547744 -0.28517893 0.23861007 -0.19375505 0.046690445 -0.265878
-0.022193424 0.1550288 0.17773674 0.26628646 0.07199651 0.25983265 -0.22219416 0.0118595855
-0.18567412 -0.1264898 0.1707901 -0.25080332 0.190428 -0.25389132 -0.15252243 -0.0014295748
-0.25901124 -0.16561958 0.32213324 0.3122768 -0.015954645 0.13781409 0.28870997 -0.03455751
0.22061215 -0.1730593 -0.03816717 -0.2787158 0.09873145 0.22244968 0.031816505 -0.12444757
00000000: d416 2abe a83e 0f3e 2912 603e 784d 7a3e
00000010: 3a75 7bbe 8a1c af3c cf78 b0be f9cf 7ebe
00000020: 8ffb f4bd ebc3 0cbd f8e9 373e ad35 3abe
00000030: f11c 6c3e 6524 9cbe d7e3 943e 3b15 423d
00000040: ad96 6a3e 12c9 5c3e 1a3c 603e 04a8 783e
00000050: baa0 84be f639 73be 9c43 66be 4622 2ebe
00000060: c56b 043c 9109 a13e 197f 373e ad88 c73d
00000070: 0bf4 ebbd 0e43 e43d ff0b 543e 523a a9be
00000080: bfb5 cf3d dc2a acbe 1f5b 603d f902 92be
00000090: 3356 743e b967 46be 7b3e 3f3d 2921 88be
000000a0: fcce b5bc dfbf 1e3e 9f00 363e b356 883e
000000b0: e872 933d c908 853e de86 63be b54e 423c
000000c0: 5b21 3ebe 8b86 01be 9ae3 2e3e 4b69 80be
000000d0: 8fff 423e 0bfe 81be d72e 1cbe 9260 bbba
000000e0: 1f9d 84be 2e98 29be a6ee a43e bfe2 9f3e
000000f0: 51b3 82bc 231f 0d3e cbd1 933e 2d8c 0dbd
00000100: 27e8 613e 7536 31be 2e55 1cbd d6b3 8ebe
00000110: b733 ca3d d9c9 633e 0652 023d 5ede febd

cnn.0.bias f4 [8]
0.4009258 -0.12446065 0.4341305 -0.24531469 -0.3036822 0.5614084 0.029739225 0.23330647
00000000: 2546 cd3e 3ae5 febd 5a46 de3e c633 7bbe
00000010: 3c7c 9bbe 76b8 0f3f ad9f f33c e4e7 6e3e

cnn.3.weight f4 [16, 8, 3, 3]
-0.01820414 -0.14382084 0.03277316 -0.11425758 -0.13915196 -0.07824756 -0.14212085 0.06963501
-0.023979062 0.043933433 0.06290433 0.078660235 0.0677156 -0.058659688 0.0711308 -0.08527545
-0.042417474 -0.08289772 -0.115451515 0.0683658 -0.088755086 0.050402727 -0.088165775 -0.010942176
0.042031564 0.040863656 -0.06528673 -0.073983364 -0.011382201 -0.11482608 0.10216825 0.01750719
0.0066072824 -0.08538873 0.0061848834 -0.09965873 -0.08848709 0.047918696 -0.08621633 -0.04670257
-0.08776231 -0.13501099 -0.055373464 0.06493189 0.0051792706 -0.022977257 0.08263997 -0.053349897
-0.13006955 -0.08674523 0.015514533 -0.10481292 0.074902594 -0.02165562 0.03853843 -0.019504637
0.034860287 -0.0011638583 -0.101921 0.052826215 -0.07240366 0.06908822 0.035239477 -0.03126849
-0.001288721 0.061242267 0.039783526 -0.06812741 0.014471664 0.04124565 0.0036596702 0.063059054
-0.15611455 0.07457895 0.11164488 -0.036767557 0.1175269 -0.07814446 -0.10552252 -0.036658432
0.028470004 -0.04979342 0.08172062 -0.060593642 -0.017344395 0.03429265 0.024768818 -0.16629115
-0.013908714 0.008678264 -0.04073204 0.1835092 0.21696045 -0.10918077 0.10003894 0.027799843
-0.008214339 0.050903913 -0.1114549 -0.0380565 -0.06246137 -0.0406432 0.04365053 -0.015870355
-0.05444613 0.025009569 -0.1401068 -0.07889557 -0.081437044 0.048584275 0.041839335 -0.058309205
-0.15414502 -0.095570534 -0.0033179251 -0.09017465 -0.16834983 -0.034259047 0.028747613 0.00938795
-0.096953355 0.10705921 0.038080785 0.011718374 -0.061027747 -0.06198085 -0.11412428 0.1298001
-0.05444517 -0.18712905 0.12793627 -0.05815265 -0.06973794 0.12189269 -0.114861764 -0.1516522
0.019982617 0.16349287 -0.15308337 0.045084566 -0.078032166 -0.007236927 -0.0671789 0.01639146
-0.13675033 0.037107542 0.045814067 0.0033287762 -0.038467515 0.00034020335 0.0005424346 0.09924391
0.033988144 -0.002325988 0.077631995 0.0068799797 0.09699513 -0.11006962 0.03337835 0.07146704
-0.0023021172 0.021162195 0.016400738 0.010405401 0.081300095 0.07428989 -0.008277394 -0.035008945
-0.052408326 0.01888578 -0.035517093 -0.055789016 0.06284968 -0.0081104515 -0.04377025 -0.10155479
-0.0059883 0.09877334 -0.024257705 -0.06699051 -0.07579384 0.06389114 0.10432361 -0.13657169
0.054513507 0.09273658 0.17027846 0.13848343 0.032664474 -0.0047000526 -0.032539595 0.04934447
0.11191304 0.018609744 -0.037687473 0.08980595 0.16374272 0.059290502 0.04036551 0.069185756
-0.04318476 -0.09897127 0.075022146 -0.01499333 0.08524372 0.093720436 0.179671 0.071413495
0.10756008 0.04905817 0.0714698 0.002317133 -0.027329676 0.08849175 0.024177121 -0.07371756
0.07590638 -0.13558312 -0.048975877 -0.06271274 -0.06356541 0.011940468 -0.011272376 -0.01721556
0.088082686 0.10352949 0.07439658 0.0073054894 -0.057439666 -0.019853203 0.0038805732 0.05137577
-0.1732795 -0.077752106 0.11007793 0.027798912 0.105090864 0.1200474 -0.00036992776 0.12509876
0.030262122 0.03344544 0.053161167 -0.13988191 -0.16720489 -0.119445615 -0.08672179 -0.040980175
-0.1552749 -0.15707785 -0.0444877 -0.12803158 -0.056119636 0.043781236 -0.029001115 -0.0838993
00000000: d920 95bc c545 13be 263d 063d e1ff e9bd
00000010: da7d 0ebe 4240 a0bd 2188 11be cd9c 8e3d
00000020: bd6f c4bc 8bf3 333d fcd3 803d 9e18 a13d
00000030: 7aae 8a3d 2445 70bd 06ad 913d e5a4 aebd
00000040: f2bd 2dbd 48c6 a9bd d871 ecbd 5e03 8c3d
00000050: 3ac5 b5bd 1773 4e3d 4290 b4bd d046 33bc
00000060: 4a29 2c3d a660 273d 0db5 85bd 9784 97bd
00000070: 697c 3abc f029 ebbd 963d d13d 3d6b 8f3c
00000080: e781 d83b 49e0 aebd 90aa ca3b e019 ccbd
00000090: b838 b5bd 6546 443d 3092 b0bd 324b 3fbd
000000a0: babc b3bd 5240 0abe 49cf 62bd 03fb 843d
000000b0: dfb6 a93b cd3a bcbc 253f a93d 6c85 5abd
000000c0: f430 05be 7ca7 b1bd ab30 7e3c 28a8 d6bd
000000d0: 8866 993d 2067 b1bc 79da 1d3d 30c8 9fbc
000000e0: a9c9 0e3d 9b8c 98ba f5bb d0bd 4d60 583d
000000f0: 5f48 94bd 207e 8d3d 4557 103d 6313 00bd
00000100: 4dea a8ba 2cd9 7a3d 0df4 223d 6286 8bbd
00000110: 8f1a 6d3c 33f1 283d 14d7 6f3b 1b25 813d
00000120: 7edc 1fbe d9bc 983d 12a6 e43d 9499 16bd
00000130: f1b1 f03d 340a a0bd 311c d8bd 2727 16bd
00000140: ed39 e93c 2ff4 4bbd 245d a73d 0a31 78bd
00000150: d515 8ebc 7376 0c3d fae7 ca3c 3a48 2abe
00000160: 60e1 63bc 472f 0e3c a4d6 26bd d6e9 3b3e
00000170: e12a 5e3e 2b9a dfbd 37e1 cc3d 7fbc e33c
00000180: 6f95 06bc 9f80 503d 7742 e4bd 22e1 1bbd
00000190: 7ed7 7fbd 7c79 26bd e6ca 323d 8c02 82bc
000001a0: e802 5fbd dee0 cc3c 2878 0fbe 0094 a1bd
000001b0: 77c8 a6bd 4e00 473d b95f 2b3d a2d5 6ebd
000001c0: 31d8 1dbe 7cba c3bd 8c71 59bb 7dad b8bd
000001d0: e663 2cbe 3753 0cbd 1d80 eb3c ebcf 193c
000001e0: 7b8f c6bd dc41 db3d 99fa 1b3d 6cfe 3f3c
000001f0: 3bf8 79bd a2df 7dbd feb9 e9bd 51ea 043e
00000200: e601 5fbd c29e 3fbe ba01 033e 7931 6ebd
00000210: c4d2 8ebd e0a2 f93d a53c ebbd b74a 1bbe
00000220: 96b2 a33c ad6a 273e e3c1 1cbe 98aa 383d
00000230: 54cf 9fbd be23 edbb 1795 89bd 6247 863c
00000240: 4708 0cbe 14fe 173d 88a7 3b3d 9927 5a3b
00000250: 1d90 1dbd 525d b239 2b32 0e3a 6440 cb3d
00000260: 2737 0b3d 9a6f 18bb 86fd 9e3d 7471 e13b
00000270: 62a5 c63d 2e6c e1bd bdb7 083d 505d 923d
00000280: 1edf 16bb 575c ad3c d75a 863c 6a7b 2a3c
00000290: aa80 a63d 4c25 983d e89d 07bc 8a65 0fbd
000002a0: 1daa 56bd 5ab6 9a3c 5f7a 11bd 0683 64bd
000002b0: 55b7 803d b3e1 04bc 6f48 33bd f5fb cfbd
000002c0: 8039 c4bb ad49 ca3d 18b8 c6bc 5232 89bd
000002d0: cd39 9bbd 5cd9 823d 9ea7 d53d 73d9 0bbe
000002e0: 8e49 5f3d adec bd3d 7a5d 2e3e 9ace 0d3e
000002f0: 2fcb 053d e602 9abb 3d48 05bd 6d1d 4a3d
00000300: aa32 e53d 7673 983c 2e5e 1abd 2fec b73d
00000310: 2cac 273e 99da 723d 4e56 253d 43b1 8d3d
00000320: 81e2 30bd 73b1 cabd 36a5 993d 96a6 75bc
00000330: 4294 ae3d 80f0 bf3d adfb 373e 3d41 923d
00000340: 7648 dc3d 38f1 483d c25e 923d 0adb 173b
00000350: 7ce2 dfbc 2a3b b53d 190f c63c 3bf9 96bd
00000360: ce74 9b3d 4dd6 0abe ee9a 48bd 896f 80bd
00000370: 952e 82bd f4a1 433c c6af 38bc a507 8dbc
00000380: b264 b43d 4507 d43d 3c5d 983d e362 ef3b
00000390: db45 6bbd 2fa3 a2bc 3751 7e3b 666f 523d
000003a0: 2e70 31be 7f3c 9fbd 8a70 e13d 8bba e33c
000003b0: e139 d73d 69db f53d ddf2 c1b9 e419 003e
000003c0: 45e8 f73c 16fe 083d 86bf 593d 343d 0fbe
000003d0: c237 2bbe e79f f4bd 329b b1bd d4da 27bd
000003e0: 6200 1fbe 04d9 20be bc38 36bd b61a 03be
000003f0: b4dd 65bd f453 333d bf93 edbc 65d3 abbd

cnn.3.bias f4 [16]
-0.022788513 0.007887628 0.10208309 0.19638203 0.24100101 0.120773755 -0.13290514 0.033072356
0.111292236 0.091756776 -0.09838974 -0.14111973 -0.031459462 -0.0067483857 -0.041747134 0.004055161
00000000: faae babc 1c3b 013c f010 d13d 5f18 493e
00000010: f8c8 763e 3b58 f73d 4918 08be e176 073d
00000020: 2fed e33d faea bb3d 8f80 c9bd b181 10be
00000030: a3db 00bd 9021 ddbb 0bff 2abd 28e1 843b

lstm.weight_ih_l0 f4 [256, 3]
-0.0019461496 0.042390786 0.022050038 0.020987459 -0.10741741 -0.007601012 0.055451397 0.049469877
0.026486669 0.06319315 0.05531357 -0.04119287 -0.030955348 0.018553028 -0.043414682 0.1501353
0.14566648 -0.03192444 0.08392678 0.13102064 0.16108154 -0.054868855 0.09697958 -0.08071985
-0.024549404 0.037130892 -0.033085592 0.1640343 0.13328339 0.08211419 0.03804651 -0.06763815
-0.07610875 -0.006270478 -0.12671156 -0.11193101 -0.097720824 -0.07488406 -0.005824107 0.07412181
0.026320951 0.098135285 -0.036148574 -0.011134498 -0.014891559 0.12819995 0.13359514 -0.01662937
0.13580632 0.26952192 -0.06148865 0.14652383 0.16359682 0.08220016 0.029025808 -0.010341119
-0.11347378 0.031075776 -0.025200704 -0.10347903 0.0919959 -0.03257962 0.025562245 0.0446771
-0.057803344 0.034731086 -4.4402666e-05 -0.13480307 -0.11272451 0.0039510056 -0.05100398 -0.08558338
-0.08785546 -0.013173794 0.09199559 -0.116107345 0.12858431 -0.10337445 -0.030927848 -0.03236941
0.17131816 -0.095402405 -0.070245415 0.050128788 0.16578299 0.13529328 0.037893318 -0.003744374
-0.2895858 -0.28823522 0.084897645 -0.034364965 0.040146325 -0.15424272 -0.09102938 0.091831945
0.18976967 0.21686868 -0.012692016 0.06842736 -0.025873678 0.17822446 0.11285656 0.1513106
-0.016012393 0.05041056 0.02654836 -0.0068013347 0.18087816 0.1953126 0.12846045 0.19549498
0.1460981 -0.053272456 0.06949253 0.04033786 0.043327443 0.16504288 0.079213805 0.025423927
0.1848139 -0.04421029 -0.12584569 -0.032491505 -0.05227799 -0.02356707 0.07648612 -0.042469356
-0.120862715 -0.044559427 -0.021732183 0.052671846 0.04271831 0.047985572 0.05471895 0.43497926
0.057461366 -0.14549404 0.046638716 -0.070236385 -0.1079219 0.051758096 -0.09757139 -0.048829872
0.010096414 -0.017286424 -0.015891345 -0.019179652 0.064063735 0.09189162 -0.096274815 0.054035783
-0.09325882 0.095381804 -0.079993546 -0.105092116 -0.016351463 -0.020281194 -0.033572398 0.06941014
-0.0043623284 0.06108225 0.18423103 0.07748508 -0.05811074 -0.09558653 -0.0884712 0.009017069
-0.049868997 0.030954838 0.03207201 -0.13955697 0.12671152 -0.1921015 0.03172087 0.22065774
-0.2283698 -0.0631075 -0.047351707 -0.0963836 0.15273437 0.07579464 0.055132452 0.1669535
0.13194564 -0.02277311 0.16510803 0.041840754 -0.029306129 -0.035987165 0.061845124 0.07153961
0.020742321 -0.08612237 -0.010982355 0.04273365 -0.06399911 -0.13809463 -0.082373075 0.02346872
0.034272842 0.089149415 0.1427195 -0.013534287 -0.042545095 0.13848297 -0.031558298 -0.025886867
-0.02032234 0.086255014 0.20029137 0.22149448 0.12921269 -0.06486267 0.20557995 0.12436554
-0.030167317 0.09876921 0.022437654 0.1510371 0.02310831 -0.20311742 -0.067723125 -0.10739583
-0.0039886246 -0.13214186 -0.045821823 -0.08426306 0.08240781 0.080511324 0.14441997 0.038832907
-0.06661338 0.1299566 -0.0022916568 0.089669175 -0.03523819 0.01962743 0.18256989 0.07103303
-0.033950206 0.21661532 0.021499744 0.12239192 0.12864201 0.038010444 -0.113097966 0.031001939
-0.13271336 -0.093227535 -0.09582256 -0.17027864 0.16485462 0.001140896 -0.09548506 0.035588026
00000000: f215 ffba f6a1 2d3d 48a2 b43c e4ed ab3c
00000010: a9fd dbbd e911 f9bb 0121 633d eda0 4a3d
00000020: 92fa d83c 696b 813d 7b90 623d dbb9 28bd
00000030: 1296 fdbc 85fc 973c 98d3 31bd 11bd 193e
00000040: 9829 153e 34c3 02bd cee1 ab3d 462a 063e
00000050: 8ff2 243e 2abe 60bd 3b9d c63d 7350 a5bd
00000060: d51b c9bc 9016 183d c284 07bd 9cf8 273e
00000070: 717b 083e 7c2b a83d a8d6 1b3d df85 8abd
00000080: e8de 9bbd 9578 cdbb adc0 01be 163c e5bd
00000090: db21 c8bd d05c 99bd 27d8 bebb 2dcd 973d
000000a0: 099f d73c 27fb c83d 8710 14bd 786d 36bc
000000b0: bafb 73bc d946 033e 2acd 083e 513a 88bc
000000c0: d010 0b3e c7fe 893e 86db 7bbd 580a 163e
000000d0: ed85 273e 8f58 a83d 88c7 ed3c cc6d 29bc
000000e0: f164 e8bd a092 fe3c b571 cebc d0ec d3bd
000000f0: 5968 bc3d 3572 05bd ea67 d13c 56ff 363d
00000100: 33c3 6cbd 2f42 0e3d 003d 3ab8 d109 0abe
00000110: 1cdc e6bd 7077 813b 8de9 50bd 5746 afbd
00000120: 90ed b3bd e6d6 57bc 2f68 bc3d b0c9 edbd
00000130: 9bab 033e fcb5 d3bd 665c fdbc c995 04bd
00000140: 076e 2f3e 5662 c3bd d4dc 8fbd d853 4d3d
00000150: 04c3 293e 528a 0a3e 0636 1b3d 2c64 75bb
00000160: 9744 94be 9193 93be d1de ad3d 47c2 0cbd
00000170: 7970 243d cef1 1dbe 9d6d babd 6312 bc3d
00000180: fb52 423e d312 5e3e 2cf2 4fbc a523 8c3d
00000190: 09f5 d3bc 7980 363e 5721 e73d 2af1 1a3e
000001a0: 6c2c 83bc 4e7b 4e3d f27b d93c bbdd debb
000001b0: 2038 393e 0700 483e 238b 033e d62f 483e
000001c0: be9a 153e 3834 5abd 1952 8e3d 5039 253d
000001d0: 1e78 313d 0001 293e d93a a23d d745 d03c
000001e0: db3f 3d3e d915 35bd b1dd 00be d015 05bd
000001f0: 7221 56bd ba0f c1bc c1a4 9c3d 59f4 2dbd
00000200: df86 f7bd f283 36bd b107 b2bc 6fbe 573d
00000210: 65f9 2e3d 858c 443d fa20 603d 9ab5 de3e
00000220: 9c5c 6b3d 64fc 14be 3d08 3f3d 18d8 8fbd
00000230: 2806 ddbd 4c00 543d 82d3 c7bd d501 48bd
00000240: 6e6b 253c 429c 8dbc 912e 82bc a51e 9dbc
00000250: d933 833d ac31 bc3d bb2b c5bd a054 5d3d
00000260: 7bfe bebd 8957 c33d a8d3 a3bd 893a d7bd
00000270: 81f3 85bc bf24 a6bc 3683 09bd e726 8e3d
00000280: ddf1 8ebb 6231 7a3d 0fa7 3c3e 7fb0 9e3d
00000290: 8705 6ebd dfc2 c3bd 6330 b5bd 54bc 133c
000002a0: 6f43 4cbd 0095 fd3c f15d 033d 06e8 0ebe
000002b0: aac0 013e 41b6 44be beed 013d 1af4 613e
000002c0: c6d9 69be 813e 81bd ddf3 41bd c464 c5bd
000002d0: 6666 1c3e 383a 9b3d 91d2 613d dcf5 2a3e
000002e0: c21c 073e ac8e babc 1412 293e 3661 2b3d
000002f0: 6813 f0bc 4767 13bd 5051 7d3d 5c83 923d
00000300: cdeb a93c ed60 b0bd 56ef 33bc 7b09 2f3d
00000310: f711 83bd ae68 0dbe 37b3 a8bd 7941 c03c
00000320: ae61 0c3d f893 b63d 1025 123e eabe 5dbc
00000330: c443 2ebd 7bce 0d3e 4643 01bd b210 d4bc
00000340: 097b a6bc 78a6 b03d 2e19 4d3e 73cf 623e
00000350: 5550 043e b8d6 84bd 8d83 523e 5cb3 fe3d
00000360: 7321 f7bc 8347 ca3d 2ccf b73c 78a9 1a3e
00000370: a34d bd3c 03fe 4fbe 6cb2 8abd 58f2 dbbd
00000380: 02b3 82bb 3250 07be aaaf 3bbd 1c92 acbd
00000390: 6dc5 a83d 1fe3 a43d d4e2 133e 410f 1f3d
000003a0: 996c 88bd 5813 053e 9f2f 16bb 79a4 b73d
000003b0: ec55 10bd b4c9 a03c 9af3 3a3e c479 913d
000003c0: 5f0f 0bbd 68d0 5d3e 3b20 b03c 9da8 fa3d
000003d0: bbba 033e d7b0 1b3d e89f e7bd c7f7 fd3c
000003e0: 03e6 07be 14ee bebd 9e3e c4bd 865d 2ebe
000003f0: a6cf 283e 1e8a 953a ac8d c3bd c0c4 113d

lstm.weight_hh_l0 f4 [256, 64]
-0.06502631 0.0020333158 0.07540343 -0.0059687207 0.11573911 0.086660676 0.032302402 -0.12883793
-0.06946293 -0.06496513 0.067934304 0.08834977 -0.10553343 0.015382082 -0.051886443 0.08444645
0.1259271 -0.020769102 -0.0033838148 -0.009187894 -0.07450445 -0.062997915 -0.13346326 -0.07758805
-0.0094210105 -0.06031295 -0.04660426 0.053543933 0.07975172 0.10561553 0.119349696 -0.026811337
0.028414661 -0.080456495 0.04217977 0.052169856 -0.06953999 -0.086883634 -0.040721834 -0.025956366
0.088576965 0.060555823 -0.080252565 -0.14347829 0.060652453 -0.082128756 -0.033776242 -0.054838464
0.13046233 -0.14126055 -0.10186358 0.036728695 -0.015266666 0.006450661 0.07134324 0.019064547
0.15089673 0.033605956 0.018630145 -0.12753429 0.10574075 -0.107053585 -0.08496617 -0.05289223
-0.1829386 -0.17075291 -0.17155017 -0.020605803 0.14038798 -0.11947209 0.00871701 0.03540165
0.06615887 0.068220094 0.015384629 -0.054616738 0.022001531 -0.0819306 -0.17179766 0.05512691
-0.0020137264 -0.097426064 0.008201283 -0.056227542 0.047184423 0.032413643 -0.10774482 0.07929959
0.0809763 0.046351466 -0.101836585 -0.07569723 0.11176406 0.09938405 0.04754883 -0.009156344
0.05358051 0.067346096 0.12060071 0.027987763 -0.04836252 0.03597948 -0.07419704 -0.02433695
-0.07447327 0.11424706 -0.076493405 0.006384565 -0.15695535 0.03586297 0.040643945 -0.004631279
0.0062204325 -0.048422217 -0.09727436 0.03659552 -0.08151306 -0.08001136 -0.045003366 0.0364902
0.02348048 0.13149782 -0.06171254 -0.14246483 0.14308174 -0.049556363 -0.041943114 -0.013625529
-0.08419158 -0.15764642 0.09106252 0.04451354 -0.003870151 -0.1760067 -0.053344127 -0.0724813
-0.09010506 -0.10191109 -0.14088838 0.08086301 -0.15522867 0.099208385 -0.10565396 0.012267739
0.013868875 -0.04968893 -0.15990129 0.0051646777 -0.18160842 -0.12261791 0.103204526 -0.060733948
0.07773875 -0.06284026 -0.0959317 -0.113704614 0.0549024 0.07931035 0.01819681 -0.027970223
-0.025109809 -0.04334573 -0.025962008 0.04225765 -0.11278137 -0.024949864 0.0774998 0.09437754
0.05066279 0.0720725 -0.07016327 -0.024331218 -0.0056364844 -0.03967117 0.08047179 -0.019867474
0.08173568 0.11438405 0.10852818 0.045774475 -0.093333066 -0.027309382 -0.08115111 -0.07042819
-0.06491403 0.036765378 0.12873067 -0.13748984 -0.00625508 -0.17779438 -0.024910513 -0.08892625
-0.02887882 -0.06932934 0.020265596 -0.18705459 0.15131941 -0.100143015 0.006319259 -0.06548581
-0.08949282 -0.1198099 -0.057121564 -0.077731825 0.0039069555 0.1183944 -0.14582035 -0.040874977
-0.040133055 -0.08743689 -0.07760179 -0.0327184 -0.15293054 -0.08781939 -0.049907014 -0.03148158
-0.028153319 0.11457309 -0.14246823 0.03830893 -0.059795596 0.18700251 -0.019536711 -0.08436004
-0.0891518 -0.056064315 0.04138827 -0.0641888 -0.10596502 -0.033897832 -0.04304783 0.061685573
0.12828569 -0.057706 -0.06848175 -0.066632986 -0.16292226 -0.13228956 -0.019668221 -0.021418115
0.16747738 -0.07278711 -0.15999062 -0.09061187 0.13435505 -0.001577657 -0.0719519 0.013988728
-0.061758336 -0.08053097 0.03985415 0.056944232 0.1599055 -0.19172914 0.11394722 -0.09893942
00000000: 842c 85bd 6141 053b 1d6d 9a3d 4295 c3bb
00000010: a008 ed3d 277b b13d 864f 043d 17ee 03be
00000020: 9542 8ebd 700c 85bd 2421 8b3d b9f0 b43d
00000030: e921 d8bd 2105 7c3c e186 54bd 43f2 ac3d
00000040: 09f3 003e f723 aabc fec2 5dbb d288 16bc
00000050: ca95 98bd 0d05 81bd 98aa 08be 7ce6 9ebd
00000060: 955a 1abc b60a 77bd 1ce4 3ebd e250 5b3d
00000070: df54 a33d f44c d83d 9d6d f43d 73a3 dbbc
00000080: ddc5 e83c 60c6 a4bd b2c4 2c3d 0fb0 553d
00000090: fb6a 8ebd 0cf0 b1bd f0cb 26bd 72a2 d4bc
000000a0: d767 b53d 6209 783d 755b a4bd f9eb 12be
000000b0: b56e 783d 1f33 a8bd f558 0abd 4c9e 60bd
000000c0: eb97 053e 9ba6 10be da9d d0bd d470 163d
000000d0: 0a21 7abc 1160 d33b 681c 923d 412d 9c3c
000000e0: ac84 1a3e 66a6 093d 3f9e 983c 5998 02be
000000f0: 9b8e d83d e93e dbbd be02 aebd 86a5 58bd
00000100: 4254 3bbe dad9 2ebe d9aa 2fbe 80cd a8bc
00000110: dec1 0f3e c8ad f4bd cad1 0e3c 5201 113d
00000120: 4d7e 873d fab6 8b3d d00f 7c3c cdb5 5fbd
00000130: 8e3c b43c 3bcb a7bd baeb 2fbe c1cc 613d
00000140: b9f8 03bb 5187 c7bd ad5e 063c da4e 66bd
00000150: 7444 413d 2bc4 043d 51a9 dcbd d367 a23d
00000160: e7d6 a53d 09db 3d3d b38f d0bd 2607 9bbd
00000170: 8ee4 e43d dd89 cb3d 90c2 423d 7e04 16bc
00000180: 3d77 5b3d c0ec 893d 81fd f63d 9846 e53c
00000190: c717 46bd 385f 133d 9ef4 97bd 495e c7bc
000001a0: 7185 98bd 5dfa e93d 93a8 9cbd 9d35 d13b
000001b0: e7b8 20be 0de5 123d 447a 263d fcc1 97bb
000001c0: c5d4 cb3b 6056 46bd c837 c7bd 2fe5 153d
000001d0: 52f0 a6bd ffdc a3bd 7355 38bd bf76 153d
000001e0: 235a c03c 5da7 063e 4ac6 7cbd 4de2 11be
000001f0: 0584 123e 9dfb 4abd 8bcc 2bbd 9c3d 5fbc
00000200: a36c acbd 106e 21be fd7e ba3d d453 363d
00000210: 5ca2 7dbb 1a3b 34be 5f7f 5abd 1371 94bd
00000220: 0089 b8bd c3b6 d0bd 0b45 10be 819b a53d
00000230: 44f4 1ebe c42d cb3d 1a61 d8bd a0fe 483c
00000240: 473a 633c 9f86 4bbd 2abd 23be 753c a93b
00000250: 8ff7 39be 191f fbbd e55c d33d 29c4 78bd
00000260: 7e35 9f3d 65b2 80bd d777 c4bd f7dd e8bd
00000270: 57e1 603d 776d a23d 7a11 953c cf21 e5bc
00000280: 16b3 cdbc 4b8b 31bd 47ae d4bc 5c16 2d3d
00000290: ebf9 e6bd a863 ccbc 37b8 9e3d 0349 c13d
000002a0: c983 4f3d bf9a 933d c3b1 8fbd 4352 c7bc
000002b0: 42b2 b8bb 3d7e 22bd 65ce a43d 1dc1 a2bc
000002c0: 0965 a73d 2f42 ea3d 0644 de3d 047e 3b3d
000002d0: 6825 bfbd edb7 dfbc 8e32 a6bd a83c 90bd
000002e0: a6f1 84bd 4b97 163d f9d1 033e 23ca 0cbe
000002f0: 6af7 ccbb bb0f 36be 2211 ccbc f71e b6bd
00000300: 4693 ecbc 8afc 8dbd 0904 a63c 3d8b 3fbe
00000310: 7af3 1a3e c817 cdbd c911 cf3b 6d1d 86bd
00000320: 0348 b7bd e55e f5bd 4df8 69bd dd31 9fbd
00000330: eb05 803b c378 f23d ee51 15be 856c 27bd
00000340: 8f62 24bd 1d12 b3bd b0ed 9ebd bb03 06bd
00000350: d399 1cbe a7da b3bd 4c6b 4cbd d4f2 00bd
00000360: caa1 e6bc 4ca5 ea3d 31e3 11be d3e9 1c3d
00000370: 3aec 74bd 967d 3f3e 740b a0bc f5c4 acbd
00000380: 3895 b6bd b2a3 65bd bf86 293d 6b75 83bd
00000390: 3004 d9bd 74d8 0abd ec52 30bd 03aa 7c3d
000003a0: 535d 033e 205d 6cbd 2940 8cbd e076 88bd
000003b0: 18d5 26be ea76 07be 401f a1bc 0b75 afbc
000003c0: 317f 2b3e 6911 95bd 95d4 23be b792 b9bd
000003d0: 5f94 093e 62c9 ceba 855b 93bd fa30 653c
000003e0: 4ff6 7cbd 6ced a4bd 1b3e 233d 5b3e 693d
000003f0: 44be 233e a554 44be 295d e93d c0a0 cabd

lstm.bias_ih_l0 f4 [256]
-0.047596566 0.14880857 0.1446533 0.102173574 0.06475205 0.00077598117 0.05515034 0.02094232
0.019910524 -0.020361535 -0.06184407 0.049814276 0.180097 0.0950909 0.09284819 0.10509739
-0.07735571 0.11122432 0.08034462 -0.13777962 -0.0036380435 0.084049836 -0.015984803 0.014004147
0.10696033 -0.049459957 0.025523378 -0.04660531 0.013318032 0.12388862 0.05335158 -0.017726922
-0.022416426 -0.00063539663 0.036211293 0.0695213 -0.03804878 0.001361051 0.103484966 0.10659208
-0.021903474 0.006602866 -0.00709796 0.11639175 0.17181541 -0.1252298 0.028096205 0.13355054
0.11745292 0.024886506 -0.014910965 0.01647833 0.15637814 -0.029310782 -0.021125806 0.13107975
0.00760992 -0.037988234 0.11424194 0.120312445 0.11646542 0.068203874 0.12901227 0.09445718
0.013910053 -0.09803429 0.1655183 0.11972252 -0.039599463 0.10205065 0.07519538 0.051937852
0.0040878444 0.02574261 -0.019663127 0.045943096 0.0646122 0.09484699 0.09723587 0.1655741
-0.10178941 -0.0020722414 0.13755168 0.0704912 0.079434805 0.16398032 -0.04138538 0.063856654
0.0039130175 0.11281294 -0.07828942 -0.031868182 0.11787205 0.15745771 -0.03873584 -0.066681035
-0.092877164 0.12349341 0.1775878 0.10588801 0.016633738 0.15637209 0.084348544 -0.09344071
0.091533564 -0.008854569 -0.03772251 0.016045867 0.14830391 0.10743367 0.018530011 0.006923792
0.061597116 -0.17964366 0.06755846 0.063024305 0.07635738 0.0469186 0.082851894 0.038348187
-0.009216189 0.023623142 -0.0027506938 0.090116255 0.06855491 0.08811824 0.09278672 0.10407987
0.0664616 0.07294108 0.07589341 -0.055258 0.11868093 -0.16135727 -0.016535498 -0.14999653
-0.06861067 -0.051568326 0.012847141 0.07254365 -0.11512953 0.019500835 0.034797985 -0.046687316
-0.08154078 -0.018529829 -0.16049844 -0.046828773 -0.10839187 -0.07075038 -0.018911604 0.010211101
-0.038116176 -0.06601045 -0.1467493 0.10539439 0.04035051 0.17138588 0.050372176 0.10833639
-0.10408525 0.17698598 0.16694176 0.015746377 -0.093462296 0.11463775 -0.037618063 0.0627335
0.050412197 0.07893284 -0.07652211 0.09696315 -0.08498596 -0.10963797 -0.054916568 -0.05885378
-0.026120838 0.041206855 -0.07921944 -0.06252034 0.028244643 -0.12726218 -0.14813372 0.061179508
-0.052587744 -0.07773334 0.07445237 -0.032567702 0.09946878 -0.13115554 0.022963278 0.0035273137
-0.0473221 -0.029097043 -0.016359167 0.11352461 0.07848178 0.15127623 0.15335616 0.039098874
-0.17502412 0.03972261 0.08802177 -0.03609612 0.064031065 -0.017595038 0.1506839 0.060776085
-0.1372389 0.19029199 0.12407304 -0.07975227 0.057716466 -0.013756187 -0.061169006 -0.0009825755
0.029056242 0.17548303 0.066185735 0.070614725 0.11748074 0.078869246 -0.025557702 0.12735297
0.17988063 0.17472364 0.042223427 0.10010789 -0.04331146 0.12608789 0.07629624 -0.019207437
-0.08506888 0.04240749 -0.06929584 0.18383883 0.0031107569 0.13353047 -0.0032077676 0.10507657
-0.009228539 -0.17989366 0.07474039 0.15567008 -0.10087474 0.037709508 0.08760005 0.042222086
0.20901848 0.06684653 0.061952587 0.03467438 0.21080974 0.0026343896 0.21765086 0.13332203
00000000: 9ef4 42bd 4661 183e ff1f 143e 6140 d13d
00000010: b99c 843d 376b 4b3a 53e5 613d 3a8f ab3c
00000020: 651b a33c 3ccd a6bc 3550 7dbd 0e0a 4c3d
00000030: 596b 383e 05bf c23d 3127 be3d 4d3d d73d
00000040: ac6c 9ebd 94c9 e33d b88b a43d 1a16 0dbe
00000050: 3e6c 6ebb 5222 ac3d 90f2 82bc a671 653c
00000060: 040e db3d 8696 4abd 6716 d13c 36e5 3ebd
00000070: e033 5a3c 51b9 fd3d 3087 5a3d 0d38 91bc
00000080: a7a2 b7bc bf90 26ba 4b52 143d 2f61 8e3d
00000090: 0ad9 1bbd 4b65 b23a edef d33d f34c da3d
000000a0: ea6e b3bc db5c d83b 0196 e8bb cc5e ee3d
000000b0: 61f0 2f3e 3e3c 00be 032a e63c 79c1 083e
000000c0: 288b f03d c9de cb3c 1f4d 74bc 90fd 863c
000000d0: 9721 203e 2a1d f0bc 0710 adbc c539 063e
000000e0: a35c f93b 8d99 1bbd aef7 e93d 5f66 f63d
000000f0: 6c85 ee3d 79ae 8b3d cb1b 043e c472 c13d
00000100: fee6 633c 34c6 c8bd a17d 293e 1531 f53d
00000110: 0c33 22bd eeff d03d 0900 9a3d c9bc 543d
00000120: 53f3 853b 2be2 d23c 9114 a1bc d42e 3c3d
00000130: 6753 843d 243f c23d 9a23 c73d 428c 293e
00000140: f776 d0bd 71ce 07bb 59da 0c3e b15d 903d
00000150: b7ae a23d 75ea 273e b783 29bd 47c7 823d
00000160: c538 803b 780a e73d 3456 a0bd 3688 02bd
00000170: e766 f13d 983c 213e 79a9 1ebd 1190 88bd
00000180: 6236 bebd 1dea fc3d 94d9 353e d0db d83d
00000190: 7a43 883c 0120 203e eebe ac3d d85d bfbd
000001a0: f375 bb3d c112 11bc eb82 1abd 9f72 833c
000001b0: fbdc 173e 2f06 dc3d 40cc 973c fae0 e23b
000001c0: 424d 7c3d 82f4 37be 175c 8a3d e312 813d
000001d0: 4261 9c3d b82d 403d 41ae a93d fd12 1d3d
000001e0: 80ff 16bc 5285 c13c fc44 34bb df8e b83d
000001f0: 8466 8c3d 5677 b43d f706 be3d d427 d53d
00000200: 051d 883d 2262 953d 016e 9b3d 3656 62bd
00000210: fd0e f33d d73a 25be 7475 87bc b198 19be
00000220: c083 8cbd 4f39 53bd d17c 523c c491 943d
00000230: 08c9 ebbd 37c0 9f3c 5588 0e3d 333b 3fbd
00000240: dafe a6bd decb 97bc b459 24be 87cf 3fbd
00000250: 8ffc ddbd 93e5 90bd 82ec 9abc 764c 273c
00000260: b51f 1cbd 7d30 87bd 7345 16be 04d9 d73d
00000270: 9446 253d c87f 2f3e 0e53 4e3d 78df dd3d
00000280: a62a d5bd d03b 353e c8f2 2a3e 8cfe 803c
00000290: 2969 bfbd 32c7 ea3d 6615 1abd 6c7a 803d
000002a0: 057d 4e3d 8aa7 a13d a0b7 9cbd 9e94 c63d
000002b0: 1e0d aebd df89 e0bd 32f0 60bd a910 71bd
000002c0: 5efb d5bc 85c8 283d cd3d a2bd aa0a 80bd
000002d0: 4f61 e73c 0451 02be 5eb0 17be 5d97 7a3d
000002e0: 3f66 57bd a832 9fbd 7c7a 983d b665 05bd
000002f0: 4ab6 cb3d a34d 06be 7c1d bc3c 812a 673b
00000300: d1d4 41bd ec5c eebc a903 86bc 977f e83d
00000310: 0ebb a03d 28e8 1a3e 6609 1d3e 2426 203d
00000320: 8639 33be 2db4 223d c244 b43d 86d9 13bd
00000330: b822 833d 7823 90bc e14c 1a3e 58f0 783d
00000340: 5b88 0cbe e7db 423e 021a fe3d 2855 a3bd
00000350: 1a68 6c3d a161 61bc 5a8c 7abd c3c9 80ba
00000360: 5b07 ee3c d3b1 333e 638c 873d 749e 903d
00000370: be99 f03d 3386 a13d 635e d1bc d168 023e
00000380: a132 383e c1ea 323e 79f2 2c3d 5e05 cd3d
00000390: 5c67 31bd 2f1d 013e 3441 9c3d ea58 9dbc
000003a0: 9838 aebd 7ab3 2d3d faea 8dbd 3f40 3c3e
000003b0: d7dd 4b3b 36bc 083e 6939 52bb 6232 d73d
000003c0: 4c33 17bc 0b36 38be 7d11 993d fa67 1f3e
000003d0: 6a97 cebd 4975 1a3d a867 b33d 11f1 2c3d
000003e0: f108 563e d5e6 883d ffc1 7d3d b906 0e3d
000003f0: 82de 573e b9a5 2c3b dedf 5e3e 9285 083e

lstm.bias_hh_l0 f4 [256]
-0.040003847 0.03562924 0.11632467 0.13227107 0.105669126 0.07383526 -0.0028308553 0.13502088
0.027200973 0.16858892 0.033012677 0.1439068 -0.030159207 -0.062234133 0.19030942 0.0039258306
-0.06386368 -0.022194263 0.15518849 -0.021459915 0.122963466 0.13895683 -0.062378954 0.15078998
-0.03963361 -0.0040157055 -0.08469665 0.13363585 0.13740256 0.11583039 0.09965362 -0.058035854
0.13273755 -0.074527755 -0.048831787 -0.027829945 0.1679524 0.03236086 0.10305057 0.00504389
-0.0012286119 -0.055490397 0.037786067 0.12503834 0.02640041 0.05293777 0.12748288 0.034420554
0.03902165 -0.14238258 0.17008719 0.1432277 -0.03792794 0.07574103 -0.029386636 0.13004696
-0.028798021 0.016183814 -0.009048261 0.11476889 0.0053956294 -0.14445035 0.18312736 0.026775751
-0.11518196 0.062600985 0.02630291 0.09082258 0.1308078 0.19879071 -0.057328083 -0.024891067
-0.014917598 0.042181935 0.16483128 -0.07206755 0.1927255 -0.0097539965 -0.010742534 0.06277553
-0.10084925 -0.042485174 0.124913655 -0.037691843 0.04705786 0.0928197 -0.071977384 -0.11118317
0.10739603 -0.12390888 0.15245363 0.054465096 0.14957185 0.16365892 0.11423236 0.13971822
-0.0010900085 0.039914638 0.105454825 0.06330564 0.10306702 0.07466503 0.05870044 -0.03330096
0.0408368 0.10557425 0.0627902 0.10858117 0.08105697 -0.028644152 0.034429554 0.094357885
-0.025140816 -0.09702634 -0.0020935824 0.049423616 -0.02387959 -0.04414797 0.078171894 0.02844025
0.01223629 0.0762847 0.0034488193 -0.062392175 0.10198301 -0.07544315 0.05382021 -0.07049962
0.022902718 -0.043292623 -0.04796651 -0.035797317 0.020765359 -0.16493513 0.05007096 -0.14504066
-0.08068823 -0.035874434 -0.06388188 0.073470354 -0.113722295 -0.10406994 -0.15265632 0.0017661451
0.12559196 -0.15898223 -0.0759722 -0.04051174 0.02992905 -0.020121658 -0.041470096 0.0037754045
-0.007190077 -0.09318518 0.012961707 -0.05793413 0.10855367 0.10784766 0.09764348 -0.10033132
-0.13246807 -0.057686586 0.18325034 0.055921827 -0.10793842 0.109277934 -0.16531314 -0.019164506
0.17371874 0.049564425 -0.13444373 0.01576625 -0.015184195 0.03978906 0.14834249 0.09629326
0.021533053 0.071505696 0.039829355 0.102347165 0.0704659 -0.024479968 0.029832825 0.038628507
-0.036206875 -0.010845748 0.032026745 -0.0004023461 0.16486582 -0.036332734 0.07639419 0.075870514
0.15537106 0.014796129 0.1540363 0.17074609 -0.0022610326 0.1516478 0.1595397 0.20868602
-0.0048163864 -0.009890541 0.089482665 -0.009400488 0.020293826 0.059395116 0.0864676 0.18970071
0.056042504 0.19783221 0.041656323 0.04904311 0.07448592 -0.011153658 0.07516412 0.005367596
0.15561232 0.18853445 -0.047345735 0.1298308 0.074586794 0.15661779 0.1517824 0.17676869
0.10219487 0.114368916 0.072426364 0.02446212 0.12420365 0.22142318 0.18849955 0.10610149
0.0840904 0.03575526 -0.09051584 0.07220494 0.03651564 0.09942974 0.015954193 0.065580234
0.18387245 0.030815134 -0.01603729 0.0573464 -0.0132792955 0.12755233 0.06322004 0.121203944
0.19821496 0.06570431 -0.06277519 0.12841353 0.2254419 0.013628911 0.0509563 0.04907849
00000000: 13db 23bd f7ef 113d a13b ee3d 1172 073e
00000010: 0e69 d83d f136 973d df85 39bb ea42 0a3e
00000020: 93d4 de3c 93a2 2c3e 4d38 073d 4e5c 133e
00000030: 7110 f7bc 38e9 7ebd 79e0 423e 41a4 803b
00000040: f6ca 82bd bed0 b5bc bbe9 1e3e b4cc afbc
00000050: 45d4 fb3d b34a 0e3e 1381 7fbd b068 1a3e
00000060: da56 22bd 2e96 83bb 7075 adbd d6d7 083e
00000070: 42b3 0c3e 7c38 ed3d 3217 cc3d 01b7 6dbd
00000080: 5aec 073e 02a2 98bd d703 48bd a0fb e3bc
00000090: b7fb 2b3e d28c 043d 2d0c d33d 3747 a53b
000000a0: 6009 a1ba e649 63bd 90c5 1a3d 0d0a 003e
000000b0: ac45 d83c 46d5 583d df8a 023e 91fc 0c3d
000000c0: 2ad5 1f3d bdcc 11be 562b 2e3e 48aa 123e
000000d0: 545a 1bbd 1d1e 9b3d 3ebc f0bc 082b 053e
000000e0: d4e9 ebbc eb93 843c 283f 14bc f40b eb3d
000000f0: d2cd b03b cbea 13be bd85 3b3e d258 db3c
00000100: 85e4 ebbd f234 803d 3379 d73c 3001 ba3d
00000110: 7bf2 053e cb8f 4b3e dad0 6abd 5ae8 cbbc
00000120: f168 74bc f7c6 2c3d 88c9 283e 2798 93bd
00000130: d559 453e 3acf 1fbc 7401 30bc 7590 803d
00000140: 0d8a cebd ef04 2ebd bbd2 ff3d c362 1abd
00000150: bebf 403d 4118 be3d e168 93bd 00b4 e3bd
00000160: 73f2 db3d f0c3 fdbd ce1c 1c3e cb16 5f3d
00000170: 5d29 193e 3496 273e a8f2 e93d 4b12 0f3e
00000180: 9ede 8eba 887d 233d b3f8 d73d 63a6 813d
00000190: cd14 d33d fbe9 983d df6f 703d 9666 08bd
000001a0: 7d44 273d 5037 d83d 2698 803d ce5f de3d
000001b0: 3201 a63d 24a7 eabc 0106 0d3d b53e c13d
000001c0: 1df4 cdbc bfb5 c6bd 7c34 09bb 6b70 4a3d
000001d0: 219f c3bc 80d4 34bd 9618 a03d 87fb e83c
000001e0: b87a 483c 273b 9c3d 9605 623b f08e 7fbd
000001f0: 78dc d03d f081 9abd 9572 5c3d 1b62 90bd
00000200: 7b9e bb3c 9b53 31bd 8878 44bd 35a0 12bd
00000210: 1d1c aa3c c1e4 28be 3517 4d3d 8a85 14be
00000220: df3f a5bd 12f1 12bd 81d4 82bd a077 963d
00000230: 3ce7 e8bd 9f22 d5bd f051 1cbe ff7d e73a
00000240: 2e9b 003e 3dcc 22be 5097 9bbd a3ef 25bd
00000250: c42d f53c 2dd6 a4bc 8cdc 29bd c76c 773b
00000260: bd9a ebbb dfd7 bebd 575d 543c 574c 6dbd
00000270: 6351 de3d 3cdf dc3d 4ef9 c73d 827a cdbd
00000280: b6a5 07be c548 6cbd faa5 3b3e 490e 653d
00000290: d10e ddbd 1ccd df3d d947 29be e2fe 9cbc
000002a0: 53e3 313e 1104 4b3d 9eab 09be 3928 813c
000002b0: 21c7 78bc daf9 223d 18e7 173e 6735 c53d
000002c0: 1666 b03c 9471 923d 1b24 233d 649b d13d
000002d0: 6d50 903d 378a c8bc f863 f43c ed38 1e3d
000002e0: a94d 14bd 5db2 31bc 7a2e 033d fbf1 d2b9
000002f0: 96d2 283e a2d1 14bd 8f74 9c3d 0062 9b3d
00000300: 9719 1f3e 776b 723c b1bb 1d3e 10d8 2e3e
00000310: d52d 14bb 9049 1b3e 605e 233e cab1 553e
00000320: c7d2 9dbb f00b 22bc b042 b73d 8104 1abc
00000330: 3d3f a63c 4b48 733d ed15 b13d e740 423e
00000340: d38c 653d 8794 4a3e d29f 2a3d 6ee1 483d
00000350: 138c 983d d5bd 36bc a5ef 993d a9e2 af3b
00000360: d658 1f3e 2d0f 413e 9aed 41bd 5ef2 043e
00000370: f6c0 983d 6a60 203e d86c 1b3e da02 353e
00000380: 8b4b d13d 403a ea3d 4654 943d c964 c83c
00000390: 7c5e fe3d c2bc 623e 0706 413e bd4b d93d
000003a0: 9637 ac3d 1c74 123d 5e60 b9bd 2fe0 933d
000003b0: 6c91 153d d2a1 cb3d 5eb2 823c ee4e 863d
000003c0: 0f49 3c3e 0570 fc3c a360 83bc 0fe4 6a3d
000003d0: 6791 59bc 149d 023e 8279 813d c639 f83d
000003e0: ddf8 4a3e fb8f 863d 4790 80bd d67e 033e
000003f0: 3eda 663e cc4b 5f3c 8eb7 503d 8706 493d

fc.0.weight f4 [64, 768]
0.033116654 0.0128098205 0.011532664 -0.0083642565 0.01831169 -0.018193973 0.03158593 -0.026866082
0.02294344 -0.0045980997 -0.011365909 0.023216154 0.011659149 -0.004731294 -0.01990051 0.031678587
-0.03317884 0.021568108 0.03286642 -0.004433777 -0.0067051407 0.021381628 0.026790775 0.00017695501
0.01330078 -0.032860346 0.028200358 -0.028219555 0.011326741 0.0074392 0.013117321 0.018708289
-0.028260088 -0.0008801073 0.03549511 0.03472826 0.030841663 0.009387646 0.03562919 -0.031278614
-0.033078983 -0.02964302 -0.035281315 -0.023059683 -0.018044896 -0.022014124 0.024494313 0.0235704
-0.018580114 -0.0063739605 -0.009776149 0.013289571 -0.0014432184 -0.03127972 -0.021206453 0.02019256
-0.0016695075 -0.029852249 -0.014657831 0.03475324 -0.019718071 -0.030776318 -0.02700169 -0.035843264
0.0042097643 0.0056222677 0.011774279 -0.017455367 0.020325214 0.010458428 0.01505518 -0.032714877
0.03465765 -0.00729014 -0.021667343 0.008648675 0.0071937293 0.004037291 -0.030972702 -0.034129784
0.018781878 -0.022821091 0.014330544 0.00856512 0.0031270906 0.016762096 -0.01765569 0.01812224
0.017920766 0.034880742 0.030744791 -0.011556024 0.033868156 -0.019267308 -0.015701462 0.030190326
-0.01065819 0.021548655 -0.024342835 0.00051093847 -0.024323609 -0.030651465 -0.002507709 0.030113712
0.00014613196 0.010657232 -0.008198246 0.03074275 -0.023215314 0.012370516 -0.029438535 -0.03568381
0.033595115 0.010413133 -0.02324466 0.0060274713 -0.027223993 0.03571523 0.026461639 -0.015985599
-0.030327382 -0.03246781 -0.016572384 0.018125616 0.007833935 -0.023329247 0.022466537 -0.022835007
-0.023309851 0.010552652 0.03443966 -0.025782362 -0.029135384 -0.016723039 0.030574068 0.0123633705
-0.034382872 -0.015393743 -0.014636865 -0.015422624 0.017297018 0.017391592 0.024855476 -0.01841399
0.025093038 0.021049958 0.013765112 -0.020463688 0.00011351332 -0.015670555 0.0017628632 0.02602576
-0.018937297 0.023357049 -0.008731281 -0.010581626 -0.0066108275 -0.018513672 -0.014320422 -0.005875608
-0.035280798 -0.029953789 -0.0075958986 0.0025098808 -0.018036181 0.032514587 0.008861072 0.009807069
-0.023102695 -0.03116355 0.010592222 0.016035546 -0.0012712851 0.029782735 0.018091097 0.019439522
-0.0066534188 0.017321788 -0.023013268 -0.01366384 -0.0044311956 0.035725817 0.032759286 0.020346094
-0.035837103 0.02489578 -0.017313777 -0.035571855 -0.032978788 -0.035154164 0.033106104 -0.011615433
0.033257924 0.014199294 -0.018494615 0.015647564 -0.020109318 0.005794443 -0.01356451 0.018201962
0.035658754 -0.031201316 -0.0022666305 -0.030018415 0.0026380382 -0.0043323524 -0.031567488 0.027969308
0.031118393 -0.010071598 0.035232976 0.027615182 0.029908836 -0.0044454224 0.010447796 0.008739915
-0.021257715 0.01207209 0.03151775 -0.0071816538 0.00967738 -0.032859 0.0034360625 -0.032134347
-0.032533966 -0.033737984 0.030591331 0.009608343 0.022955708 0.034356825 -0.03308542 0.001253333
-0.024581715 -0.0017560832 0.015444152 0.01291009 0.00033595413 0.034013554 -0.0005769655 0.00334239
-0.027777668 -0.0029540844 0.01913029 0.034381077 0.024533574 0.0021658987 -0.013757253 0.016332652
-0.018424861 0.01342101 0.029783174 -0.019734047 -0.034767643 -0.021319095 0.019896057 0.017816726
00000000: 54a5 073d 48e0 513c 80f3 3c3c 3c0a 09bc
00000010: 6602 963c 870b 95bc 4060 013d 4216 dcbc
00000020: e2f3 bb3c a8ab 96bb 1438 3abc ce2f be3c
00000030: 0406 3f3c f808 9bbb 6506 a3bc 68c1 013d
00000040: 89e6 07bd 9aaf b03c f09e 063d 3849 91bb
00000050: ccb6 dbbb 8628 af3c 5478 db3c 008d 3939
00000060: 84eb 593c 9298 06bd 7004 e73c b22c e7bc
00000070: cc93 393c 88c4 f33b 08ea 563c 2042 993c
00000080: b381 e7bc 00b7 66ba 5263 113d 383f 0e3d
00000090: a8a7 fc3c a4ce 193c eaef 113d 011e 00bd
000000a0: d47d 07bd ebd5 f2bc 2483 10bd a9e7 bcbc
000000b0: e4d2 93bc f756 b4bc 4ca8 c83c b616 c13c
000000c0: 5335 98bc a8dc d0bb 242c 20bc 80bc 593c
000000d0: 602a bdba 2a1f 00bd 28b9 adbc de6a a53c
000000e0: 60d3 daba b48c f4bc 6627 70bc 6a59 0e3d
000000f0: cb87 a1bc 9e1e fcbc a632 ddbc 63d0 12bd
00000100: 10f2 893b 003b b83b e8e8 403c 8ffe 8ebc
00000110: 1081 a63c d459 2b3c 00aa 763c 0900 06bd
00000120: 2ef5 0d3d 20e2 eebb b67f b1bc 2cb3 0d3c
00000130: 60b9 eb3b 404b 843b 77ba fdbc accb 0bbd
00000140: 74dc 993c 4cf3 babc a8ca 6a3c b854 0c3c
00000150: e0ef 4c3b aa50 893c aaa2 90bc 1875 943c
00000160: 92ce 923c 1cdf 0e3d 80dc fb3c 7a55 3dbc
00000170: 56b9 0a3d 79d6 9dbc 5aa0 80bc b451 f73c
00000180: b09f 2ebc ce86 b03c a06a c7bc 80f0 053a
00000190: 4e42 c7bc c818 fbbc 6058 24bb 08b1 f63c
000001a0: 003b 1939 ac9b 2e3c f051 06bc 38d8 fb3c
000001b0: 0b2e bebc b4ad 4a3c 1529 f1bc 3029 12bd
000001c0: 089b 093d d89b 2a3c 966b bebc 1882 c53b
000001d0: da04 dfbc 224a 123d 14c6 d83c 3bf4 82bc
000001e0: 2171 f8bc f7fc 04bd cfc2 87bc 2c7c 943c
000001f0: e859 003c fa1c bfbc be0b b83c 7b10 bbbc
00000200: 4df4 bebc 08e5 2c3c 9a10 0d3d 8835 d3bc
00000210: 54ad eebc c1fe 88bc 7876 fa3c bc8f 4a3c
00000220: 0ed5 0cbd 0a36 7cbc 76cf 6fbc 2caf 7cbc
00000230: 7ab2 8d3c d078 8e3c b69d cb3c f0d8 96bc
00000240: ea8f cd3c f670 ac3c 1087 613c 77a3 a7bc
00000250: 000e ee38 895f 80bc e00f e73a fa33 d53c
00000260: 6422 9bbc 4857 bf3c a60d 0fbc 8e5e 2dbc
00000270: a49f d8bb fca9 97bc 34a0 6abc 2c88 c0bb
00000280: 9982 10bd a661 f5bc 04e7 f8bb d07c 243b
00000290: 9dc0 93bc 042e 053d 082e 113c d4ad 203c
000002a0: dd41 bdbc b44a ffbc 008b 2d3c fa5c 833c
000002b0: 40a1 a6ba ecfa f33c c833 943c a23f 9f3c
000002c0: ec04 dabb 6ce6 8d3c 5286 bcbc 4cde 5fbc
000002d0: 9033 91bb 3c55 123d 9a2e 063d daac a63c
000002e0: edc9 12bd 3cf2 cb3c 9fd5 8dbc cbb3 11bd
000002f0: c414 07bd d0fd 0fbd 449a 073d a84e 3ebc
00000300: 7639 083d 28a4 683c 0582 97bc 522f 803c
00000310: 4cbc a4bc 50df bd3b ae3d 5ebc 481c 953c
00000320: ea0e 123d e799 ffbc c08b 14bb 2ee9 f5bc
00000330: f0e2 2c3b 68f6 8dbb e94c 01bd e41f e53c
00000340: 00ec fe3c 5803 25bc 7450 103d 3c39 e23c
00000350: 6003 f53c e8aa 91bb 3c2d 2b3c dc31 0f3c
00000360: a924 aebc 04ca 453c c218 013d 1454 ebbb
00000370: e08d 1e3c 2997 06bd 902f 613b 4e9f 03bd
00000380: 5642 05bd d730 0abd ac9a fa3c 506c 1d3c
00000390: 9c0d bc3c beb9 0c3d 9484 07bd e046 a43a
000003a0: 985f c9bc 602c e6ba 7809 7d3c d884 533c
000003b0: 0023 b039 cc51 0b3d 803f 17ba 000c 5b3b
000003c0: fe8d e3bc 5099 41bb 20b7 9c3c 2cd3 0c3d
000003d0: a2fa c83c c0f1 0d3b 1a66 61bc 0ecc 853c
000003e0: bcef 96bc cce3 5b3c d8fb f33c 4ca9 a1bc
000003f0: 8468 0ebd 62a5 aebc 0efd a23c 62f4 913c

fc.0.bias f4 [64]
0.01479559 -0.016992232 -0.007817628 -0.0056939814 -0.029432096 -0.017451204 -0.034299523 -0.016314588
0.025492754 -0.002214469 -0.021893825 0.014656872 -0.0324969 -0.014374493 0.0034551844 -0.01715063
0.023526743 0.024599161 0.02422854 0.013414178 0.00495163 0.010125529 -0.01789555 -0.016767543
0.011019006 -0.02886868 -0.013910625 0.00027263165 -0.014000921 -0.03262502 0.0246705 -0.0089696385
-0.0022590198 0.016874123 0.019207172 -0.0074541513 -0.00947492 -0.019905247 -0.016777681 -0.008826451
0.00048588216 -0.02591947 0.008720748 0.0042120256 0.0115462765 -0.00095980614 -0.0104656 -0.015161706
-0.028178008 -0.0070741624 0.03126268 0.029984213 0.020518258 0.0157714 0.010478146 0.013213862
-0.020483712 -0.0015659593 0.01903458 0.019063503 -0.02449409 -0.029314404 -0.016397825 -0.007916074
00000000: 3469 723c 4b33 8bbc 8215 00bc 9494 babb
00000010: 941b f1bc d4f5 8ebc a87d 0cbd 2ca6 85bc
00000020: 2ed6 d03c a020 11bb ae5a b3bc 6023 703c
00000030: 781b 05bd fe82 6bbc 6070 623b 7a7f 8cbc
00000040: 28bb c03c 2e84 c93c ee7a c63c 24c7 5b3c
00000050: 4841 a23b 8ce5 253c b099 92bc 165c 89bc
00000060: 1089 343c 037e ecbc 64e9 63bc 00f0 8e39
00000070: 1e64 65bc d0a1 05bd ca19 ca3c 64f5 12bc
00000080: 100c 14bb 9a3b 8a3c 5c58 9d3c f441 f4bb
00000090: b23c 1bbc 5410 a3bc 5971 89bc d29c 10bc
000000a0: 00be fe39 1155 d4bc 78e1 0e3c 0805 8a3b
000000b0: 982c 3d3c 809b 7bba e877 2bbc ce68 78bc
000000c0: 91d5 e6bc 60ce e7bb 4c0d 003d 74a1 f53c
000000d0: e815 a83c 0633 813c 88ac 2b3c f47e 583c
000000e0: 75cd a7bc e040 cdba 68ee 9b3c 102b 9c3c
000000f0: d4a7 c8bc c324 f0bc bb54 86bc 6cb2 01bc

fc.3.weight f4 [1, 64]
-0.03062807 0.03290187 -0.058815673 0.07861741 -0.07366799 0.12308626 0.110257536 -0.07154705
0.03612484 -0.06720574 0.0037994236 -0.058225855 0.109611005 0.11241789 0.10050781 -0.013817087
-0.053400725 -0.028554738 -0.09110835 -0.10775654 0.07333264 0.0031436682 -0.084246084 0.08746593
0.036548406 -0.106992096 0.037178084 0.0075730383 -0.0016692132 0.12430835 -0.08755116 -0.11442825
0.10458174 -0.03850007 -0.0055379122 -0.021771654 0.025116175 0.08059643 -0.06239012 -0.065038785
0.029442638 0.055889636 0.023665652 0.103713304 -0.04704444 0.07397868 -0.08294065 0.060748547
0.004347503 -0.10663274 0.095417336 -0.10104668 0.037256345 -0.09589474 -0.080813766 0.071073234
-0.026150003 0.07798232 0.10283229 -0.0027591735 -0.06983577 0.03653416 0.07731661 0.035294294
00000000: b8e7 fabc 1cc4 063d b4e8 70bd 2a02 a13d
00000010: 3edf 96bd a614 fc3d b4ce e13d 4287 92bd
00000020: a4f7 133d 2aa3 89bd c0ff 783b 3c7e 6ebd
00000030: bc7b e03d 5a3b e63d 0ad7 cd3d 1061 62bc
00000040: b8ba 5abd a0eb e9bc 0497 babd 76af dcbd
00000050: 6c2f 963d 0006 4e3b 3689 acbd 5621 b33d
00000060: c8b3 153d ac1e dbbd 0c48 183d 4027 f83b
00000070: 80c9 daba 6095 fe3d 064e b3bd 5c59 eabd
00000080: f42e d63d 40b2 1dbd 6077 b5bb 785a b2bc
00000090: 70c0 cd3c be0f a53d c88c 7fbd 0e33 85bd
000000a0: b031 f13c 88ec 643d 78de c13c a467 d43d
000000b0: acb1 40bd 2282 973d cadc a9bd 78d3 783d
000000c0: 8075 8e3b 4462 dabd 2a6a c33d 90f1 cebd
000000d0: 1c9a 183d 7664 c4bd b081 a5bd d88e 913d
000000e0: 8838 d6bc 32b5 9f3d bc99 d23d 40d3 34bb
000000f0: 0e06 8fbd d8a4 153d 2c58 9e3d c090 103d
